RollerAgent/Assets/Learn/RollerAgent_12.onnx (onnx, 81045 bytes, 9 tensors)

action_model._continuous_distribution.log_sigma f4 [1, 3]
0	0xbee2335b	-0.44179806
1	0xbeeae85a	-0.45880395
2	0xbf057ce0	-0.5214367

action_model._continuous_distribution.mu.bias f4 [3]
0	0xbd81f81b	-0.063461505
1	0x3c5d0ced	0.013491851
2	0xbc3fc0cf	-0.011703684

action_model._continuous_distribution.mu.weight f4 [3, 128]
0	0xbd740dee	-0.059583597
1	0x3d2c96bf	0.04213595
2	0xbd0369d6	-0.032083355
3	0xbd57085a	-0.0524982
4	0xbd99ed33	-0.07515945
5	0xbd8e82ed	-0.06958566
6	0x3c9f7ee1	0.01946968
7	0x3c16f2f4	0.009213198
8	0xbd3b381a	-0.0457078
9	0xbd9bfc63	-0.07616498
10	0xbd1f958c	-0.03896098
11	0x3d5a06a9	0.053229008
12	0xbd24449f	-0.040104505
13	0x3cac2b7f	0.021016834
14	0xbd6e6c5c	-0.05820881
15	0x3d175e84	0.03695537
16	0xbd414f80	-0.047194958
17	0xbddbea90	-0.107380986
18	0x3dcd4c2c	0.10024294
19	0xbbcf8cd5	-0.006333927
20	0xbdd498ec	-0.1038073
21	0x3d2073ff	0.039173122
22	0xbd374622	-0.04474462
23	0xbd447638	-0.047964305
24	0x3d2c6f75	0.04209848
25	0xbcf39494	-0.029733934
26	0xbcd0474c	-0.025424622
27	0xbd71f9e7	-0.059076216
28	0x3c309e7e	0.010779975
29	0xbdb74d9b	-0.08950349
30	0xbc5bd131	-0.013416574
31	0x3d2ef8d8	0.042717785
32	0x3d24c8fc	0.040230736
33	0xbd350447	-0.044193532
34	0xbca3ad8f	-0.01998022
35	0xbdb1e55e	-0.086863264
36	0xbc95a475	-0.018266896
37	0xbcf95011	-0.030433686
38	0xbd7f40ad	-0.06231754
39	0xbd1f3cd0	-0.038876355
40	0xbd022fb8	-0.03178379
41	0x3c93c284	0.018037088
42	0x3cae81b6	0.021302085
43	0xbd0f07c5	-0.03491952
44	0x3da07744	0.07835248
45	0x3de54ff2	0.11196889
46	0xbc977c3c	-0.018491857
47	0x3c939609	0.018015878
48	0xbdd52682	-0.104077354
49	0xbcad0a30	-0.021123022
50	0x3c8409b3	0.016117906
51	0xbd6c2755	-0.057654697
52	0x3cfd44be	0.030916568
53	0x3c8c535b	0.01712959
54	0xbd99c85f	-0.07508921
55	0x3d0c5496	0.034260355
56	0xbcd05541	-0.025431277
57	0x3ca48e73	0.020087456
58	0xbc988ab5	-0.018620828
59	0x3d20c33f	0.0392487
60	0xbca2d0ca	-0.019874949
61	0x3cfacf97	0.030616565
62	0x3e248754	0.16067249
63	0x3c6f7a74	0.014616597
64	0xba956552	-0.0011397994
65	0x3cd129d9	0.02553265
66	0x3c7937df	0.015211075
67	0xbcd4707a	-0.02593254
68	0xbd1667a6	-0.03671994
69	0xbda21d8e	-0.07915793
70	0xbd420cf8	-0.04737565
71	0xbd61a015	-0.055084307
72	0xbc916464	-0.017748065
73	0xbcc410bc	-0.02393376
74	0xbb018a8a	-0.0019766414
75	0x3c437b9d	0.011931327
76	0xbdaa611e	-0.08319305
77	0xbb38fc8b	-0.00282267
78	0xbd28ba95	-0.041193563
79	0x3b91721c	0.0044386517
80	0xbd5046da	-0.05084882
81	0xbdcfad71	-0.10140503
82	0xbd89072e	-0.066908225
83	0xbd1bb5fd	-0.038015354
84	0xbd3e99f3	-0.046533536
85	0xbdae6a44	-0.08516362
86	0xbe0c9566	-0.13728866
87	0xbd96956f	-0.07352721
88	0xbc86bceb	-0.016447505
89	0x3db9ede2	0.09078576
90	0xbd8652fb	-0.06558796
91	0xbd31432e	-0.04327696
92	0xbd8f583e	-0.06999253
93	0x3d480b75	0.04883905
94	0x3b87fbed	0.004149905
95	0xbc8755fb	-0.01652049
96	0xbc5aab33	-0.013346481
97	0xbd37c65a	-0.044866897
98	0x3cb36b1c	0.02190166
99	0xbdee9d5e	-0.11651109
100	0xbb6c37e1	-0.0036044049
101	0xbd02388e	-0.031792216
102	0xbd61bf55	-0.05511411
103	0xbcf29aaf	-0.029614775
104	0x3d97f10c	0.07419023
105	0xbc6183ed	-0.013764364
106	0x3c8792e2	0.016549531
107	0xbc8da0cb	-0.017288586
108	0xbda58452	-0.08081879
109	0xbd0cf7e0	-0.03441608
110	0xbd2c350b	-0.042042773
111	0x3b8621f1	0.0040934016
112	0x3d0840d4	0.03326495
113	0xbd34904d	-0.04408293
114	0xbaae8d1a	-0.0013317198
115	0xbdd5d234	-0.10440484
116	0xbd157605	-0.036489505
117	0xbcaa653d	-0.020800227
118	0xbc9383b0	-0.01800713
119	0xbd195e1f	-0.037443276
120	0x3c7b1f78	0.015327327
121	0x3dc29856	0.09501712
122	0x3c0194de	0.007909028
123	0xbd8019aa	-0.06254895
124	0x3cca2e92	0.02468041
125	0xbc6b459e	-0.01435986
126	0xbd29114d	-0.041276265
127	0x3d31f93d	0.043450583
128	0x3cbeeb27	0.023305489
129	0xbca21bb7	-0.019788606
130	0x3d9618c1	0.0732894
131	0x3c3cee83	0.011531475
132	0xbbc67afe	-0.0060571423
133	0x3d6a88f2	0.057259507
134	0x3c37573e	0.011190234
135	0x3bdf672b	0.0068177185
136	0x3abc0045	0.0014343342
137	0xbd38fec3	-0.045164835
138	0x3d924d9d	0.0714371
139	0xbd166c08	-0.03672412
140	0x3bd67d7d	0.006545721
141	0xb9066773	-0.00012817774
142	0x3cd2cde9	0.025732951
143	0xbbf7771e	-0.0075520417
144	0x3b8ab3db	0.004232866
145	0xbc4d6648	-0.012536593
146	0x3b91b785	0.004446926
147	0x3d3f5f0a	0.046721496
148	0xbd4c8a81	-0.049936775
149	0xbd82e799	-0.0639183
150	0xbc57b6f8	-0.013166182
151	0xbd11cde0	-0.03559673
152	0x3de01bca	0.109428
153	0x3d18b868	0.03728524
154	0xbd0e62ea	-0.0347623
155	0xbd56d6be	-0.052450888
156	0xbd91f428	-0.07126647
157	0x3d469e7d	0.04849099
158	0xbbdb18b8	-0.0066862963
159	0xbd2d2de0	-0.042280078
160	0xbdca3e5e	-0.09875177
161	0x3cfbf942	0.030758504
162	0x3c6ff18e	0.0146449935
163	0x3c7eb331	0.015545652
164	0xbd20f161	-0.039292697
165	0xbbfeddb5	-0.0077778944
166	0x3d9e87c8	0.07740742
167	0x3d0eacd0	0.034832776
168	0xbd1b27c7	-0.03787973
169	0x3ccc3b79	0.024930703
170	0xba7a1d5f	-0.000954112
171	0xbd667982	-0.056268223
172	0x3db65755	0.08903376
173	0xbd930afd	-0.0717983
174	0xbcc15352	-0.0235993
175	0x3e0a491d	0.13504453
176	0x3c294947	0.010332412
177	0x3e1638a8	0.1467005
178	0x3c42c236	0.011887124
179	0xbd3d9c82	-0.046291836
180	0x3aa9121b	0.0012899073
181	0x3d204644	0.03912951
182	0x3cbe75ce	0.023249533
183	0xbdb5240a	-0.088447645
184	0xbae4a1d4	-0.0017443248
185	0x3d20020b	0.03906445
186	0x3ca30b8a	0.019902963
187	0x3d9d122b	0.07669481
188	0xbc9a80b6	-0.018860202
189	0x3c932053	0.01795975
190	0x3c89864b	0.016787669
191	0x3dce8a66	0.10084991
192	0x3b220238	0.002472056
193	0xbdbade71	-0.091244586
194	0xbb677077	-0.0035314837
195	0x3cd9341e	0.02651411
196	0x3d7bc49a	0.06146679
197	0x3a1a2be5	0.00058811746
198	0xbdab5ff7	-0.08367913
199	0x3d328892	0.043587275
200	0xbe16b3a8	-0.14716971
201	0xbd0eee25	-0.03489508
202	0x3d616ea5	0.05503716
203	0xbb150acc	-0.002274203
204	0xbbb895de	-0.0056331
205	0x3c9ae132	0.01890621
206	0x3da6c14f	0.081423394
207	0xbc8ed589	-0.017435806
208	0xbc9d3aae	-0.01919302
209	0x3d032c9b	0.03202496
210	0xbb1248a3	-0.0022321127
211	0xbd4700e6	-0.04858484
212	0xbd9923e3	-0.07477548
213	0xbcf8477c	-0.030307524
214	0x3d09a94b	0.033608716
215	0x3a4187e4	0.0007382615
216	0xbbab1aca	-0.0052216994
217	0xbcd775fa	-0.026301373
218	0x3b61e3da	0.0034468086
219	0x3c4f2d1c	0.012645032
220	0xbda44770	-0.08021438
221	0x3da0bae8	0.078481495
222	0x3d1ab6ec	0.037772104
223	0xbd3cbd44	-0.046078935
224	0x3cfb585d	0.030681783
225	0x3be709df	0.0070507373
226	0xbc82ca33	-0.015965557
227	0x3c5ec9e0	0.013597935
228	0xbdd8969b	-0.10575601
229	0xbca7b6f5	-0.020472983
230	0xbccff5fa	-0.025385845
231	0x3d4a092a	0.049325146
232	0x3d3f4e66	0.046705626
233	0x3cceeacd	0.025258446
234	0xbd5d8f6b	-0.054091852
235	0xbd337961	-0.043816928
236	0xbc7d2f4a	-0.015453169
237	0x3c3506c2	0.0110489745
238	0x3d197934	0.037469104
239	0xbce74706	-0.028232109
240	0xbe1749ee	-0.14774296
241	0xbd38eacd	-0.0451458
242	0xbc68f50d	-0.014218581
243	0xbba509bc	-0.005036561
244	0xbbae804b	-0.0053253523
245	0xbb25d2ac	-0.0025302572
246	0x3bd5130e	0.0065025156
247	0x3d255042	0.040359743
248	0xbd184e5b	-0.0371841
249	0xbcfa9531	-0.030588718
250	0xbcf32506	-0.02968074
251	0xbbd8a3e2	-0.006611333
252	0x3cdb4d01	0.026770117
253	0xbc643ad1	-0.013930039
254	0xbc54c59e	-0.012986569
255	0x3b90d67a	0.004420099

action_model._discrete_distribution.branches.0.bias f4 [2]
0	0xbcddec41	-0.027090194
1	0x3cddec75	0.02709029

action_model._discrete_distribution.branches.0.weight f4 [2, 128]
0	0x3c43dfec	0.011955243
1	0xbccc595f	-0.02494496
2	0xbcd8a842	-0.02644742
3	0xbafe4eb2	-0.0019402115
4	0xbcf23ac1	-0.029569032
5	0x3dbd3e1a	0.092403606
6	0x3e243ef2	0.16039637
7	0x3d4cea51	0.05002815
8	0xbd87cb99	-0.0663063
9	0xbe182e89	-0.14861502
10	0xbdccadce	-0.09994088
11	0x3d98f499	0.07468528
12	0x3d8b65b3	0.06806507
13	0xbd192a34	-0.037393764
14	0x3d40e278	0.047090977
15	0x3d7061bf	0.058686968
16	0xbcfa336a	-0.030542094
17	0x3e231229	0.15924896
18	0x3d9664ec	0.07343468
19	0xbdfb6fc6	-0.122771785
20	0x3e039d6b	0.12853019
21	0xbd462c59	-0.048382137
22	0x3e405cf3	0.18785457
23	0x3c9af6cd	0.018916512
24	0xbd5e2f83	-0.05424453
25	0xbd7a1d80	-0.06106329
26	0x3dc6aead	0.097012855
27	0x3db0c065	0.08630446
28	0xbcb61563	-0.022226995
29	0xbd41a816	-0.04727944
30	0x3c00139e	0.007817177
31	0xbd35b03c	-0.044357523
32	0x3d9ad784	0.075606376
33	0x3cde355f	0.027125059
34	0xbd26704b	-0.040634435
35	0x3dfdc547	0.12391143
36	0x3ddcb172	0.107760325
37	0x3d7a41c0	0.06109786
38	0x3d2358d6	0.039879642
39	0x3dd8ed3d	0.105921246
40	0xbdcef9d4	-0.10106245
41	0x3c5d3df6	0.013503542
42	0x3df911ee	0.12161623
43	0x3d85e573	0.065379046
44	0xbcf7011a	-0.030151892
45	0x3c963069	0.01833363
46	0x3ccc7fa2	0.024963204
47	0x3cb35271	0.021889897
48	0x3ce1274c	0.027484559
49	0xbcde07e1	-0.027103366
50	0xbc1fa8d6	-0.0097448435
51	0xbe3cc4a8	-0.18434393
52	0x3d8640d5	0.065553345
53	0xbd9fc39e	-0.07800983
54	0xbd2e8c9d	-0.042614568
55	0x3d4fd373	0.050738763
56	0x3c810ed5	0.015754143
57	0x3d2a4e2c	0.041578457
58	0xbd86ea72	-0.06587686
59	0x3d7c6beb	0.061626356
60	0x3d826a3e	0.0636792
61	0x3c2267a7	0.009912408
62	0xbc3b1a67	-0.011419869
63	0x3ddf6337	0.109075956
64	0xbd7c9a30	-0.061670482
65	0xbb2d4b0d	-0.0026442439
66	0xbc59ce88	-0.01329387
67	0xbd48a8ee	-0.04898923
68	0x3c028301	0.007965804
69	0xbd720ee1	-0.05909622
70	0x3de196fa	0.110151246
71	0x3c58df51	0.0132368365
72	0xbce6576f	-0.028117863
73	0x3cc7eea3	0.024405783
74	0x3ccc9d19	0.024977254
75	0x3d6cf67a	0.057852246
76	0x3d45888f	0.048225936
77	0xbe15ffa3	-0.14648299
78	0x3cb0b468	0.0215704
79	0xbd60e985	-0.0549102
80	0x3d8b9f82	0.06817533
81	0xbd9d2f0f	-0.07674991
82	0x3d4a7f48	0.04943779
83	0x3ded81a8	0.115969956
84	0xbe1617f0	-0.14657569
85	0x3cc3b549	0.023890154
86	0x3d898c84	0.06716254
87	0xbd7b6ed2	-0.061384983
88	0xbd441f4c	-0.04788141
89	0xbdf8d731	-0.121504195
90	0xbc0f8c17	-0.008761427
91	0xbbeae4de	-0.0071683964
92	0x3d8677c6	0.06565814
93	0x3d694b3d	0.05695652
94	0x3d66f63d	0.056387175
95	0xbdaa0838	-0.08302349
96	0x3c6eb23a	0.01456886
97	0xbe2d52f3	-0.16926174
98	0x3d7515d1	0.05983526
99	0x3e04967e	0.12948033
100	0xbd42efa5	-0.047591824
101	0xbe1924fe	-0.14955518
102	0x3df32a1a	0.118732646
103	0x3df58db4	0.11989918
104	0xbd579716	-0.05263432
105	0xbe0b1d04	-0.13585287
106	0xbd40e719	-0.047095392
107	0x3d4ce094	0.050018862
108	0xbdcc1b69	-0.099661656
109	0xbdb0feb1	-0.086423285
110	0x3d141190	0.03614956
111	0x3d2dbca1	0.04241622
112	0x3ca3e304	0.02000571
113	0x3d3b361b	0.045705896
114	0xbdb2341b	-0.087013446
115	0x3de9c182	0.11413862
116	0xbdaace8e	-0.083401784
117	0xbd041023	-0.03224195
118	0x3a2f2e37	0.0006682607
119	0xbc82e889	-0.015980022
120	0x3c3f3a7a	0.011671657
121	0xbd22ce59	-0.03974757
122	0xbc022e46	-0.007945603
123	0xbcf4be68	-0.029875949
124	0x3bf04d99	0.007333469
125	0x3c391c27	0.011298216
126	0xbda57162	-0.08078267
127	0x3cdc0846	0.026859414
128	0xbc4a3bc9	-0.012343355
129	0x3c42b5ee	0.011884196
130	0x3cd44c06	0.025915157
131	0x3c38e3ed	0.0112848105
132	0x3cbd29a1	0.02309114
133	0xbdbff972	-0.0937375
134	0xbe2cf48b	-0.1689016
135	0xbd2f7ff7	-0.042846646
136	0x3d9d3ff0	0.07678211
137	0x3e0fec6b	0.1405503
138	0x3dc3234e	0.09528218
139	0xbd8fe0d5	-0.07025305
140	0xbd8154ee	-0.06315027
141	0x3d6c80ae	0.057739906
142	0xbd40188c	-0.04689841
143	0xbd9435cc	-0.072368234
144	0x3d1373f2	0.035999246
145	0xbe28edd7	-0.16496979
146	0xbda6b384	-0.08139709
147	0x3dfaf2c2	0.12253334
148	0xbe0da31c	-0.13831753
149	0x3d28bfef	0.041198667
150	0xbe2b9a12	-0.16757992
151	0xbba25ff5	-0.0049552866
152	0x3d553754	0.052054718
153	0x3d943c41	0.07238055
154	0xbda245b1	-0.07923449
155	0xbdbd1c91	-0.09233964
156	0x3cbb44b8	0.022859916
157	0x3cdda2be	0.02705514
158	0xbc74447f	-0.014908909
159	0x3d4d8a45	0.050180692
160	0xbd1f9fc3	-0.03897072
161	0xbce9f4cc	-0.028559111
162	0x3cf1a0e4	0.029495664
163	0xbe028db4	-0.12749368
164	0xbde2e88d	-0.11079512
165	0xbd8d4198	-0.06897277
166	0xbd135552	-0.03597004
167	0xbdc75673	-0.09733286
168	0x3ddf37b1	0.10899294
169	0xbbea336b	-0.007147243
170	0xbdcab250	-0.09897292
171	0xbd4980fc	-0.049195275
172	0x3c382528	0.0112393275
173	0xbc8ca8fd	-0.017170424
174	0xbd06a5c9	-0.03287295
175	0xbcdcd310	-0.026956111
176	0xbd3182ce	-0.043337636
177	0x3d067eb6	0.032835685
178	0xbc2c5b3a	-0.010519797
179	0x3e2070b5	0.15667994
180	0xbd75ef3a	-0.060042597
181	0x3d8661a1	0.0656159
182	0x3d3b396f	0.04570907
183	0xbd66351b	-0.05620299
184	0x3ba2175c	0.0049466323
185	0xbcffebb5	-0.031240324
186	0x3daf8a3a	0.085712865
187	0xbd70d7ff	-0.05879974
188	0xbd6fa5b4	-0.058507636
189	0xbc6bf313	-0.014401215
190	0x3c036cd2	0.00802155
191	0xbdcffe8a	-0.10155971
192	0x3d876552	0.06611122
193	0x3be91226	0.007112759
194	0x3bf521b4	0.0074808244
195	0x3d8f95dc	0.07011005
196	0xba8f2bd3	-0.0010923095
197	0x3d691e98	0.056913942
198	0xbdba4760	-0.09095645
199	0xbc954f10	-0.018226177
200	0x3c12acc4	0.008952323
201	0xbd071b2e	-0.032984905
202	0xbcf17b68	-0.02947779
203	0xbd551500	-0.05202198
204	0xbd432b4d	-0.047648717
205	0x3e210761	0.15725471
206	0xbc45dbd4	-0.012076337
207	0x3d38c99d	0.04511415
208	0xbd939c24	-0.07207516
209	0x3d94451f	0.07239746
210	0xbd9e4160	-0.07727313
211	0xbdfe2332	-0.12409057
212	0x3e0af023	0.13568167
213	0xbcdd79f7	-0.027035696
214	0xbd37dd19	-0.04488859
215	0x3d89d6a6	0.06730394
216	0x3d244a49	0.040109906
217	0x3de5c1b7	0.11218589
218	0x3c92af1c	0.017905764
219	0x3c8fd70b	0.017558595
220	0xbdac18f3	-0.08403196
221	0xbda00a7d	-0.078145005
222	0xbd1f3ae7	-0.038874533
223	0x3d9b6ac4	0.07588723
224	0xbc177222	-0.00924352
225	0x3e406afb	0.1879081
226	0xbd4dd3c8	-0.0502508
227	0xbe0b0124	-0.13574654
228	0x3cf87ed2	0.03033391
229	0x3e06971d	0.13143583
230	0xbe0048ce	-0.12527773
231	0xbdd86475	-0.10566036
232	0x3d30f53a	0.043202616
233	0x3e1569fd	0.14591213
234	0x3d0d4d6a	0.034497656
235	0xbd7a39a9	-0.061090145
236	0x3df285c0	0.11841917
237	0x3d991854	0.07475343
238	0xbd82e720	-0.0639174
239	0xbd56bb0c	-0.052424476
240	0xbc792dff	-0.01520872
241	0xbd56f2b6	-0.05247756
242	0x3daad716	0.08341806
243	0xbdd16beb	-0.10225662
244	0x3d9b5772	0.07585038
245	0x3cb94bc9	0.022619145
246	0xb9f1a451	-0.00046089527
247	0x3cc17b3e	0.023618337
248	0xbc35e9a6	-0.011103069
249	0x3d40fb01	0.047114376
250	0xbb0fb890	-0.0021930076
251	0x3cd356ed	0.025798285
252	0xbc4b7c73	-0.012419808
253	0xbc36c7d2	-0.011156039
254	0x3dd2346a	0.102639034
255	0xbcceb6d1	-0.025233658

network_body._body_endoder.seq_layers.0.bias f4 [128]
0	0xbdbdb1f1	-0.09262455
1	0xbd23708c	-0.039902255
2	0x3bafc2bd	0.005363791
3	0xbd7bb7d8	-0.061454624
4	0x3dcc4b35	0.09975282
5	0xbd806a56	-0.06270282
6	0xbce839f8	-0.028347954
7	0xbc1c4836	-0.009538701
8	0xbc972f5b	-0.018455198
9	0xbd0fb5b0	-0.03508538
10	0xbdcf1d4b	-0.10113009
11	0xbdbc2da1	-0.091883905
12	0xbddbdf85	-0.10735992
13	0xbd5e7a36	-0.05431577
14	0xbddeab36	-0.108725
15	0x3c7cba5c	0.015425291
16	0xbbbef477	-0.0058274823
17	0xbd3febba	-0.046855666
18	0xbd8d3c87	-0.0689631
19	0x3d3ac5c0	0.045598745
20	0x3c75a296	0.014992377
21	0xbde6efb3	-0.11276188
22	0xbd356ede	-0.044295184
23	0xbd83aa72	-0.06428994
24	0xbd54a8f3	-0.051918935
25	0xbd251c0b	-0.040309947
26	0x3d00a618	0.0314084
27	0xbd67b51b	-0.0565692
28	0xbd66827e	-0.05627679
29	0x3d3185ae	0.043340378
30	0x3c1332de	0.008984296
31	0xbd928459	-0.071541496
32	0xbd6cc41f	-0.057804223
33	0x3d779e72	0.06045384
34	0xbd925a1b	-0.071460925
35	0xbda56944	-0.080767184
36	0xbdfafe00	-0.12255478
37	0x3de23d16	0.110468075
38	0xbd368e5f	-0.04456937
39	0xbdd12eed	-0.102140285
40	0xbd047cf9	-0.032345746
41	0xbcc0b2c2	-0.023522738
42	0xbc115989	-0.0088714445
43	0xbdcde181	-0.10052777
44	0xbd2df708	-0.042471915
45	0x3cb8a407	0.022539152
46	0xbd46cbf1	-0.048534337
47	0x3ba26c5e	0.004956766
48	0xbe069386	-0.13142213
49	0xbd1257c8	-0.035728246
50	0xbd3e3895	-0.04644068
51	0xbd89b4a3	-0.06723907
52	0xbdea387e	-0.11436556
53	0xbd4d4df8	-0.050123185
54	0xba937371	-0.0011249614
55	0xbdbf8ae6	-0.09352665
56	0xbb401a40	-0.0029312521
57	0xbdda4817	-0.10658281
58	0xbdab8832	-0.083755866
59	0xbd93d2c6	-0.07217936
60	0xbd4a7d53	-0.049435925
61	0x3cbb89b2	0.022892807
62	0x3d15ddb5	0.03658839
63	0xbc0327ab	-0.008005063
64	0xbd417023	-0.047226083
65	0xbdcf22f2	-0.10114087
66	0xbc40af28	-0.0117605105
67	0xbd88d0d2	-0.06680454
68	0xbdc29b43	-0.0950227
69	0xbd20f05a	-0.039291717
70	0xbc01686e	-0.007898433
71	0xbcf437c7	-0.029811753
72	0x3d5e600a	0.05429081
73	0xbdba1229	-0.09085495
74	0x3c2dd71d	0.010610369
75	0xbcd1fda3	-0.025633639
76	0x3c8a8e92	0.016913686
77	0xbd8d8fc5	-0.069121875
78	0x3b83e446	0.004025015
79	0xbd597978	-0.053094357
80	0xbd71bbb2	-0.05901689
81	0xbd214063	-0.039368045
82	0xbc85d3d3	-0.016336357
83	0xbaa729a5	-0.00127535
84	0xbd1856ee	-0.037192278
85	0xbc44885f	-0.011995404
86	0x3c89e518	0.016832873
87	0x3c77ac38	0.015116744
88	0xbd78f141	-0.060776953
89	0xbde93be7	-0.113883786
90	0xbd902649	-0.07038552
91	0xbd3d2d5f	-0.046185847
92	0xbc982ccf	-0.018576054
93	0xbd3da6c9	-0.046301637
94	0xbc7d7d90	-0.015471831
95	0xbdc9fabe	-0.098622784
96	0xbe03bcb3	-0.12864952
97	0xbdbfd1c5	-0.09366182
98	0xbc24b6bb	-0.010053332
99	0xbcea339b	-0.02858906
100	0xbc2b1af5	-0.010443439
101	0xbd12f867	-0.035881426
102	0x3c2efc58	0.010680281
103	0xbda6e2ec	-0.08148751
104	0xbdc66e12	-0.09688963
105	0xbcc8c560	-0.024508178
106	0xbe072cea	-0.13200727
107	0xbd68ff21	-0.056883935
108	0xbd98c839	-0.074600644
109	0xbd31ab9e	-0.043376558
110	0x3af30f8f	0.0018544066
111	0xbe0eec3a	-0.13957301
112	0xbdcedf92	-0.101012364
113	0xbd8cdb95	-0.068778194
114	0xbd953e32	-0.072872534
115	0xbc7c621a	-0.015404249
116	0x3c1265ec	0.008935433
117	0xbd3ae3bd	-0.045627344
118	0xbc0187f3	-0.007905948
119	0xbdb0918f	-0.08621513
120	0xbd3c210b	-0.04592995
121	0xbd4393a9	-0.04774824
122	0xbdc663b0	-0.09686983
123	0xbddba12c	-0.107241005
124	0xbe05fd61	-0.13084938
125	0xb9c642cc	-0.0003781527
126	0xbdd52e77	-0.10409253
127	0xbd89e2cd	-0.06732712

network_body._body_endoder.seq_layers.0.weight f4 [128, 17]
0	0x3df1776c	0.11790356
1	0x3e1733a7	0.14765798
2	0x3e5d8670	0.21633315
3	0x3e905066	0.2818634
4	0x3e97ff92	0.29687172
5	0x3e289a1e	0.16465041
6	0x3e5611d6	0.20905241
7	0xbc4d7507	-0.0125401085
8	0xbf007737	-0.5018191
9	0x3e19d013	0.1502078
10	0xbcc1a758	-0.023639366
11	0xbf1a9f4c	-0.6039932
12	0xbade65e2	-0.0016967619
13	0xbe973c86	-0.29538363
14	0x3a2c57a2	0.00065743376
15	0xbee49bd9	-0.44650152
16	0x3eb48bfa	0.35263044
17	0xbe6acd68	-0.22929919
18	0xbeb4f998	-0.35346675
19	0x3e81e32f	0.2536864
20	0xbdffbc62	-0.12487103
21	0xbebd737d	-0.37002173
22	0x3e4caca5	0.19987734
23	0x3e40c9ac	0.18826932
24	0xbecd29c1	-0.40070918
25	0x3f38cb1c	0.7218492
26	0xbc24f2f0	-0.010067686
27	0xbe5fe74f	-0.21865581
28	0x3cd6ae42	0.02620614
29	0x3d2effac	0.042724296
30	0x3d917373	0.07102098
31	0xbded743f	-0.11594438
32	0xbe833d47	-0.25632688
33	0xbf291a8e	-0.66056144
34	0x3e546d03	0.2074471
35	0x3bc52f5b	0.006017608
36	0xbec38853	-0.38189945
37	0x3e8b3c4b	0.27194437
38	0x3e232192	0.15930775
39	0x3e63f97b	0.22263138
40	0xbd9e9104	-0.07742503
41	0x3e2d7261	0.16938163
42	0x3e8201c7	0.2539198
43	0x3d8b88f6	0.068132326
44	0xbf2589af	-0.64663213
45	0x3e25bbd4	0.16184932
46	0xbca003b4	-0.019533016
47	0xbdad0514	-0.08448234
48	0x3e938eeb	0.28819975
49	0xbe613288	-0.21991932
50	0xbd68238e	-0.056674533
51	0xbe4f1f34	-0.20226747
52	0xbd7d3afe	-0.061823837
53	0x3ba21671	0.004946523
54	0xbea46ef2	-0.32115895
55	0x3e19b9cc	0.15012282
56	0xbe0111e4	-0.12604481
57	0xbee8e01f	-0.4548349
58	0xbde8a916	-0.113603756
59	0x3e7aa01d	0.24475141
60	0xbaf07a37	-0.001834697
61	0xbe1ac3f4	-0.15113813
62	0x3ee9fb85	0.45699707
63	0x3e75b510	0.23994851
64	0x3e57989c	0.2105431
65	0x3e66c409	0.22535719
66	0xbeac881e	-0.336976
67	0xbde2b1de	-0.11069082
68	0x3e3d089b	0.18460314
69	0x3e0ba8fb	0.1363868
70	0x3e3b3189	0.18280615
71	0x3dfd4a53	0.12367692
72	0xbe680670	-0.22658706
73	0x3ea6d5c3	0.32584962
74	0xbb821cd5	-0.003970722
75	0xbdd3e5c9	-0.103465624
76	0x3d295277	0.04133841
77	0xbea1ac6d	-0.31576863
78	0x3e316711	0.17324473
79	0xbd6fd90c	-0.0585566
80	0x3d243984	0.040093914
81	0xbc6c33df	-0.014416664
82	0x3e8f193d	0.27948943
83	0x3e8dd67f	0.2770271
84	0xbf2c9f1b	-0.67430276
85	0xbf01e8fa	-0.5074612
86	0x3e1a8a1f	0.15091752
87	0xbe4e09f0	-0.20120978
88	0xbe9c22cb	-0.30495295
89	0xbda97f66	-0.082762524
90	0xbe89fc07	-0.26950094
91	0xbdf480c3	-0.11938622
92	0xbe592f4c	-0.21209449
93	0x3e7adb47	0.2449771
94	0xbe729a99	-0.23691787
95	0x3e87ee8f	0.26549193
96	0xbe299868	-0.16562045
97	0x3de58f2e	0.1120895
98	0x3d363f25	0.044493813
99	0x3d9bd26b	0.076084934
100	0x3eda3320	0.4261713
101	0xbdc798c7	-0.09745937
102	0x3eb95dc0	0.36204338
103	0xbefff460	-0.4999113
104	0x3da1b590	0.078959584
105	0xbde3ce6a	-0.11123355
106	0x3d8ae3c3	0.06781723
107	0x3df328a6	0.118729874
108	0xbe24e857	-0.16104256
109	0xbe3b471f	-0.1828885
110	0x3eaf7fb5	0.3427712
111	0xbe8d2f09	-0.27574947
112	0xbe9d5d8b	-0.3073543
113	0xbe13275c	-0.14370483
114	0xbe4efa00	-0.20212555
115	0xbf185ce5	-0.59516746
116	0x3b0301cd	0.0019990087
117	0x3dfe5a13	0.12419524
118	0xbf3668c9	-0.7125364
119	0x3eaf14c3	0.34195527
120	0xbe1875af	-0.14888643
121	0xbef41eb7	-0.47679684
122	0xbe623cf3	-0.22093563
123	0x3e6f2f63	0.2335792
124	0xbe3dcc68	-0.18535006
125	0x3f04cac8	0.5187192
126	0x3ea07350	0.31337976
127	0xbdfc7e25	-0.12328748
128	0xbe4d01c6	-0.20020208
129	0xbf03e12d	-0.51515466
130	0x3e875da6	0.26438636
131	0x3df83579	0.12119574
132	0x3d9c7878	0.07640165
133	0x3e74c873	0.2390459
134	0xbefd9438	-0.49527144
135	0xbd6fbe85	-0.058531303
136	0x3e7078a6	0.23483524
137	0x3e646a55	0.22306187
138	0x3e097f71	0.13427521
139	0x3ce9b2c8	0.028527632
140	0xbe11f42a	-0.14253297
141	0xbf12f5f8	-0.5740657
142	0x3e5c63d1	0.21522452
143	0xbd3cd1ef	-0.046098646
144	0x3e598499	0.21241988
145	0xbea67892	-0.32513863
146	0xbdebde8f	-0.11517059
147	0x3e175d70	0.14781737
148	0x3e2188bc	0.15774816
149	0xbd1ffa4f	-0.039057072
150	0x3e8924cf	0.26785895
151	0xbe8a7014	-0.27038634
152	0xbd9c4163	-0.07629659
153	0xbeca565d	-0.39519015
154	0xbc685c8b	-0.01418222
155	0xbe17bdde	-0.14818522
156	0x3ebc408a	0.3676799
157	0x3e646a60	0.22306204
158	0xbdcea36e	-0.100897655
159	0x3e163183	0.14667325
160	0x3e322ed5	0.17400678
161	0xbe618d31	-0.22026516
162	0x3e015105	0.12628563
163	0xbef6b381	-0.48183826
164	0x3d5e6f78	0.054305524
165	0x3d2b1394	0.041766718
166	0x3e809d4c	0.25120008
167	0xbe0dfad5	-0.13865216
168	0xbf275889	-0.6536947
169	0xbc7a0965	-0.015261029
170	0xbea7b745	-0.3275701
171	0x3da66ca5	0.08126191
172	0xbe49f662	-0.19722894
173	0x3ea650d1	0.32483533
174	0x3da574e8	0.08078939
175	0x3df8d61e	0.121502146
176	0x3e9021f2	0.28150898
177	0xbebbe985	-0.367016
178	0xbdac52be	-0.08414219
179	0x3cd8563c	0.026408307
180	0x3e129bfa	0.14317313
181	0xbdd845fb	-0.10560223
182	0xbe0003e2	-0.12501481
183	0xbd5bda70	-0.053675115
184	0xbe73641f	-0.23768662
185	0x3d8cfabc	0.06883761
186	0x3eb8906b	0.36047682
187	0xbe2c9e62	-0.16857293
188	0x3e571593	0.21004324
189	0x3d3f50b1	0.046707813
190	0x3eda747d	0.42666999
191	0xbefe8dcd	-0.4971756
192	0xbe0b200e	-0.13586447
193	0x3d14a34e	0.036288552
194	0x3e3c943e	0.18415925
195	0x3da52003	0.080627464
196	0x3dda5a7a	0.10661788
197	0xbe594c80	-0.21220589
198	0x3e19beeb	0.15014236
199	0x3e5614e4	0.20906407
200	0xbd37ea59	-0.044901226
201	0xbe999d5a	-0.30002862
202	0xbe0fc521	-0.14040042
203	0xbf11bf0e	-0.5693215
204	0xbe2df9d5	-0.16989835
205	0xbebe930d	-0.37221566
206	0x3cc145f0	0.02359292
207	0xbe92531e	-0.28579038
208	0x3ea01fec	0.31274354
209	0xbe31bbef	-0.17356847
210	0xbe811834	-0.25213778
211	0xbed51e81	-0.41624835
212	0x3e64ef06	0.22356805
213	0x3e946c08	0.2898867
214	0x3c79680a	0.015222559
215	0x3ef0351e	0.46915525
216	0x3dccdadf	0.10002684
217	0x3dbdb566	0.09263115
218	0x3cf1197e	0.029431101
219	0x3ec9fc99	0.3945053
220	0xbdfbcae1	-0.122945555
221	0x3e39fe4d	0.18163414
222	0x3e3f9e04	0.18712622
223	0xbeab7fe1	-0.33496
224	0xbe241899	-0.16025008
225	0x3c105289	0.00880874
226	0xbe6f8f7b	-0.23394577
227	0xbe2f12cc	-0.17097014
228	0x3e22376d	0.15841456
229	0xbe330b8d	-0.17484875
230	0xbebef708	-0.37297845
231	0xbde34b7f	-0.11098384
232	0x3e862629	0.2620099
233	0xbdde082f	-0.10841405
234	0xbef789c6	-0.483473
235	0x3e74aff2	0.23895243
236	0xbc5b2910	-0.013376489
237	0xbe6a1ef5	-0.22863372
238	0xbe81238f	-0.25222442
239	0xbea08c7d	-0.31357184
240	0x3dc6f1d1	0.097140916
241	0x3e4fae60	0.20281363
242	0x3ddbcc1a	0.10732289
243	0x3daaa213	0.083316945
244	0x3e64258f	0.22279952
245	0x3d8279bd	0.06370876
246	0x3e306289	0.17225088
247	0xbee584f7	-0.44828007
248	0xbdd03f00	-0.10168266
249	0xbe4b55a3	-0.19856887
250	0xbe715d19	-0.2357067
251	0xbd428dcc	-0.04749851
252	0x3e2d2153	0.16907243
253	0x3e822cf6	0.25424927
254	0x3ee097c5	0.4386579
255	0x3d083df0	0.033262193

network_body._body_endoder.seq_layers.2.bias f4 [128]
0	0x3c4f28b6	0.012643984
1	0xbdc9f1c0	-0.09860563
2	0xbd080ca0	-0.033215165
3	0x3b7dd685	0.00387326
4	0x3be51645	0.00699118
5	0xbd4d3c48	-0.050106317
6	0xbcf6b2bd	-0.030114526
7	0xbd2d08d4	-0.042244747
8	0xbd2a079b	-0.04151116
9	0xbd97dcc7	-0.07415157
10	0xbd767e05	-0.060178775
11	0xbd8ef8f8	-0.06981081
12	0xbca68d4f	-0.020331053
13	0xbcfe28b3	-0.031025266
14	0xbd8816af	-0.066449516
15	0xbd5f57ed	-0.054527212
16	0xbcad76c1	-0.02117479
17	0x3d303212	0.0430165
18	0xbd9444c9	-0.07239682
19	0xbb0ce813	-0.0021500632
20	0x3d18f78e	0.03734546
21	0xbb7379c3	-0.0037151433
22	0xbd7d0fb1	-0.061782543
23	0xbd40c377	-0.04706141
24	0xbc42994e	-0.011877371
25	0x3d01d8af	0.031700786
26	0xbca54c17	-0.020177884
27	0xbc9b0fb2	-0.018928383
28	0xbcfd0941	-0.030888202
29	0xbc010e52	-0.007876949
30	0xbc823fd4	-0.015899576
31	0xbd3b8c75	-0.045788247
32	0xbc1b0cba	-0.0094634835
33	0xbd0b4e8b	-0.03401045
34	0xbd7019fb	-0.058618527
35	0xbd185eeb	-0.037199896
36	0xbcf4bef2	-0.029876206
37	0xbc4e4e82	-0.01259196
38	0xbd1e7fae	-0.038695984
39	0x3caf9f8d	0.021438384
40	0xbd40edee	-0.047101907
41	0xbd5d8a6f	-0.0540871
42	0xbda14a48	-0.07875496
43	0xbdbc3f17	-0.09191721
44	0xbc643856	-0.013929447
45	0xb947cf55	-0.00019055356
46	0xbd425dc9	-0.04745272
47	0xbccbc38e	-0.024873521
48	0x3cd5b808	0.02608873
49	0xbd041319	-0.032244775
50	0xbdc7161f	-0.09721016
51	0xbc8ff1ef	-0.017571418
52	0xbdce20a8	-0.100648224
53	0xbc96add0	-0.018393427
54	0x3b26219e	0.0025349627
55	0xbcf39c6b	-0.029737672
56	0xbd263757	-0.04058012
57	0xbd8fd1eb	-0.070224606
58	0xbdf32d69	-0.11873896
59	0x3c94a5f4	0.018145539
60	0xbdfa1000	-0.12210083
61	0xbd8e3548	-0.06943756
62	0x3abf175e	0.0014579108
63	0xbd91c25e	-0.07117151
64	0xbc237ce3	-0.009978506
65	0xbdbc5d8f	-0.091975324
66	0xbe0e32e3	-0.13886599
67	0xbd61caa4	-0.055124894
68	0xbcacaf76	-0.02107976
69	0xbda7d1ca	-0.08194311
70	0xbdade58d	-0.08491049
71	0xbdf1b0f7	-0.118013315
72	0xbd84a306	-0.06476407
73	0xbd03212d	-0.03201406
74	0xbcc79e79	-0.024367558
75	0xbc1e990d	-0.009680045
76	0xbc1a105d	-0.009403315
77	0x3b8a36ec	0.004217973
78	0x3d514ba1	0.051097516
79	0xbd5e5b47	-0.054286268
80	0xbd4f7182	-0.05064536
81	0x3d2f11ac	0.042741463
82	0x3c8dbae4	0.01730103
83	0xbcc42cd5	-0.023947159
84	0xbd12652f	-0.035741027
85	0xbcf26234	-0.029587843
86	0xbce781f3	-0.028260207
87	0x3bbd31fd	0.0057737813
88	0xbdc5b70e	-0.096540555
89	0xbba6a466	-0.005085516
90	0x3d41ca85	0.04731228
91	0xbd54901d	-0.05189525
92	0xbd83ab36	-0.0642914
93	0xbd1ff1d0	-0.03904897
94	0x39b2b381	0.00034084546
95	0xbd7b1581	-0.061299805
96	0x3a94a6a9	0.0011341173
97	0xbc2136ea	-0.009839753
98	0xbd84ecde	-0.06490491
99	0xbd9b5013	-0.07583632
100	0xbae1d040	-0.0017228201
101	0xbca0a010	-0.019607574
102	0xbd8c3226	-0.068455026
103	0xbbbe4cbb	-0.005807487
104	0x3cace16a	0.02110358
105	0xbc9c68af	-0.019092886
106	0xbde10df4	-0.109889895
107	0x3b22f163	0.0024863116
108	0x3d77ce1c	0.060499296
109	0xbc8ce24b	-0.017197749
110	0x3b859df0	0.0040776655
111	0xbd13dda7	-0.036100056
112	0x3d8b41bc	0.06799647
113	0xbd8d1453	-0.06888642
114	0xbd96be30	-0.07360494
115	0xbc4f1c8b	-0.0126410825
116	0xbd81f87c	-0.06346223
117	0xbd165238	-0.036699504
118	0xbad72400	-0.0016413927
119	0xbbe648e6	-0.007027733
120	0xbdb19b47	-0.08672195
121	0xbcdf68b7	-0.027271612
122	0x3bd20699	0.006409478
123	0xbadf1a79	-0.0017021439
124	0xbd8eecef	-0.06978785
125	0x3c5bb4b3	0.013409781
126	0xbcc6bef2	-0.024260972
127	0xbd423e65	-0.047422785

network_body._body_endoder.seq_layers.2.weight f4 [128, 128]
0	0x3e0b8107	0.13623439
1	0x3e362c5a	0.17790356
2	0x3e24ccc7	0.16093741
3	0xbd8a42e8	-0.067510426
4	0xbe6a7d7c	-0.22899431
5	0x3c8f57ca	0.017497916
6	0xbd95ac26	-0.07308225
7	0x3e143521	0.14473392
8	0x3dc247e1	0.09486366
9	0xbcb0144f	-0.021494059
10	0xbd90448a	-0.07044323
11	0x3e0601f0	0.13086677
12	0xbd7e4209	-0.062074695
13	0x3c260b8d	0.01013459
14	0xbdf89f5a	-0.12139769
15	0x3e0dfd99	0.13866271
16	0x3e07a47e	0.13246343
17	0x3a229220	0.0006201584
18	0xbe29f281	-0.16596414
19	0xbc3ab482	-0.0113955755
20	0x3df87231	0.12131155
21	0x3e0865af	0.13320039
22	0x3c01fb14	0.007933397
23	0xbe516826	-0.20449886
24	0xbde66902	-0.112504974
25	0x3d51101d	0.051040757
26	0xbe007d34	-0.12547761
27	0x3d31cced	0.043408323
28	0xbd72bf08	-0.059264213
29	0xbe24bf6d	-0.16088648
30	0x3c10970e	0.008825077
31	0x3dbb43ef	0.09143817
32	0xbe1d1d24	-0.15343148
33	0xbc62deea	-0.013847092
34	0xbda8e46a	-0.082466915
35	0x3e80c500	0.251503
36	0x3e25ebdf	0.16203259
37	0xbdd149a3	-0.10219123
38	0x3d436578	0.04770419
39	0x3d9017be	0.070357785
40	0xbc1bc392	-0.009507077
41	0x3cc5e156	0.0241553
42	0x3d8d71d2	0.06906475
43	0x3d4e8393	0.050418448
44	0x3de51360	0.11185336
45	0x3cc15601	0.02360058
46	0xbe176dc4	-0.14787966
47	0x3d7f1346	0.06227424
48	0xbd00bad9	-0.03142819
49	0xbdb6822f	-0.08911549
50	0x3d3416e3	0.04396714
51	0xbba01ce5	-0.004886257
52	0xbdfb56fd	-0.12272451
53	0x3cbd9b7d	0.023145432
54	0x3c809f2e	0.015700903
55	0x3e3465af	0.17616914
56	0xbce6fdc0	-0.02819717
57	0x3c409308	0.011753805
58	0x3db5dd68	0.088801205
59	0x3e0c62d1	0.1370957
60	0x3c9c19b5	0.019055227
61	0xbd053c6d	-0.03252833
62	0xbe619f3f	-0.22033404
63	0xbd98d438	-0.074623525
64	0xbd0dcb4d	-0.03461771
65	0xbcdb55f3	-0.026774382
66	0x3daef6d7	0.08543175
67	0xbbc3b943	-0.0059730127
68	0xbe295f98	-0.16540372
69	0xbc81bdb6	-0.015837532
70	0x3b98637a	0.0046505304
71	0x3d1e949d	0.038715947
72	0xbd14d26e	-0.036333494
73	0x3c466beb	0.012110691
74	0xbca113d4	-0.019662775
75	0xbde83363	-0.11337926
76	0x3d95e9fd	0.0732002
77	0x3da583b8	0.08081764
78	0xbc1c3192	-0.009533303
79	0xbe03e3c4	-0.12879854
80	0x3dbb3ac4	0.09142068
81	0x3cdbebfc	0.026845925
82	0xbe13885d	-0.14407487
83	0x3c55cbaa	0.013049046
84	0x3df89ba1	0.12139059
85	0xbbeb756d	-0.007185629
86	0x3d4dc8a8	0.05024019
87	0xbdf6b060	-0.120453596
88	0x3ba51aff	0.0050386186
89	0x3d8d84e0	0.069101095
90	0x3ca6766e	0.020320144
91	0xbd989357	-0.07449978
92	0x3d320387	0.043460395
93	0x3d0f6ceb	0.03501598
94	0x3bc5f92e	0.0060416674
95	0x3d302add	0.043009628
96	0x3cf6fe30	0.030150503
97	0xbd2cc64d	-0.0421813
98	0xbe49bd0e	-0.19701025
99	0xbdc994a6	-0.098428056
100	0x3de54527	0.111948304
101	0x3cef5b32	0.02921829
102	0xbe16c490	-0.1472342
103	0xbb5d1b85	-0.0033738327
104	0xbe559e01	-0.20861055
105	0xbe0ce8a0	-0.13760614
106	0x3d3715ec	0.04469864
107	0x3e17f7b7	0.1484059
108	0x3d98032d	0.07422481
109	0xbd9abb72	-0.075552836
110	0x3df93124	0.12167576
111	0x3e18c205	0.14917763
112	0xbe62f7e0	-0.2216487
113	0xbd22ef27	-0.039778855
114	0xbd4d42d6	-0.050112568
115	0x3c6c7040	0.014431059
116	0x3d67ad8a	0.056561984
117	0x3e1e600d	0.15466328
118	0xbe0df151	-0.13861586
119	0x3de5807e	0.112061486
120	0x3dd647d8	0.10462922
121	0x3d05fa10	0.03270918
122	0xbc086b19	-0.008326315
123	0x3d873e4b	0.06603678
124	0x3e102b2d	0.1407897
125	0x3e0522db	0.13001578
126	0xbca241b0	-0.019806713
127	0x3cb70712	0.022342239
128	0x3aa2e4fc	0.0012427862
129	0xbe1fe7f9	-0.15615834
130	0x3c8346cb	0.016024968
131	0x3e06c0f2	0.1315954
132	0xbbd379ea	-0.0064537423
133	0x3d977860	0.073960066
134	0xbde50941	-0.11183406
135	0x3d7023ca	0.05862788
136	0x3d5ff802	0.054679878
137	0x3df18bb8	0.11794227
138	0x3cf7829e	0.03021365
139	0x3d30d2bf	0.043169733
140	0x3c1199dc	0.008886781
141	0xbc598ad0	-0.013277724
142	0xbe32a8d4	-0.17447215
143	0xbe0b6d33	-0.13615875
144	0xbe2543fd	-0.16139217
145	0xbdf69a65	-0.12041167
146	0xbdacd27a	-0.08438583
147	0xbdee2634	-0.116283804
148	0x3d98cf5c	0.07461426
149	0xbc3580e3	-0.011078092
150	0xbe92ca49	-0.28669956
151	0xbe04ce3d	-0.12969299
152	0xbc1b9bb9	-0.009497576
153	0x3c4fdd40	0.012687027
154	0xbe34d24a	-0.17658344
155	0xbe35ad98	-0.17742002
156	0xbd259956	-0.040429436
157	0xbd6e28c9	-0.058144365
158	0xbe78661d	-0.24257703
159	0xbe0fd069	-0.14044346
160	0x3d14a52c	0.036290333
161	0xbd8d02ad	-0.06885276
162	0x3d83424d	0.0640913
163	0x3d19a111	0.03750712
164	0xbd1a4cc1	-0.037670854
165	0xbca1b7bd	-0.019740934
166	0xbc97c58c	-0.018526815
167	0xbd28d67b	-0.04122017
168	0xbd1d7fa9	-0.038451824
169	0xbe5029aa	-0.20328394
170	0x3cdd1ca1	0.02699119
171	0xbd371aab	-0.044703167
172	0x3dbace66	0.09121399
173	0xbe51c854	-0.20486575
174	0xbe796316	-0.24354205
175	0x3d8dd7fc	0.069259614
176	0xbd12489f	-0.035713788
177	0x3bd3737d	0.0064529763
178	0xbb1abfc3	-0.0023612834
179	0xbe1753ea	-0.14778104
180	0xbe60ff84	-0.21972471
181	0x3cff8353	0.03119055
182	0xbe117c01	-0.1420746
183	0xbdbfc37c	-0.093634576
184	0x3d19cf41	0.03755117
185	0x3e0e5554	0.13899738
186	0xbc5e1a07	-0.01355601
187	0xbdc14f67	-0.09438973
188	0x3d169b11	0.036768977
189	0xbd7272fb	-0.059191685
190	0x3dc3c6e7	0.09559422
191	0x3e21201b	0.15734904
192	0xbd0d6c0e	-0.034526877
193	0x3d30596d	0.043054033
194	0x3ce30591	0.027712615
195	0xbcf48521	-0.029848637
196	0xbc5b9f7e	-0.013404725
197	0x3d51242d	0.05105989
198	0xbda198d7	-0.0789048
199	0xbe7d1b38	-0.24717414
200	0xbdd2d27a	-0.102940515
201	0xbd8c0063	-0.06836011
202	0xbdde1445	-0.1084371
203	0x3c78c321	0.015183241
204	0xbccbf605	-0.024897585
205	0xbe6059e4	-0.2190929
206	0xbdd65090	-0.10464585
207	0xbe35c19b	-0.17749636
208	0xbd9828f8	-0.07429689
209	0x3d36c960	0.04462564
210	0x3cbab354	0.022790588
211	0xbd0a74b4	-0.033802703
212	0xbe31011e	-0.17285582
213	0x3dc9087f	0.098160736
214	0xbda9a310	-0.08283055
215	0x3dabe0c7	0.08392482
216	0x3c8e0c17	0.01733975
217	0xbe7d8c75	-0.24760611
218	0x3dac5b6a	0.08415873
219	0x3cc5b365	0.024133394
220	0xbe0fcbb0	-0.14042544
221	0xbe29c317	-0.16578327
222	0xbe17f6cf	-0.14840244
223	0xbd77607b	-0.060394745
224	0xbcfdd218	-0.03098397
225	0xbcb881d1	-0.022522839
226	0xbd9e2976	-0.07722752
227	0xbe40c00c	-0.1882326
228	0x3d019766	0.031638525
229	0xbd5e5a76	-0.05428549
230	0xbe621bbd	-0.22080894
231	0xbe0e15df	-0.1387553
232	0xbbfe2a37	-0.0077564972
233	0xbdd74a72	-0.10512246
234	0xbe43edd9	-0.191337
235	0x3c7b74bd	0.015347657
236	0xbdc6e68d	-0.09711943
237	0xbd9417d5	-0.07231108
238	0xbe53820a	-0.20655075
239	0x3debb4b6	0.11509077
240	0xbd5625d1	-0.05228216
241	0xbe0b1483	-0.13582043
242	0xbc1c65dd	-0.0095457705
243	0xbc95ab92	-0.018270288
244	0x3ca14bb4	0.019689418
245	0xbe839b58	-0.25704455
246	0xbd82f923	-0.06395175
247	0x3dcc48c0	0.099748135
248	0x3cac7c76	0.021055441
249	0x3db4b248	0.08823067
250	0x3c080787	0.008302576
251	0xbcd3cc34	-0.025854208
252	0xbbcf1a6b	-0.006320288
253	0xbe235be5	-0.15953024
254	0x3d89c66f	0.06727301
255	0xbd33ff79	-0.04394481
