RollerAgent/Assets/Learn/RollerAgent_01.onnx (onnx, 73663 bytes, 7 tensors)

action_model._continuous_distribution.log_sigma f4 [1, 2]
-0.31602055 -0.20260425
00000000: 72cd a1be 7d77 4fbe

action_model._continuous_distribution.mu.bias f4 [2]
0.021829907 0.012356491
00000000: a2d4 b23c e172 4a3c

action_model._continuous_distribution.mu.weight f4 [2, 128]
0.020355484 0.0033620605 0.022556543 -0.015367169 -0.0036210201 0.024904413 -0.031679578 -0.0011008489
-0.01991059 0.022379855 0.04262868 0.004626043 0.0015302948 0.030324792 -0.014209681 -0.025349533
0.007229701 -0.036591925 0.02459977 0.0009247 0.016927728 -0.002756963 -0.031763405 0.01783504
0.017534211 0.029420348 0.019957673 0.022447092 0.026209863 0.0129504865 0.026634634 0.010287174
0.01666665 -0.022002157 -0.014737181 0.013014078 0.022564543 -0.02173998 -0.04783626 -0.010125572
0.041353986 6.8256064e-05 0.023889706 -0.011409032 0.062927864 0.0326465 -0.020876443 -0.012690066
-0.004921991 0.013728531 -0.015450986 -0.03057193 0.03073731 0.006135455 0.03303331 -0.0064356765
-0.014222083 -0.02614176 0.026042378 0.050352924 0.036037087 0.008174457 -0.013662913 -0.02133049
-0.04394074 0.0291249 0.012357583 0.023180358 -0.011036171 0.011600067 0.017030964 0.009156461
-0.009385045 -0.0070261536 -0.039327916 0.03473262 -0.02433722 -0.059105843 0.018053286 0.052569136
0.03410051 -0.017375674 -0.023187293 -0.03976034 -0.058722828 -0.018926758 0.0032229135 0.06965302
0.008488657 -0.009388877 0.02895399 0.012406747 0.016157897 0.0057772626 -0.0086039845 -0.032318395
0.022526465 -0.008226301 -0.032771874 0.034506094 0.018082 -0.02318285 0.073405825 0.011283657
-0.004536262 0.038300477 0.024309346 -0.0012668299 -0.009056545 -0.004600084 0.016896833 -0.03807813
0.02709698 -0.0077145197 0.016498249 -0.04073572 -0.036295645 -0.029757883 0.0009487599 0.00083165214
-0.0036841854 -0.03221969 0.0008042021 -0.0043374053 -0.024306446 0.013073664 -0.032596305 0.0309178
-0.01258769 -0.020030046 -0.0040653287 0.031420358 -0.047918558 0.029067732 0.016815977 -0.0184266
-0.00018735103 0.016409103 -0.017271424 -0.047176633 -0.031335343 -0.004453777 -0.0070250784 -0.018188119
-0.0077145062 0.022539305 0.004521307 -0.056096468 -0.01865151 0.02759418 -0.05238179 -0.03189062
-0.04104837 -0.018235188 0.01050399 -0.0027691426 -0.022461826 0.000149537 0.028104067 -0.020390475
0.0542771 -0.015060457 -0.043960854 -0.022689953 -0.026385648 -0.05715903 -0.003740616 0.0139399795
-0.07448706 -0.020452447 -0.012620622 -0.04053249 0.010854133 0.050072387 -0.034615014 0.03288822
-0.03997469 -0.040286236 -0.021509783 0.02667889 -0.03143624 0.05849247 0.0054114982 -0.0063182414
0.015030419 0.018251274 -0.00021532069 0.0030804027 0.019424334 0.009280572 -0.011837474 -0.063603505
-0.020854207 -0.021517131 -0.041840855 0.040420093 -0.06514873 -0.016832115 -0.030231757 0.005992132
-0.01919771 -0.03976565 -0.027878176 -0.010985127 0.021993063 -0.0012107716 -0.015427223 0.003990109
0.003899853 -0.0065539423 0.011821526 -0.0034373093 -0.02122207 0.06741822 -0.024349796 -0.004398478
-0.057185296 -0.02340651 -0.0018694798 0.009267544 0.015520046 -0.08001418 -0.027497916 -0.00039243296
-0.011854587 -0.044456076 -0.0341429 -0.008872139 0.015019917 -0.041046686 0.032508366 -0.0071500717
-0.033091664 -0.00082202634 0.009021058 0.0462921 -0.038952734 -0.025870001 -0.029648121 0.05702822
0.03771642 0.03476883 0.014628615 -0.076562494 -0.04842598 0.030387187 0.051704705 0.009808746
0.004871182 -0.025765901 -0.0066857603 -0.011051504 0.03111027 -0.0083776405 0.01266592 -0.008576965
00000000: 8bc0 a63c 0456 5c3b 80c8 b83c 94c6 7bbc
00000010: a34e 6dbb 5704 cc3c 72c2 01bd 5c4a 90ba
00000020: 891b a3bc f555 b73c 699b 2e3d 1096 973b
00000030: 2c94 c83a b36b f83c b9cf 68bc d3a9 cfbc
00000040: 21e7 ec3b 6ae1 15bd 7585 c93c 9167 723a
00000050: 05ac 8a3c 2aae 34bb 581a 02bd ca1a 923c
00000060: e8a3 8f3c f102 f13c 467e a33c f7e2 b73c
00000070: 11b6 d63c 472e 543c e030 da3c 898b 283c
00000080: 8088 883c de3d b4bc 3874 71bc 0039 553c
00000090: 47d9 b83c 0b18 b2bc f4ef 43bd bae5 25bc
000000a0: cc62 293d b224 8f38 58b4 c33c f3ec 3abc
000000b0: 53e0 803d 56b8 053d 1305 abbc ffe9 4fbc
000000c0: a748 a1bb a2ed 603c 2226 7dbc fc71 fabc
000000d0: d0cc fb3c ed0b c93b f04d 073d 5ee2 d2bb
000000e0: bd03 69bc 3f27 d6bc d356 d53c de3e 4e3d
000000f0: a09b 133d 28ee 053c 69da 5fbc 48bd aebc
00000100: 35fb 33bd 5897 ee3c 7677 4a3c bce4 bd3c
00000110: 0ed1 34bc 350e 3e3c 8584 8b3c fb04 163c
00000120: bbc3 19bc a63b e6bb 4f16 21bd cb43 0e3d
00000130: d95e c7bc f818 72bd 7ce4 933c bc52 573d
00000140: faac 0b3d 6e57 8ebc 47f3 bdbc bddb 22bd
00000150: 5987 70bd 4a0c 9bbc 8437 533b 3ea6 8e3d
00000160: 0214 0b3c ced3 19bc eb30 ed3c ab45 4b3c
00000170: 915d 843c 314f bd3b baf7 0cbc 4b60 04bd
00000180: 6c89 b83c 9bc7 06bc cd3b 06bd 4356 0d3d
00000190: b420 943c f6e9 bdbc cb55 963d 16df 383c
000001a0: eca4 94bb f6e0 1c3d 6524 c73c c20b a6ba
000001b0: e761 14bc 4dbc 96bb 3a6b 8a3c d0f7 1bbd
000001c0: 7cfa dd3c 15ca fcbb 5627 873c 80da 26bd
000001d0: beaa 14bd cec6 f3bc 33b6 783a 3b03 5a3a
000001e0: 6072 71bb cbf8 03bd 17d1 523a cb20 8ebb
000001f0: 501e c7bc ec32 563c b483 05bd 5347 fd3c
00000200: 993c 4ebc 0d16 a4bc 7336 85bb a2b2 003d
00000210: 4046 44bd 741f ee3c a9c1 893c 62f3 96bc
00000220: a973 44b9 626c 863c cd7c 8dbc 493c 41bd
00000230: 7d59 00bd fdf0 91bb a132 e6bb 40ff 94bc
00000240: f8c9 fcbb 59a4 b83c 7927 943b 69c5 65bd
00000250: 0dcb 98bc 310d e23c 4a8e 56bd bd9f 02bd
00000260: 5622 28bd f661 95bc ed18 2c3c 817a 35bb
00000270: dd01 b8bc 08cd 1c39 803a e63c ed09 a7bc
00000280: aa51 5e3d 23c0 76bc 4c10 34bd 48e0 b9bc
00000290: b726 d8bc 961f 6abd 1f25 75bb 8364 643c
000002a0: ac8c 98bd e48b a7bc bac6 4ebc 6505 26bd
000002b0: 89d5 313c b418 4d3d 79c8 0dbd ccb5 063d
000002c0: 80bc 23bd 2e03 25bd 4935 b0bc b08d da3c
000002d0: 49c3 00bd cd95 6f3d f052 b13b 4009 cfbb
000002e0: 2642 763c b283 953c b5c7 61b9 95e0 493b
000002f0: c81f 9f3c 8a0d 183c f7f1 41bc 8e42 82bd
00000300: 71d6 aabc b244 b0bc 5161 2bbd 8a8f 253d
00000310: b36c 85bd 81e3 89bc 97a8 f7bc a559 c43b
00000320: 8444 9dbc 4ee1 22bd c660 e4bc f6fa 33bc
00000330: cc2a b43c c1b2 9eba 77c2 7cbc 76bf 823b
00000340: ad94 7f3b 74c2 d6bb 13af 413c 7b44 61bb
00000350: e8d9 adbc 9012 8a3d 3979 c7bc 1c21 90bb
00000360: 213b 6abd 02bf bfbc 5509 f5ba e6d6 173c
00000370: cb47 7e3c 79de a3bd 4f43 e1bc 76bf cdb9
00000380: be39 42bc 9317 36bd 6dd9 0bbd 735c 11bc
00000390: 1916 763c 9220 28bd 7e27 053d 264b eabb
000003a0: 208b 07bd 417d 57ba 0fcd 133c c99c 3d3d
000003b0: e78c 1fbd 53ed d3bc 9ee0 f2bc 6c96 693d
000003c0: 887c 1a3d c369 0e3d dcac 6f3c cccc 9cbd
000003d0: 525a 46bd 8dee f83c 50c8 533d ddb4 203c
000003e0: 709e 9f3b 0313 d3bc 3914 dbbb 5e11 35bc
000003f0: f7da fe3c 5f42 09bc b884 4f3c 6686 0cbc

network_body._body_endoder.seq_layers.0.bias f4 [128]
-0.06289466 -0.03912757 0.02119508 0.06277745 0.09891314 -0.11859511 -0.030399777 -0.15817319
-0.061711863 -0.037268195 -0.06386655 -0.008704342 -0.13979043 0.08661169 -0.06696885 0.02958771
-0.02212802 -0.033156097 -0.08293183 -0.061565176 -0.002281428 -0.045238625 -0.15759481 -0.047409266
-0.02884307 -0.06390851 0.023760172 -0.08454384 -0.09930144 -0.092482276 0.005284113 -0.064126104
0.021222988 -0.014728641 -0.054495614 -0.035192832 -0.10337362 -0.00346132 0.03390851 0.060695678
0.057607904 -0.10096605 0.065473825 -0.08619 -0.03758852 0.07848223 0.004612116 0.0005760375
-0.024002863 -0.07379243 -0.052116126 0.06687429 -0.05342347 -0.068921134 -0.09851531 -0.050188072
-0.03581903 -0.06850128 -0.09218624 -0.13630961 -0.043639075 -0.07058631 -0.022827527 0.021814672
-0.16336718 0.022816686 0.04813065 0.034759685 -0.102245 -0.04512657 0.021854268 -0.0687034
0.06940327 0.040239103 -0.15427226 -0.05582584 -0.09191046 -0.10014507 0.041674465 -0.14683576
-0.013744055 -0.15066448 -0.08351578 -0.028206514 0.06807946 -0.0149925025 -0.088643454 -0.091977715
-0.07211395 -0.025925016 -0.051030803 -0.038107377 0.04143929 0.043369494 -0.10882463 -0.12884144
0.0655309 -0.18069388 -0.041739225 0.039493613 0.013155776 -0.008248795 -0.06255208 -0.039568093
0.2189471 -0.12709531 -0.01366815 -0.083071634 -0.037428718 0.006245884 -0.09004342 -0.07241554
-0.077858485 0.055590913 -0.088350825 0.016704328 0.0005601856 0.00036063776 -0.025793746 -0.016470736
-0.064391196 -0.07353118 -0.065602414 -0.08517216 -0.024590328 -0.03058883 -0.085124634 -0.009603181
00000000: eace 80bd 3b44 20bd 4ea1 ad3c 7791 803d
00000010: f992 ca3d fee1 f2bd f408 f9bc 27f8 21be
00000020: 94c5 7cbd 89a6 18bd 77cc 82bd a89c 0ebc
00000030: 3925 0fbe 7861 b13d f726 89bd ed61 f23c
00000040: d245 b5bc b0ce 07bd 2ad8 a9bd c42b 7cbd
00000050: 0384 15bb 234c 39bd 8960 21be 3830 42bd
00000060: 4d48 ecbc 77e2 82bd b1a4 c23c 5225 adbd
00000070: 8e5e cbbd 5967 bdbd 5a26 ad3b 8c54 83bd
00000080: d5db ad3c 6650 71bc cb36 5fbd 5c26 10bd
00000090: 8cb5 d3bd 50d7 62bb a6e3 0a3d 089c 783d
000000a0: 44f6 6b3d 4ac7 cebd 2417 863d 6284 b0bd
000000b0: 6cf6 19bd 4bbb a03d 3c21 973b 3901 173a
000000c0: a7a1 c4bc 7c20 97bd b877 55bd 63f5 883d
000000d0: 92d2 5abd 8626 8dbd 65c2 c9bd 0292 4dbd
000000e0: fab6 12bd 664a 8cbd 24cc bcbd bf94 0bbe
000000f0: e3be 32bd 8e8f 90bd cb00 bbbc afb4 b23c
00000100: ba49 27be 0fea ba3c a524 453d 2c60 0e3d
00000110: d465 d1bd a3d6 38bd b907 b33c 5eb4 8cbd
00000120: 4d23 8e3d c2d1 243d 8cf9 1dbe a3a9 64bd
00000130: 8d3b bcbd dc18 cdbd d8b2 2a3d 1d5c 16be
00000140: bf2e 61bc ca47 1abe 520a abbd 5911 e7bc
00000150: 3e6d 8b3d 1da3 75bc b38a b5bd d05e bcbd
00000160: 7bb0 93bd b360 d4bc ad05 51bd 7b16 1cbd
00000170: 3fbc 293d 36a4 313d 73df debd 03ef 03be
00000180: 1135 863d d107 39be c0f6 2abd 0ec4 213d
00000190: 538b 573c f425 07bc 4e1b 80bd 2712 22bd
000001a0: ab33 603e 4625 02be 60f0 5fbc 7621 aabd
000001b0: db4e 19bd 46aa cc3b af68 b8bd 994e 94bd
000001c0: 4574 9fbd 4cb3 633d 47f1 b4bd 84d7 883c
000001d0: 6bd9 123a fb13 bd39 684d d3bc a3ed 86bc
000001e0: 88df 83bd 8497 96bd 8f5a 86bd be6e aebd
000001f0: a871 c9bc 6d95 fabc d355 aebd a956 1dbc

network_body._body_endoder.seq_layers.0.weight f4 [128, 8]
0.29556328 0.7403267 -0.00018503088 -0.6359584 -0.008148356 -0.24989592 0.6704988 0.3019671
0.46697628 0.065810464 -0.06425386 0.31390938 -0.51466024 -0.3275875 0.016310247 -0.11757256
-0.6954852 0.19558276 0.5323246 0.10531572 -0.03214199 0.47061753 0.3519011 -0.6094984
-0.107552186 -0.06502207 0.18320167 -0.20402062 0.45272863 -0.019947827 0.34631282 0.48601055
0.01353876 0.3223394 0.04861118 0.47823957 0.7289576 -0.11015179 -0.17128547 -0.2067799
-0.07500128 -0.2449197 -0.3298798 -0.2973905 -0.36901665 0.22513542 0.15070935 0.49772012
0.412336 0.13374831 0.26582557 0.4263035 0.17003669 0.41624805 -0.39694554 0.6442142
0.23392615 -0.04759765 0.118600436 -0.2577439 -0.41367868 0.06925071 0.15023902 0.06657987
-0.06829373 -0.6017771 0.004791569 0.3849565 0.3003482 -0.49885812 0.7552369 0.8115921
0.041063648 0.12038422 0.36381382 0.36826628 -0.523411 0.058693413 -0.29887244 -0.21420307
0.022026919 0.24595578 -0.59721607 0.0007761377 -0.19536135 0.19231702 0.19248778 -0.9203164
-0.05928163 0.09298981 0.21918169 -0.10382855 0.13778709 -0.2875866 0.39092913 0.70507854
-0.2156781 -0.41034988 -0.72463983 -0.10195851 0.0042469194 -0.28169662 0.03897092 -0.019682283
0.09982927 -0.13116528 -0.32430062 -0.011223231 -0.20066375 -0.29197258 0.009381645 -0.090628825
0.20908558 0.6994247 0.6284464 -0.23194599 0.12795264 0.05110325 0.35999045 0.025789196
0.07377519 -0.1331116 -0.38902217 0.2497984 0.32117134 -0.08604761 -0.8236215 -0.45065013
-0.2881825 1.00107 -0.006381055 0.49052018 0.07420141 -0.2602771 -0.2436461 0.42276174
-0.18083899 -0.35679218 -0.1543597 0.32958943 -0.05449368 -0.01682376 0.39230317 -0.44104582
0.3120643 -0.11135863 0.5376959 0.12879746 0.23072346 -0.33719948 -0.25243217 0.1784727
0.48894754 -0.33911172 -0.25805405 -0.3610368 -0.35904825 0.17159194 0.020117318 -0.5123904
0.0047903378 -0.23285964 -0.09098349 -0.023495855 -0.23417759 0.0052540824 -0.18804178 0.33535054
-0.22893518 -0.6299469 0.14395267 0.14744109 0.29670227 -0.091998614 0.13375087 -0.109757654
0.86747825 0.3892007 0.3548303 0.014193069 -0.18918057 0.0040590693 -0.080805406 0.034272484
0.0846732 -0.15266323 0.2147539 -0.09834369 -0.21373747 -0.41952497 0.1029874 -0.22436851
-0.41146782 0.32588333 0.64788175 -0.37489587 1.0179424 0.059810106 0.32102588 0.51400447
0.3992894 0.47328278 -0.36407542 -0.20658451 0.6047014 -0.237737 0.0133364 -0.31542873
0.23902628 -0.07362168 0.38430184 -0.2893522 0.53938967 0.24342605 -0.4839289 0.14112118
-0.17869957 -0.065970264 0.042224064 0.03824745 0.14518037 0.32265323 -0.39415053 -0.4242717
-0.09855031 -0.365365 0.042297494 0.10558015 -0.5315174 0.10110324 -0.0130319465 0.439746
0.033515137 -0.73994476 0.5288127 -0.09966483 -0.11921405 -0.015696023 0.2475063 0.1475882
0.002886226 0.09165143 0.62817746 -0.42186627 0.39793774 0.112251215 0.26262528 -0.37282526
-0.022091476 0.10676331 0.4260783 0.059223995 1.1189609 0.2183435 0.06438688 -0.01276146
00000000: 1254 973e 0d86 3d3f d904 42b9 2bce 22bf
00000010: af80 05bc b7e4 7fbe cfa5 2b3f 6f9b 9a3e
00000020: 8417 ef3e a3c7 863d 8797 83bd bbb8 a03e
00000030: c6c0 03bf 8cb9 a7be 119d 853c e2c9 f0bd
00000040: 510b 32bf d946 483e 6d46 083f c5af d73d
00000050: 52a7 03bd c8f4 f03e 622c b43e 1608 1cbf
00000060: 5244 dcbd 4b2a 85bd 3899 3b3e c8ea 50be
00000070: 0ccc e73e a069 a3bc ea4f b13e 60d6 f83e
00000080: add1 5d3c ab09 a53e 841c 473d d1db f43e
00000090: f79c 3a3f 4397 e1bd 7565 2fbe 1cbe 53be
000000a0: 459a 99bd 3bcc 7abe 01e6 a8be 9143 98be
000000b0: c0ef bcbe e689 663e 8d53 1a3e 2cd5 fe3e
000000c0: b41d d33e 51f5 083e 4a1a 883e 7444 da3e
000000d0: 191e 2e3e 771e d53e 723c cbbe 39eb 243f
000000e0: 568a 6f3e c1f5 42bd c9e4 f23d 02f7 83be
000000f0: b1cd d3be 51d3 8d3d 42d8 193e 075b 883d
00000100: 95dd 8bbd 100e 1abf 9802 9d3b 0519 c53e
00000110: 3dc7 993e 556a ffbe 3557 413f 80c4 4f3f
00000120: 5b32 283d 008c f63d ce45 ba3e 668d bc3e
00000130: 43fe 05bf 8168 703d cf05 99be 0d58 5bbe
00000140: cc71 b43c d5db 7b3e 27e3 18bf b875 4b3a
00000150: ce0c 48be c1ee 443e 841b 453e db99 6bbf
00000160: 4bd1 72bd 7171 be3d 2a71 603e 10a4 d4bd
00000170: 0f18 0d3e 8d3e 93be dd27 c83e 0780 343f
00000180: b8da 5cbe 6119 d2be ff81 39bf a0cf d0bd
00000190: be29 8b3b 8a3a 90be f99f 1f3d bd3c a1bc
000001a0: 4a73 cc3d 3150 06be bb0a a6be a5e1 37bc
000001b0: cc7a 4dbe 6e7d 95be 79b5 193c 9b9b b9bd
000001c0: 881a 563e 7f0d 333f dde1 203f 4083 6dbe
000001d0: 0406 033e a451 513d ab50 b83e dd43 d33c
000001e0: 7217 973d 684e 08be ea2d c7be 27cb 7f3e
000001f0: 9270 a43e bb39 b0bd dcd8 52bf 9dbb e6be
00000200: a88c 93be 1023 803f 2b18 d1bb 7625 fb3e
00000210: e9f6 973d 0a43 85be 5d7e 79be 3a74 d83e
00000220: db2d 39be 77ad b6be 7810 1ebe f2bf a83e
00000230: c434 5fbd fbd1 89bc f6db c83e c2d0 e1be
00000240: e4c6 9f3e fe0f e4bd 70a6 093f 7be3 033e
00000250: c542 6c3e 69a5 acbe ca3e 81be 8cc1 363e
00000260: 5557 fa3e 0da0 adbe a91f 84be d1d9 b8be
00000270: 2cd5 b7be ccb5 2f3e 13cd a43c 042c 03bf
00000280: 44f8 9c3b c272 6ebe 8d55 babd 617a c0bc
00000290: 40cc 6fbe 702a ac3b 068e 40be 11b3 ab3e
000002a0: fc6d 6abe 3344 21bf 5468 133e ccfa 163e
000002b0: 5ce9 973e c569 bcbd fdf5 083e 9fc8 e0bd
000002c0: 0e13 5e3f 5045 c73e 51ac b53e 0c8a 683c
000002d0: 8db8 41be f101 853b 4e7d a5bd 4e61 0c3d
000002e0: 2569 ad3d c053 1cbe 72e8 5b3e 6b68 c9bd
000002f0: ffdd 5abe facb d6be 0feb d23d dcc0 65be
00000300: e9ab d2be 2eda a63e 94db 253f 5af2 bfbe
00000310: f04b 823f 71fb 743d 815d a43e cc95 033f
00000320: a96f cc3e 1f52 f23e 1868 babe e48a 53be
00000330: b6cd 1a3f 5471 73be ea80 5a3c e07f a1be
00000340: 4ec3 743e f7c6 96bd 36c3 c43e f925 94be
00000350: 7115 0a3f ae44 793e 87c5 f7be 1282 103e
00000360: 05fd 36be 6b1b 87bd 24f3 2c3d 5ca9 1c3d
00000370: 2aaa 143e ce32 a53e 19ce c9be 243a d9be
00000380: bfd4 c9bd 1f11 bbbe 2340 2d3d 683a d83d
00000390: 8611 08bf 370f cf3d f283 55bc 6326 e13e
000003a0: 2b47 093d 056d 3dbf 4560 073f 131d ccbd
000003b0: 7f26 f4bd f294 80bc 4b72 7d3e 5c21 173e
000003c0: d626 3d3b bfb3 bb3d 3dd0 203f dbfe d7be
000003d0: 7fbe cb3e f7e3 e53d d276 863e f4e2 bebe
000003e0: 2ff9 b4bc b9a6 da3d ef26 da3e dc94 723d
000003f0: 1c3a 8f3f 7095 5f3e 45dd 833d 7115 51bc

network_body._body_endoder.seq_layers.2.bias f4 [128]
-0.10091616 -0.17363311 -0.14441076 -0.09402467 -0.10357875 -0.12229552 -0.030235112 -0.10090679
-0.072263435 -0.13287959 -0.091345444 -0.12467849 -0.10846359 -0.15990242 -0.024660967 -0.085650615
-0.11807074 -0.030313587 -0.122667134 -0.09193724 -0.058474857 -0.087095 -0.036261834 -0.086160235
-0.1462825 -0.04707711 -0.12865001 -0.15545434 -0.11204974 -0.11380528 -0.013586398 -0.12430442
-0.025350776 -0.120694056 -0.0607945 -0.06672126 -0.032913685 -0.06638151 -0.0074265064 -0.078009844
-0.057080768 -0.11526245 -0.037509922 -0.059482753 -0.06013942 -0.06975779 -0.05006622 -0.051536288
-0.114967234 -0.12417359 -0.09870386 -0.07365204 0.016357625 -0.057549197 -0.0837244 -0.18082424
-0.060454004 -0.077697836 -0.1026168 -0.06093999 -0.099599384 -0.07124901 -0.03055581 -0.05613101
-0.11846695 -0.01090086 -0.09741547 -0.06459621 -0.09153018 -0.15169875 -0.06189979 -0.12966639
-0.08301063 0.023095645 -0.04596722 -0.12599541 -0.07545179 0.040721063 -0.14230509 -0.11632814
-0.0395078 -0.1278348 -0.104856424 -0.07496827 -0.045239046 -0.09064648 -0.084826365 -0.0007781947
-0.0796827 -0.05013208 0.023031292 -0.12577207 -0.08910051 -0.042132527 -0.042968355 -0.059501413
-0.16514081 -0.13448958 -0.091225736 -0.027425302 -0.101603635 -0.060221072 -0.06332578 -0.12190758
-0.07766659 -0.045672286 -0.10966468 -0.084255345 -0.08851351 -0.081356086 -0.1703348 -0.005079812
-0.09608045 -0.08097885 -0.08782946 -0.13317113 -0.03965048 -0.028286181 -0.049105305 -0.047559872
-0.072926514 0.017827183 -0.15465942 -0.15049376 -0.051260017 -0.18292779 -0.07520914 -0.10812299
00000000: 22ad cebd e1cc 31be 6ae0 13be 0290 c0bd
00000010: 1821 d4bd 1376 fabd a0af f7bc 38a8 cebd
00000020: dafe 93bd 9611 08be 5213 bbbd 7057 ffbd
00000030: 2922 debd 76bd 23be cc05 cabc 9769 afbd
00000040: 12cf f1bd 3354 f8bc e838 fbbd 9749 bcbd
00000050: 5583 6fbd dd5e b2bd 4a87 14bd c774 b0bd
00000060: 14cb 15be edd3 40bd d4bc 03be 6c2f 1fbe
00000070: 567a e5bd be12 e9bd 7c99 5ebc 5193 febd
00000080: 6eac cfbc 722e f7bd a703 79bd 28a5 88bd
00000090: 80d0 06bd 07f3 87bd 0d5a f3bb a0c3 9fbd
000000a0: 86cd 69bd b80e ecbd 01a4 19bd 30a4 73bd
000000b0: c154 76bd 2cdd 8ebd 3d12 4dbd b717 53bd
000000c0: f173 ebbd b94e febd 4025 cabd e1d6 96bd
000000d0: 6d00 863c b5b8 6bbd b377 abbd fd29 39be
000000e0: 9e9e 77bd 0b20 9fbd c228 d2bd 369c 79bd
000000f0: c3fa cbbd 00eb 91bd 2e50 fabc a1e9 65bd
00000100: cd9e f2bd 8599 32bc c381 c7bd 054b 84bd
00000110: 2d74 bbbd eb56 1bbe a28a 7dbd 44c7 04be
00000120: 7a01 aabd 1433 bd3c 2048 3cbd f104 01be
00000130: 7886 9abd 21cb 263d 6db8 11be 733d eebd
00000140: eed2 21bd 20e7 02be f7be d6bd f788 99bd
00000150: 944c 39bd dda4 b9bd 72b9 adbd c3ff 4bba
00000160: af30 a3bd 4c57 4dbd 1fac bc3c 65ca 00be
00000170: 547a b6bd 2893 2cbd 96ff 2fbd c1b7 73bd
00000180: ac1a 29be a3b7 09be 8fd4 babd 07ab e0bc
00000190: 9115 d0bd 5faa 76bd f2b0 81bd aeaa f9bd
000001a0: a90f 9fbd dd12 3bbd e097 e0bd 118e acbd
000001b0: 9246 b5bd 059e a6bd 3f6c 2ebe 8d74 a6bb
000001c0: d4c5 c4bd 3dd8 a5bd efdf b3bd 035e 08be
000001d0: 8b68 22bd 6cb8 e7bc a522 49bd 24ce 42bd
000001e0: 7f5a 95bd 500a 923c 0a5f 1ebe 091b 1abe
000001f0: 06f6 51bd 6c51 3bbe 4007 9abd 966f ddbd

network_body._body_endoder.seq_layers.2.weight f4 [128, 128]
0.049268357 -0.15596238 -0.16550015 0.05193519 0.015650697 -0.0653861 -0.06686275 0.028834295
-0.022123195 -0.08117523 0.1306383 -0.24278316 -0.17091523 -0.10145067 -0.013587731 -0.038393002
-0.10336142 -0.10112594 -0.084652305 -0.00901408 -0.067802764 -0.024019295 -0.061880812 -0.026005667
-0.037135232 -0.0780508 -0.10696608 -0.027415987 0.03989899 -0.023611885 -0.039820842 -0.07348493
-0.09610517 -0.03739545 -0.13469133 -0.22173508 -0.06631492 0.0021710733 0.04331719 -0.23494658
-0.024039755 0.017877294 0.09139347 -0.12933624 -0.059566062 0.0067140236 -0.095171094 -0.17044736
-0.09558009 0.07325138 0.02370814 -0.16776344 -0.000772095 -0.11440887 0.042758703 -0.01284937
0.034392215 0.07352936 -0.02173021 -0.17192714 -0.17914331 -0.17442101 -0.098314784 -0.12841514
0.08517908 -0.0701074 -0.08094999 -0.029108832 -0.08637425 -0.07283039 0.03624751 -0.036990777
-0.034796644 -0.14948264 -0.040719118 0.031117301 -0.007108555 -0.15739565 -0.030284757 -0.0055641583
-0.025735285 -0.042162348 0.051478025 -0.06698683 -0.10604995 -0.08908001 0.02625194 -0.003086881
-0.15139538 -0.082331 -0.21480487 -0.29943871 -0.14083898 -0.15993766 -0.0113852965 -0.05969675
0.06382807 -0.11339078 0.011243441 -0.060992166 -0.058014475 -0.113188185 -0.10392607 0.0525872
-0.023674805 -0.2464926 -0.13920231 0.055373833 -0.27530628 -0.1775613 -0.06960188 -0.0023548387
-0.07816214 -0.17355691 -0.099146836 -0.2332022 -0.15460855 -0.026302025 -0.051779542 -0.22031362
-0.1795939 0.057102256 -0.09427343 0.04647466 -0.12965596 -0.12872428 -9.4774216e-05 -0.04311159
-0.04801582 -0.025782034 -0.043266386 -0.15716557 -0.040590595 -0.056983404 0.025555369 -0.18019088
0.05794383 -0.090955615 0.08913739 -0.2739319 -0.13641723 -0.24685857 -0.14383377 -0.14555377
-0.06555497 -0.018701108 -0.09143476 -0.23414464 0.1535214 0.09897352 -0.020237008 0.028783442
-0.0525127 -0.17947692 -0.08992603 -0.08836224 -0.053611804 -0.05245736 -0.18999957 0.006986448
-0.1483388 -0.045390885 -0.1168217 -0.011609956 -0.016454265 -0.008155559 -0.13137117 -0.11842679
-0.09947275 -0.04192825 -0.008947883 -0.07461152 -0.21608675 -0.05225555 -0.027308965 0.0029564782
0.046620756 -0.0303501 -0.069959156 -0.029089691 0.046809886 -0.22413078 -0.028441196 0.057244506
0.12292861 -0.0806921 -0.11151218 0.04361974 -0.124130264 -0.16396405 0.11297485 -0.056502078
0.09920216 -0.08865802 -0.06733963 0.015919892 -0.05010517 -0.03857901 -0.18921974 -0.06473226
-0.18763669 -0.24008597 -0.15819705 -0.08056848 -0.06501766 -0.037988294 -0.022090465 0.09738106
-0.12985134 0.007112963 0.043607436 -0.07831999 -0.15752205 -0.030074893 0.048016224 -0.19966628
-0.056798253 -0.24717866 -0.012688865 0.10858278 -0.16847292 0.21037787 0.27333727 -0.06719201
-0.043664765 -0.03266716 -0.040015865 0.21649048 -0.13518164 -0.07109258 -0.11321075 -0.084455706
-0.09834392 -0.1355446 -0.0022849808 0.010594338 -0.054805025 0.0057631717 0.017979406 -0.010722645
-0.14398329 0.045701012 -0.092850715 0.008445535 -0.030538084 -0.14965639 -0.065568805 -0.01811642
0.021448132 -0.17000467 0.029908316 -0.11074937 -0.062755704 -0.2732525 -0.08111634 0.06006329
00000000: 9ecd 493d 9ab4 1fbe df78 29be feb9 543d
00000010: e435 803c 26e9 85bd 56ef 88bd e635 ec3c
00000020: b43b b5bc 333f a6bd 0cc6 053e 269c 78be
00000030: 6704 2fbe 5ec5 cfbd 139f 5ebc fb41 1dbd
00000040: 27af d3bd 1e1b cfbd 305e adbd cbaf 13bc
00000050: 2ddc 8abd 1dc4 c4bc bc76 7dbd d609 d5bc
00000060: 1d1b 18bd 19d9 9fbd 0811 dbbd 7e97 e0bc
00000070: 206d 233d b66d c1bc 2e1b 23bd 447f 96bd
00000080: cad2 c4bd f92b 19bd 86ec 09be 850e 63be
00000090: 1ed0 87bd 9148 0e3b 5e6d 313d d695 70be
000000a0: 05ef c4bc 6773 923c 802c bb3d b870 04be
000000b0: 8bfb 73bd 5001 dc3b 10e9 c2bd c189 2ebe
000000c0: 7fbf c3bd d204 963d 9337 c23c 2eca 2bbe
000000d0: 6b66 4aba 334f eabd c023 2f3d 2a86 52bc
000000e0: dade 0c3d 9096 963d 8e03 b2bc ab0d 30be
000000f0: 5871 37be 6c9b 32be 4359 c9bd 427f 03be
00000100: 5f72 ae3d 7894 8fbd 1cc9 a5bd a575 eebc
00000110: fce4 b0bd 1928 95bd 4578 143d a483 17bd
00000120: ed86 0ebd fa11 19be 17c9 26bd b6e9 fe3c
00000130: e2ee e8bb 532c 21be bd17 f8bc 8b53 b6bb
00000140: ced2 d2bc 6db2 2cbd 9fda 523d 6430 89bd
00000150: b730 d9bd 956f b6bd 4f0e d73c 454d 4abb
00000160: 6407 1bbe 289d a8bd cff5 5bbe 0850 99be
00000170: 1838 10be b3c6 23be 6589 3abc 9484 74bd
00000180: 4bb8 823d 6d39 e8bd 6936 383c ecd2 79bd
00000190: 96a0 6dbd 35cf e7bd 31d7 d4bd ad65 573d
000001a0: aaf1 c1bc 8e68 7cbe 0d8b 0ebe accf 623d
000001b0: f2f4 8cbe a1d2 35be 6e8b 8ebd a353 1abb
000001c0: 7913 a0bd e7b8 31be 7f0d cbbd 8fcc 6ebe
000001d0: b451 1ebe 5877 d7bc c916 54bd e599 61be
000001e0: 77e7 37be 0ee4 693d 6e12 c1bd 375c 3e3d
000001f0: 88c4 04be 4cd0 03be 85c1 c6b8 c795 30bd
00000200: 3dac 44bd d834 d3bc 1838 31bd 03f0 20be
00000210: 5342 26bd 6e67 69bd 7e59 d13c f583 38be
00000220: 8256 6d3d f046 babd aa8d b63d cd40 8cbe
00000230: f5b0 0bbe 7ec8 7cbe 2949 13be 0c0c 15be
00000240: af41 86bd 1133 99bc 2642 bbbd 9dc3 6fbe
00000250: b734 1d3e a1b2 ca3d 15c8 a5bc 41cb eb3c
00000260: 8f17 57bd ccc8 37be 232b b8bd 43f7 b4bd
00000270: 0d98 5bbd 87dd 56bd 3f8f 42be 93ee e43b
00000280: 20e6 17be cbeb 39bd 3740 efbd af37 3ebc
00000290: 18cb 86bc e59e 05bc 2a86 06be bf89 f2bd
000002a0: 5fb8 cbbd f5bc 2bbd 249a 12bc edcd 98bd
000002b0: d845 5dbe ea09 56bd 0db7 dfbc 79c1 413b
000002c0: 68f5 3e3d c6a0 f8bc bf46 8fbd 814d eebc
000002d0: b9bb 3f3d 8a82 65be 83fd e8bc 3779 6a3d
000002e0: ffc1 fb3d e641 a5bd 7f60 e4bd 9daa 323d
000002f0: 0238 febd 31e6 27be 5c5f e73d b96e 67bd
00000300: 812a cb3d 5692 b5bd 5ce9 89bd 6f6a 823c
00000310: 143b 4dbd 0605 1ebd d2c2 41be 5992 84bd
00000320: d523 40be 19d9 75be 68fe 21be 1601 a5bd
00000330: fb27 85bd 9d99 1bbd 10f7 b4bc b96f c73d
00000340: c0f7 04be dc13 e93b b69d 323d 3b66 a0bd
00000350: 764d 21be 9f5f f6bc a9ac 443d 5175 4cbe
00000360: 49a5 68bd 671c 7dbe f5e4 4fbc a660 de3d
00000370: 2a84 2cbe 4c6d 573e ddf2 8b3e f79b 89bd
00000380: d3d9 32bd 00ce 05bd ade7 23bd aeaf 5d3e
00000390: 0e6d 0abe fd98 91bd 0adb e7bd 1df7 acbd
000003a0: 8a68 c9bd 34cc 0abe 9ebf 15bb e093 2d3c
000003b0: 3c7b 60bd fdd8 bc3b 8c49 933c 08ae 2fbc
000003c0: 5b70 13be fc30 3b3d 8428 bebd 245f 0a3c
000003d0: 012b fabc 863f 19be f048 86bd e368 94bc
000003e0: feb3 af3c b415 2ebe 4902 f53c 91d0 e2bd
000003f0: 1086 80bd c0e7 8bbe 5320 a6bd ed04 763d
