RollerAgent/Assets/Learn/RollerAgent_08.onnx (onnx, 81045 bytes, 9 tensors)

action_model._continuous_distribution.log_sigma f4 [1, 3]
00000000: 5d89 7abf 16b5 8dbf 30e0 90bf
-0.9786585 -1.1070888 -1.1318417

action_model._continuous_distribution.mu.bias f4 [3]
00000000: bbd8 15bd d161 093e 228b 8bbd
-0.036583643 0.1341622 -0.06813647

action_model._continuous_distribution.mu.weight f4 [3, 128]
00000000: 5d43 453d 5599 093e 5514 81bc 5257 343d
00000010: ae1b 4f3c f07d 4abd a484 85bd 1639 ccbd
00000020: 98f1 6b3d 2d8b 7b3c ac3d 3dbd 862a 013d
00000030: d246 733d fe8f 843d 8983 3abd 791f 933d
00000040: c8dc 4b3d 372d 243d 5728 cd3b 9557 2fbb
00000050: 01a1 6d3d 4f6b 22bd 35e2 e0bc 711b 1b3d
00000060: cb34 3ebd a93c 6cbd c3d9 1dbc d0eb 853c
00000070: 144c 303c 0f94 053b 155e 46ba 1bcc 33bd
00000080: 790d 903b 6b09 4b3d 80b0 8bbd 2b28 d03c
00000090: 29e6 33bc 25a8 9dbd 5e67 e03d a666 2abd
000000a0: 2a3f a7bd 52e7 953b a4a0 813d deb7 a33d
000000b0: 5bfd 623b c132 56bc 81ef c63c 78e4 123e
000000c0: 6b06 443d 8d1e c6bd 2772 0c3d ba8b 263d
000000d0: 2be2 2a3d 3446 0f3d ae9f 803d ff21 16bc
000000e0: 6f43 03bd 1b0e 953d 7594 6abd c73b 443d
000000f0: c46d e1bb 1522 8dbc 6ab9 543d 08b7 263d
00000100: 33bb 4bbd 2fd6 853c 778a cb3c 66fa babc
00000110: 546c 5fbc e48a 3dbd caa3 8e3d a70f 67bc
00000120: ae24 843d e15a ce3c 6f37 c63d 3157 923c
00000130: a655 a4bc 9837 703d 0738 93bc a35b 30bd
00000140: c38e 98bb dbe8 913b 3fa5 a23c 8f52 c43b
00000150: f376 67bd 3a33 ecbc 5949 eb3d 2a11 8c3d
00000160: 9d3f 37bd 89ce 4bbd 7beb b23d 5e65 e7bc
00000170: 8a60 163d 0e76 5bbd 761f 133d d176 97bd
00000180: f10c 953d 31ef 903d c952 4fbd 8786 623d
00000190: 3bce 533d 466f 30bd 0a63 9abd 81d0 d23d
000001a0: c6f9 e43c d39b 1ebc a3b3 18bd 9e2b 383c
000001b0: cad4 093c 8ad7 563c 1417 1abd 2805 a93c
000001c0: 3bcd bf3c 5cbb e53d 91bb ce3c a73f bc3c
000001d0: 6a55 d33d fec7 ddbc 196d 6cbb 0f4e cebc
000001e0: a95f b93d d633 383c f7b7 95bb 026e 14bd
000001f0: 47a9 08bd 4070 c73c ebcf 7dbb 0d5a 6abd
00000200: a845 f1bc 884c ce3b 8fde 0fbc e963 8fbd
00000210: b97a c9bc 873b 11be b6a5 a5ba 1e75 08bc
00000220: 8151 413d f1e8 8e3d 0d9f f63b c174 9ebd
00000230: 4a38 9cbd 9305 7f3d 6c34 9a3d c847 993d
00000240: f3f9 d23b 8666 0d3d aa6b 4e3d e712 90bd
00000250: e67c f8bc 4135 a6bc 20fd 6cbd ad99 40bd
00000260: aad2 a53c 1d3a 833d 4c6b 26bd e073 a7bd
00000270: 9cc8 1b3d d44d 09be 0f4e 06bd 3fa1 d8bc
00000280: 9a17 e53c 5ee1 6dbb 8835 e7b9 ceec 49bc
00000290: 18b5 883b 0873 98bd 2856 ad3b 3741 0dbd
000002a0: 377d 10bd eee1 67bc bdd1 293c 6c2a ecbc
000002b0: 3380 a53c 87ae f3bd 2910 b2bc a740 9e3b
000002c0: 18a4 0ebd 0ea6 3ebd 977d 34bd 3d74 673b
000002d0: 8b97 893b a3e4 21bd 26db d3bc e4fb afbd
000002e0: 98a5 a93d 90e8 9abd cf97 a5bc daa7 3ebc
000002f0: 6948 a33a 2390 0d3c 7de1 0c3c 4e43 a8bb
00000300: 6ea9 c0bc 2634 853d 42aa 893d a840 2bbd
00000310: 3d96 77bd 46a0 2c3d b78f 83bd 9d63 bebd
00000320: 55e1 dcbd 132d 00bd ff6f 503d d1ab 9f3c
00000330: 1019 f8bd 572b e43c ac50 8c3c af07 74bc
00000340: 34ec fdbd d622 483c 7647 583d 9073 b73d
00000350: 5bf2 95bd 849e dfbc 6512 93bd ea0d 89bb
00000360: cba3 eb3c bca5 cd3c e8de b7bb 738d 5abb
00000370: 7b17 ee3c b56c 30bc fa32 0dbd ff30 b4bc
00000380: 5e82 a03c a00e 80bd fa19 1a3c af5b adba
00000390: 6d18 60bd bb8a 673b 1cfb 24bd b41b 2abd
000003a0: 684c 6d3d c279 0b3c aede dbbd 3e20 f43a
000003b0: f4ed c93b f146 ef3a cc91 10bd 8834 0e3d
000003c0: bf1f 63bd 6c1f 053d d738 82bd 1a45 9a3d
000003d0: d09c 663d c154 533d 03f4 663d 06d7 893d
000003e0: 5d07 80bd a527 603b e5dc b9bc 249f b53b
000003f0: 3afa 9bbc 4d69 84bd 5a66 0b3d 15f4 043d
0.048159946 0.13437398 -0.015756765 0.044028588 0.012640877 -0.04943651 -0.0651944 -0.09971826
0.05760345 0.015353006 -0.046201393 0.031534694 0.05939371 0.06472777 -0.045535598 0.07183737
0.0497711 0.040082183 0.0062609124 -0.0026755084 0.058014873 -0.03965312 -0.027451614 0.037867967
-0.046437066 -0.057675038 -0.009634438 0.016347796 0.010760326 0.002038244 -0.000756712 -0.043895822
0.0043961373 0.04956953 -0.06820774 0.025409779 -0.010980167 -0.07698087 0.10957216 -0.0416018
-0.081663445 0.0045746947 0.06329468 0.07994054 0.0034635875 -0.013073624 0.024284126 0.14344966
0.047857683 -0.09673796 0.03428855 0.040660597 0.041719597 0.03497906 0.062804565 -0.009163379
-0.03204673 0.07278081 -0.057270486 0.04790857 -0.00687954 -0.017228166 0.051934637 0.040701896
-0.049739074 0.016337482 0.024846299 -0.022824477 -0.013636667 -0.046275035 0.06964834 -0.014102853
0.064523086 0.025189819 0.09678542 0.017863842 -0.020060372 0.05864677 -0.017971052 -0.04305614
-0.0046556904 0.0044528074 0.019854186 0.005991287 -0.056509923 -0.02883302 0.11488599 0.06839211
-0.0447384 -0.049757514 0.087363206 -0.028246578 0.03671316 -0.053579383 0.035918675 -0.07395709
0.07277859 0.07076872 -0.05061606 0.055304077 0.05171035 -0.04307487 -0.075384215 0.10293675
0.027951133 -0.009680706 -0.03728069 0.011240868 0.008412549 0.013112912 -0.037619665 0.020632342
0.023413291 0.112173766 0.025235923 0.02297957 0.10319026 -0.027072903 -0.003607577 -0.025183706
0.09051449 0.011242827 -0.0045690495 -0.036237724 -0.03336456 0.024345517 -0.0038728665 -0.057214785
-0.02945216 0.0062957443 -0.008781089 -0.07001478 -0.024594652 -0.14182864 -0.0012637887 -0.008328704
0.04719687 0.06978024 0.0075262845 -0.07737113 -0.07627924 0.062261175 0.0752953 0.07484394
0.0064384877 0.034521602 0.050395645 -0.07034855 -0.030332994 -0.020289065 -0.057858586 -0.047021557
0.020242054 0.064075686 -0.04062967 -0.08176398 0.038033113 -0.13408595 -0.032789286 -0.026444076
0.027965356 -0.003629766 -0.00044099637 -0.012324525 0.0041719787 -0.074438155 0.0052898116 -0.03448602
-0.035275664 -0.014152987 0.010364947 -0.028828822 0.020202732 -0.11898523 -0.021736221 0.0048294845
-0.03482446 -0.04654508 -0.044065084 0.0035317086 0.0041989735 -0.039524686 -0.025861334 -0.08592966
0.082835376 -0.07563889 -0.02021399 -0.011636699 0.0012457493 0.008640322 0.0085986825 -0.0051349765
-0.02351829 0.06504087 0.06721927 -0.041809708 -0.060446013 0.042145036 -0.06423896 -0.092963435
-0.10785166 -0.031292986 0.050888058 0.019491108 -0.12114155 0.027852697 0.017128311 -0.01489441
-0.12398568 0.012215337 0.052802525 0.08957589 -0.07321616 -0.027297266 -0.07181243 -0.004182567
0.028764626 0.025103442 -0.0056112893 -0.003334847 0.02906393 -0.010768105 -0.034472443 -0.02199602
0.019593414 -0.062527895 0.009405607 -0.0013226176 -0.054710794 0.0035330493 -0.04027854 -0.041530326
0.057934195 0.008512916 -0.10735832 0.0018625332 0.0061623994 0.0018255395 -0.035295293 0.034718066
-0.055450197 0.03250067 -0.063584976 0.07532711 0.05630189 0.0515945 0.05638505 0.067304656
-0.062514044 0.0034203317 -0.022688339 0.0055426527 -0.019040216 -0.06465397 0.034033157 0.032459337

action_model._discrete_distribution.branches.0.bias f4 [2]
00000000: b78b b03d a28b b0bd
0.086203985 -0.08620383

action_model._discrete_distribution.branches.0.weight f4 [2, 128]
00000000: 46ed 4cbc 1083 4abd eab3 533c 75e9 813d
00000010: fb1a 4a3d 1246 ccbd a402 85bd b9dd 9abd
00000020: eadf 89bd 387a 08bd 3ca9 bbbd b96a a43d
00000030: 4bb9 17bc a638 1c3d 8e81 8cbc 8774 32bc
00000040: 9c6f 81be 55cd 9539 cd08 0cbd c8d4 40bd
00000050: 0b16 c3bc 7d94 003e 63f5 d73d 4a2b 5fbd
00000060: 5c4e c6bc c310 843c 670c 2bbe 7028 88bd
00000070: 45c0 7cbd 784b 01bc 52d1 26bd ff97 0eba
00000080: 2256 913d 05c4 8dbc 483f f13d aa87 8bbd
00000090: f447 22bd 50e9 8fbd 7757 433d 81d3 823b
000000a0: 394b 3c3d b00d 83bd 0036 ddbd bf2d f9bd
000000b0: d193 c93d 5843 7bbd aa97 c2bd 49c4 2b3e
000000c0: d209 bfbd f393 613d bd49 573d e621 cebb
000000d0: 9097 a43c 4b10 69bd 6e02 28bd 6064 333c
000000e0: 9624 abbd 4adc 24be ca22 fd3c ceed aabd
000000f0: d0cd a3bd 03c4 013e cb5e a13d 4fa3 073e
00000100: 6d54 9cbd 22a9 773c 7b58 20be 4f14 483d
00000110: 6074 d3bd 3088 0abe 9fa6 42bc 4460 aebc
00000120: 4603 323d f903 19be bf0f 043e 9061 45be
00000130: 6909 bd3d 2e34 ff3c c235 1b3c 2560 f6bc
00000140: be8b ad3c b6a1 353e b83e 73bd 3d41 8b3d
00000150: 51cc 0f3e 8afe 42bd 2b60 e83d ff3e 3e3d
00000160: 8b08 323e e8c5 23bc 90ba 49bc 91c1 7bbe
00000170: 934f c23c 56fb 363d d82a febd df26 b3bd
00000180: c17d 893d 9523 5abd 4e9e a23d 4137 59bd
00000190: 4a0e a33d 7778 2b3d 5d64 97bd a3e4 ae3d
000001a0: 188d 763e d04f 453c e93e 5fbd 7511 7abd
000001b0: 4b33 023e fe81 18be 7626 233d c0cc 27be
000001c0: dbee 61bb 1671 acbd 59cb 10be a4f6 05be
000001d0: c7c4 7abd 341b b43d 68b7 0a3e 4940 f33d
000001e0: 2f2b 2bbe 1671 84be f9b5 e4bc 27cd dd3d
000001f0: 8925 07be 0c89 72be c299 b8bd 0494 03be
00000200: 1d7a 3d3c 308d 363d a321 65bd 35e1 87bd
00000210: 8b46 4ebd d190 c73d 7fc3 933d 4225 823d
00000220: 4374 8e3d a54b 203d cc29 a33d d6c4 62bd
00000230: d100 c83b bdea 1dbd 6a01 3e3d 97a8 39bb
00000240: 8fe3 6e3e fe23 513b cc34 af3c 2a67 8f3d
00000250: 7883 093d 3fed 05be f068 e4bd 0c20 733d
00000260: 3352 b03c 5e8b ecbc 551f 333e ee6c 883d
00000270: 3704 8e3d 0244 3e3c 6f84 443d 85c6 9b3b
00000280: aef2 99bd a8a1 7e3c 9a9a 04be 71c3 4f3d
00000290: 0c5f 143d 4403 573d 17a9 43bd ecba aabc
000002a0: 8ffb 0abd 3832 9b3d 7ae9 f03d 9b71 f43d
000002b0: 7e68 b4bd 6a4d 733d 6e4d 863d 0100 2abe
000002c0: e222 b43d a440 7bbd 1ff9 76bd b528 4d3c
000002d0: 69b7 0cbd b209 643d 9222 eb3c 1612 a13b
000002e0: bd99 cb3d c319 0a3e 84d8 5ebd d1eb ba3d
000002f0: 9785 aa3d 4f4c 17be 81b9 a5bd 5aae 15be
00000300: dbe2 af3d 96a0 d93b dcb4 103e b89f 5abd
00000310: f86e cb3d 119b 053e 22cd 553c 0bac 133d
00000320: be1a 28bd 3437 2e3e 842e f1bd b2b5 423e
00000330: b0a8 82bd bb6d b6bc e276 9ebb 2ce1 ea3c
00000340: 0234 2dbd 00be 49be 7937 873d a7c9 99bd
00000350: c54b 1cbe b804 4c3d b36a e6bd d0cc 74bd
00000360: 1351 35be 65cb eb3c 770b 1f3d cef8 6e3e
00000370: 9e83 fbbb 4086 70bd 8d8b f53d 24b9 9f3d
00000380: 13d1 81bd 6952 643d 38b3 8bbd a6d8 623d
00000390: 363e cbbd 07cf 46bd d6e1 b13d 8d12 94bd
000003a0: 32ab 72be 1069 18bc 1f1c 703d d22b d13c
000003b0: 4e17 edbd bb60 0a3e 83b7 01bd 3cfa 123e
000003c0: d75d bd3c 84a4 913d b6bb 0c3e a0ae 213e
000003d0: a0e0 8a3d 06a9 acbd a265 24be ed27 01be
000003e0: 021f 2e3e 3c0b 853e b085 143d 5a13 c7bd
000003f0: 235a de3d 2b92 723e 9fdf cf3d 4aa0 123e
-0.012507742 -0.049441397 0.012921313 0.063433565 0.049342137 -0.09974302 -0.06494644 -0.075618215
-0.06732161 -0.033319682 -0.09163138 0.08028168 -0.009260486 0.03813996 -0.01715162 -0.01089204
-0.25280464 0.0002857248 -0.03418808 -0.047077924 -0.023814222 0.12556644 0.10544851 -0.054484643
-0.024207287 0.016121274 -0.1670395 -0.06648338 -0.0617068 -0.007891528 -0.040726967 -0.00054395193
0.07096507 -0.017305383 0.11779648 -0.06812985 -0.0396194 -0.07026923 0.047690835 0.0039924984
0.045970175 -0.06399095 -0.10801315 -0.121669285 0.09842647 -0.06134352 -0.09501584 0.16774096
-0.09328045 0.055072736 0.052560557 -0.006290662 0.020091802 -0.056900304 -0.041017942 0.010949224
-0.083565876 -0.16099659 0.030900378 -0.08346139 -0.0799824 0.12672429 0.078794084 0.13245891
-0.076332904 0.015116008 -0.15658753 0.048847493 -0.10324931 -0.13528514 -0.011880546 -0.021286137
0.043460153 -0.14942922 0.12896632 -0.19275498 0.092303105 0.03115281 0.009473266 -0.030075142
0.021184798 0.17737469 -0.059385985 0.067995526 0.14042784 -0.04760603 0.113464676 0.046446797
0.17386071 -0.009995915 -0.012312546 -0.24585558 0.023719585 0.044673286 -0.124105155 -0.087476484
0.06713439 -0.05325659 0.079403505 -0.05303121 0.0796171 0.04186293 -0.0739219 0.08539703
0.2407726 0.012042955 -0.054503355 -0.061051805 0.12714879 -0.14893338 0.0398316 -0.163867
-0.0034474644 -0.08420007 -0.14140071 -0.13082367 -0.061222818 0.08794251 0.13546526 0.11877496
-0.16715692 -0.25867528 -0.027918803 0.10830145 -0.13197912 -0.23685092 -0.09013702 -0.12849432
0.011564759 0.04456824 -0.05594028 -0.06634752 -0.050360244 0.097444184 0.07215022 0.063547626
0.06955769 0.03913464 0.079669565 -0.0553635 0.006103613 -0.038553942 0.046388067 -0.0028329247
0.23328994 0.0031912322 0.02138748 0.07002099 0.033572644 -0.13078783 -0.11152828 0.059356734
0.02152357 -0.02887505 0.17492421 0.06661402 0.06934398 0.011612894 0.04797786 0.00475389
-0.075169906 0.015541472 -0.12949601 0.050723497 0.036223456 0.05249335 -0.04776868 -0.020841084
-0.03393131 0.07577938 0.11763282 0.11935731 -0.08808993 0.0594 0.06557737 -0.16601564
0.08795716 -0.061340943 -0.060296174 0.012521912 -0.0343546 0.05567331 0.028703008 0.004915486
0.099414326 0.1348639 -0.054405704 0.0912701 0.083262615 -0.14775203 -0.08092023 -0.14617291
0.08588191 0.006641458 0.14131492 -0.053374976 0.09933275 0.13047434 0.013049396 0.036052745
-0.04104113 0.17013246 -0.1177645 0.19014624 -0.06379831 -0.02226912 -0.0048359493 0.028671823
-0.042285927 -0.19701385 0.066023774 -0.07509165 -0.15263279 0.049809188 -0.1125082 -0.059765637
-0.17706709 0.02878351 0.038829293 0.23337099 -0.007675602 -0.05872178 0.11989508 0.07798985
-0.06338706 0.055742655 -0.06821293 0.055382393 -0.09923975 -0.04853728 0.08685653 -0.07230101
-0.23698118 -0.009302393 0.05862057 0.02553359 -0.11576711 0.13513462 -0.03166915 0.1435327
0.023116035 0.07111457 0.13743481 0.1578927 0.06781125 -0.08430676 -0.16054395 -0.12612887
0.17004016 0.25985134 0.036260307 -0.09720488 0.10857036 0.23688571 0.10150074 0.14318958

network_body._body_endoder.seq_layers.0.bias f4 [128]
00000000: 6127 e6bd d132 22be fc12 b9bd bcc6 2cbd
00000010: b80c dabd fb71 053d 917b ddbd 46e7 fbbc
00000020: bdf3 84bd fbd9 05be 9df4 58be ffb9 5b3d
00000030: 5cb6 40bd 8d73 84bd 89a2 1d3d 8b7e 8abd
00000040: 2c16 56bd 0522 2cbc 6426 443d fa40 bc3c
00000050: 256e 74bd 8fbd 30be a9ec 00be 5911 4e3c
00000060: 031a a73c 954b 1fbc 3a47 7cbd c4a4 9ebd
00000070: 9b4e d73b e3aa 2b3d 5676 8abd 72f7 c7bd
00000080: c09d 43be 4aa1 53bd fbb8 133d d55d 633d
00000090: 6d3e 843c 3849 fe3d 84e8 bbbd d0b7 64bd
000000a0: 2e9d b0bc 0742 323d 7739 efbd 9abb 98bc
000000b0: 475a 07be 549f c7bc 59af 1dbc ae2f ebbc
000000c0: 47b0 473c 0770 f13b 2901 2bbe 033a bebd
000000d0: e4b6 72bd 769d b4bc 6200 02bd 1689 2f3d
000000e0: dc7e 18be 55e6 9d3d d520 fbbd 0659 04be
000000f0: dc60 4abe 89bd 683c f102 0fbe 27ff 37be
00000100: 4881 11be ad1c 1e3d b8d3 c33d 7e49 3abd
00000110: 1e60 a9bc 406c a53c ff2c 98bd a864 43bd
00000120: b609 aa3c cf03 4fbe 939c 8ebd ac47 d1bb
00000130: 9046 d4bc c48f ef3c d1d9 f1bd 3685 6ebd
00000140: bf5e 783d f7a3 35bd 28c6 a3bd f4e8 3abe
00000150: 79fb afbd 9aa6 abbd e76b dabd 3214 b1bd
00000160: e8af 33bd 5377 7ebb ed11 ac3c 97c3 abbd
00000170: 9bbb 01be 6edd 33be 53f9 043d 35e5 6c3c
00000180: bcb0 d73d 7e0c edbd c5e7 29be 06bf a5bd
00000190: 4ff5 36be 08a8 01be 1e83 8cbc ab55 1ebd
000001a0: 2fd2 97bd 5c25 22bd b089 c6bd 73cd 0cbe
000001b0: 7590 ebbc 8841 fcbd 0000 99bc 84eb 12be
000001c0: 4f6e 1d3c b1d9 afbd 77e3 7e3c f6e1 9bbd
000001d0: cb52 dabd f433 eabd 56e4 473d 78ba a4bd
000001e0: 8c58 1fbe 13ec 87bd 2b34 04be 540e 883b
000001f0: bd04 8bbd a19f fcbc 05b2 f3ba 67bb 03bc
-0.1123798 -0.15839697 -0.09036824 -0.042181715 -0.10646957 0.032579403 -0.10814584 -0.030749928
-0.06491802 -0.13071434 -0.21187063 0.053644177 -0.04704891 -0.06467352 0.038485084 -0.067624174
-0.05226724 -0.010506158 0.047888175 0.022980202 -0.059675355 -0.17259811 -0.12590279 0.012577378
0.020398146 -0.00972261 -0.061591364 -0.0774627 0.00657065 0.041911017 -0.06760852 -0.09763993
-0.19103146 -0.05166749 0.036065083 0.055509407 0.016143048 0.12416309 -0.09175208 -0.05583936
-0.021559324 0.04352 -0.116808824 -0.018644143 -0.13218032 -0.024367966 -0.009624326 -0.028709259
0.012188024 0.007368091 -0.16699661 -0.092884086 -0.05925645 -0.02204774 -0.031738646 0.042855345
-0.14892143 0.07709948 -0.122621216 -0.12924585 -0.19763511 0.014205345 -0.13965966 -0.17968427
-0.14209473 0.038601566 0.095618665 -0.045480244 -0.020675715 0.02019322 -0.07430457 -0.047703415
0.020756584 -0.20216297 -0.06963458 -0.006386718 -0.025912553 0.029243357 -0.11809123 -0.05823251
0.060637232 -0.044345822 -0.0799678 -0.18252927 -0.085928865 -0.08381386 -0.10665112 -0.0864643
-0.04386893 -0.0038828447 0.021004641 -0.08386915 -0.12669222 -0.17564937 0.032464337 0.014458944
0.10531756 -0.11574648 -0.1659232 -0.080930755 -0.17867015 -0.12661755 -0.017152365 -0.038655918
-0.07413136 -0.03958641 -0.096942306 -0.13750248 -0.028755406 -0.123171866 -0.018676758 -0.14347655
0.009608819 -0.08586443 0.0155571615 -0.07611458 -0.10660323 -0.114356905 0.048801742 -0.080433786
-0.15561122 -0.066368245 -0.12910526 0.0041520987 -0.06788013 -0.030837836 -0.0018592483 -0.008040286

network_body._body_endoder.seq_layers.0.weight f4 [128, 17]
00000000: 7b53 00be 4ab8 543e 273c 413d fa9e b5bd
00000010: 649f 13be 15e8 33be 3a99 b83c 5143 c03b
00000020: 1638 88be 7cab 44be 24e9 96be 8c3d 84be
00000030: d616 c33d c700 e8bd 9538 803e 144c ebbd
00000040: d0e7 ad3e 211d 24be 28cf 57bd 3132 dcbd
00000050: 4e87 993d 818a f73d dbc6 ea3d 7360 023e
00000060: 31b4 13be c65a d93d 448f db3e f998 ddbe
00000070: 4c27 0ebd 2c08 66be d585 173e 1508 263b
00000080: dcb1 ed3d bd31 ab3e 9b16 403e c7ae f2be
00000090: b237 9e3e 8e74 16be 47e3 bdbe 8aad de3c
000000a0: 771f 3a3d cb2d dcbd f2cc dd3c daa0 a9be
000000b0: 28f6 1ebe 0a7c b1be 6f0c 83be b13d 01be
000000c0: beee 3dbe 3eb0 cd3d 2b3d eb3d 4e32 3b3e
000000d0: 4bfd fcbd 38fe 7f3e 2037 afbe f3cf a9bd
000000e0: 5496 163b d464 44be d6f4 90be aece 4fbe
000000f0: 01e9 da3d adf4 88bd d491 3bbe 2913 e73e
00000100: 2dfa 1cbe b4df 0e3e 91b6 f9bc ea2b 433e
00000110: c298 b0bd 4ca0 7a3e 24d7 4ebe 792f 303e
00000120: ad11 14bd 0aba 9ebd d346 c83c 77f6 16bf
00000130: b9f2 9bbe f6d8 c23d 796a eabe 00f3 853e
00000140: 3a6f 26be 45a7 043d d7c0 aabe e4c6 15be
00000150: 3dd8 c6be ad4f 30be 302f 38be 5c57 9dbe
00000160: a1d6 c93e 3d86 12be 42d6 9bbe 456c fb3d
00000170: 9855 89be 5e58 9cbd 83ca 153d 4917 893e
00000180: af13 0e3f 5f04 cfbe 7ff3 2abe 35c5 2b3e
00000190: 1db0 763e 75ab c03d 3de7 043e 2a00 b4bd
000001a0: 2bd7 77bd 142b e63d 4f68 aebe 2108 1b3e
000001b0: af6a 5b3d 32a9 283c cac0 ce3d c372 863e
000001c0: d1ca 8ebe 44e0 0bbe 1a1a 3d3d 50fc 20bf
000001d0: 02d9 cf3e 966a d0be ddb0 813d 6a4d 7e3e
000001e0: 9c5e 373e f19e 4b3e e9db ffbd ae15 e3be
000001f0: 4e55 943e 2f5c e23d bd31 39be 4fea 8c3e
00000200: 67c4 003c cf65 6c3d fc0a cc3d cee8 1fbe
00000210: 1e54 8ebe 640f 353e f8cb e7be 8581 9b3e
00000220: 9321 fd3d e078 06bc 0ced 47be 38c2 b73e
00000230: 6d54 4b3e 131e 063e 5a69 dbb9 ecb0 0d3e
00000240: 29f0 ddbe 211b f7bd a60e d1bd 704a 55be
00000250: 879e c33d ca2e 6a3e 3006 a63e d183 803e
00000260: 8e5a 3fbe 22a2 59be ffa8 bebd 32a4 a5be
00000270: 0234 a1bd af60 dcbe dee9 3d3d 9aca 0ebe
00000280: f2ae 6cbe b815 f9be 499e f9bb 324b f2bd
00000290: cef4 463e 41d3 693e 4bcf 09be 281e a23d
000002a0: 5828 ef3e a1b1 2e3e cfb9 a63d 9a74 81be
000002b0: e796 24be 96cb a33e 0f87 8bbe bff9 553d
000002c0: eaa2 26be 19f1 d5be e81f b43e 7227 a6be
000002d0: bf6e ef3d 3886 72be cabf 203e 666d 0dbe
000002e0: 499c 1d3e a7fc febd 5475 cabc fd26 0abf
000002f0: 047b 95bd abe9 153e 93bd 9fbe 0218 343e
00000300: 54bf 8d3c 4321 293e 6a75 b6be 3eae 823e
00000310: 47ba 6ebe 37d0 90be 85ea 0e3e f304 d03c
00000320: 59a9 31be 89b1 8c3e 058f e1bd ffc9 cf3e
00000330: 2b29 843e d4e1 b13d 1bf4 12be fcbe ab3c
00000340: f5d1 a5be 4fad f7bd fd22 69be e908 a7be
00000350: 61f5 623d 7f31 a0bc 2676 863e 53ff c339
00000360: b05e 003f 4b97 66bc 41f6 343e eac6 b4bc
00000370: 84de 94be 4cf4 e43d 9445 60be 958a 913d
00000380: 33e1 073e d432 ee3d 4a18 c33e 6327 ad3d
00000390: b8af 9a3e 293f a0bd 4d62 c7bd 8cdf b13c
000003a0: eaf4 18be defb b9bd 96e1 dabb e4d9 963b
000003b0: 2b23 0c3e 4fbd 073f 2ed0 873d 7cee 6ebe
000003c0: 607f 843d 4e8a bdbd 87b8 afbe 7a51 d83d
000003d0: 3f27 433e 4894 b63d a874 0a3c 5532 ba3e
000003e0: 4544 8b3d 12ca 0c3e 0097 aa3e 3ab7 bb3e
000003f0: 75e8 e73e eaa5 a9be 4f86 cc3e 37e6 303e
-0.12531845 0.20773426 0.047176506 -0.08868213 -0.14416271 -0.17569001 0.022534002 0.0058673997
-0.2660529 -0.19206041 -0.29474747 -0.25828207 0.0952584 -0.11328273 0.2504317 -0.1148912
0.3396592 -0.16026737 -0.052687794 -0.10751761 0.074965104 0.120869644 0.1146371 0.12732105
-0.14424206 0.10613017 0.4288274 -0.4328077 -0.034705445 -0.22464055 0.14797147 0.0025334407
0.116061896 0.33436385 0.18758623 -0.4739897 0.30901867 -0.146929 -0.3708746 0.02718236
0.045440163 -0.10750922 0.027075265 -0.33130533 -0.15523589 -0.34664947 -0.25595424 -0.1262119
-0.18548104 0.10043381 0.11486276 0.18280908 -0.12352999 0.2499932 -0.34221745 -0.08291616
0.0022977786 -0.19179088 -0.28311795 -0.20293686 0.10688973 -0.06687293 -0.18317348 0.45131806
-0.1532981 0.13952523 -0.030482562 0.1905972 -0.08622886 0.24475211 -0.20199257 0.1720561
-0.03614967 -0.07750328 0.024447834 -0.58969826 -0.3045862 0.09514038 -0.45784357 0.26161957
-0.16253367 0.032386083 -0.3335025 -0.14626652 -0.38836852 -0.17217894 -0.1798675 -0.30730712
0.3942156 -0.1430902 -0.30436903 0.1227651 -0.26823115 -0.07634042 0.036570083 0.26775578
0.55498785 -0.40433022 -0.16694449 0.16774447 0.2409062 0.09407703 0.12978835 -0.08789094
-0.060507935 0.11238685 -0.34063956 0.1513982 0.05356854 0.010294246 0.10095365 0.2625943
-0.27889112 -0.1365977 0.04616747 -0.62885 0.4059525 -0.4070632 0.06332562 0.24834219
0.17907184 0.1988485 -0.124931164 -0.44352478 0.28971332 0.11052739 -0.1808538 0.27522513
0.007859326 0.05771428 0.099630326 -0.15616152 -0.2779855 0.17681652 -0.45272803 0.30372253
0.123599194 -0.00820753 -0.1952402 0.35890365 0.19856425 0.1309741 -0.00041849428 0.13837022
-0.4334729 -0.12065721 -0.10207872 -0.20829177 0.09551721 0.22869411 0.32426596 0.25100568
-0.18686888 -0.21253255 -0.09309577 -0.32351834 -0.07871248 -0.43042514 0.04636561 -0.13944474
-0.23113611 -0.48649383 -0.007617746 -0.118307486 0.19429323 0.22834493 -0.13457982 0.07915908
0.46710467 0.17059948 0.08140909 -0.25284272 -0.1607319 0.3199126 -0.2725148 0.05224013
-0.16273084 -0.41785505 0.35180593 -0.3245197 0.11691045 -0.23684013 0.15698162 -0.13811263
0.1539165 -0.12450533 -0.02471415 -0.5396574 -0.07298854 0.14639919 -0.3119932 0.17587283
0.017303146 0.16516595 -0.35636455 0.2552356 -0.23313247 -0.28283855 0.1395665 0.025392985
-0.17349757 0.274792 -0.11013607 0.40583798 0.2581266 0.086856514 -0.14350931 0.020965092
-0.32386747 -0.12093603 -0.22767253 -0.32623985 0.055409793 -0.019554852 0.26262015 0.0003738353
0.5014448 -0.014074157 0.17672063 -0.022067506 -0.29076016 0.111794084 -0.21901542 0.071065105
0.132695 0.116307884 0.3810447 0.08454778 0.30212188 -0.07824547 -0.09735546 0.02171304
-0.14937177 -0.09081243 -0.006679724 0.0046036113 0.1368529 0.53023237 0.06631504 -0.23333162
0.06469607 -0.09254895 -0.3432047 0.105624154 0.1905794 0.08915001 0.008450665 0.36366525
0.06800131 0.13748959 0.3331833 0.36663228 0.45294538 -0.33134395 0.3994622 0.1727532

network_body._body_endoder.seq_layers.2.bias f4 [128]
00000000: d362 14bd 89b2 5ebd 2027 bcbd 4ca6 0ebe
00000010: 5e4b 5dbd 59b1 25bd 0c98 69bd d5d7 13be
00000020: 9999 e2bd bf69 63bc 3859 d3bd 7610 e0bc
00000030: 8ba7 20be 2b22 d0bd c746 803c 3d7e c5bb
00000040: fd1f afbd ca98 0dbe 9fa4 0cbe 69d4 b4bd
00000050: ddbd a0bd 8ae4 5fbd cc55 a5bd 5621 e8bd
00000060: 8e30 93bd 302e b5bd a7d6 52bd c81b 49bd
00000070: 205f 9fbd e9fe dabd a360 81bd ea22 54bd
00000080: 20ca babd e9e1 24bd b7db f13c cbb9 86bd
00000090: 4506 ebbd 91da 98bd 20f4 8cbd 436f 45bd
000000a0: 725f c8bc 3a94 69be 6d7a babd b5d1 a4bd
000000b0: 97ff 1dbd 25e3 56bd 604a cebd 1739 4ebd
000000c0: 31d5 d6bd b0fa e2bc 52d2 cabd b29e c5bd
000000d0: 9758 2bbe 83b1 3dbe 2c71 40bc 5cd5 8dbd
000000e0: fef5 5abd 7d0e cdbd 2dec 58bd d647 d8bd
000000f0: 51c7 57be 5372 6bbd 9aa9 88bd fb8d d5bd
00000100: 9350 b5bd 62fd 27be 3a3c f0bc 0d03 a3bd
00000110: 2212 b7bd 37f2 87bd ac8a a1bd 314a f5bd
00000120: debd 4cbd 09aa 90bc ba87 84bd 13ba 9dbc
00000130: 07f4 0fbe 2eff 7cbd 6b30 87be bc68 55bd
00000140: 13a9 39bd 0bbf 9b3a 5a66 20be e778 14bd
00000150: 8391 8ebd ca81 57be a876 ef3c 6efe 13be
00000160: e49e 18bd 4717 22be 5631 09be 4d09 b4bc
00000170: 828d 1dbe 3a0e 0cbd 926e 89bd 2b5d acbd
00000180: 6f30 bcbd a4fa 6fbd bc4f 62bd 1fcf e3bd
00000190: 0907 f4bb c6fc a1bd c574 debd dcbc eebb
000001a0: 01bb 963d bd66 3bbe 895b 18bd 4413 06be
000001b0: 9a1e 833b 2090 00bd 5ed7 b7bd 44dc 00bd
000001c0: 3301 f4bd 89b3 d9bc cae2 b8bd 2d4a 7dbc
000001d0: 3aa5 adbd 51f0 03be 4cf4 37bd d037 debc
000001e0: a51e a23c 1c40 59bd 47c4 1cbe 366a 4dbd
000001f0: bf3d 1bbe cb45 bdbd 030e edbc e244 ae3c
-0.03622706 -0.054369483 -0.0918715 -0.13930625 -0.054026954 -0.040452335 -0.05702977 -0.14437802
-0.11064453 -0.013880192 -0.103197515 -0.0273516 -0.15688913 -0.10162767 0.01565875 -0.0060270117
-0.08551023 -0.13827816 -0.13734673 -0.088295765 -0.078487135 -0.05466131 -0.08073005 -0.11334483
-0.071869954 -0.088467 -0.05147424 -0.04909876 -0.077818155 -0.106931515 -0.0631726 -0.05179111
-0.091205835 -0.040254507 0.029523714 -0.06578406 -0.11475805 -0.07463563 -0.06882501 -0.04820181
-0.024459574 -0.2281045 -0.09105382 -0.08047811 -0.038573828 -0.052462716 -0.1007278 -0.050347414
-0.10489882 -0.027707428 -0.09903397 -0.09649409 -0.16733013 -0.18524747 -0.011745732 -0.06925461
-0.053457253 -0.10012529 -0.05295961 -0.105605766 -0.21072127 -0.057482075 -0.06672974 -0.10427471
-0.08853259 -0.16405252 -0.029325593 -0.07959566 -0.089390054 -0.06637996 -0.07887778 -0.119770415
-0.04998576 -0.017659204 -0.064712 -0.019253766 -0.14057933 -0.061766796 -0.26404127 -0.052101836
-0.045327257 0.0011882497 -0.15664044 -0.036248114 -0.06961348 -0.21045604 0.029231384 -0.14452526
-0.037260905 -0.15829192 -0.13397726 -0.021977091 -0.15386012 -0.034193255 -0.06710543 -0.08416208
-0.091889255 -0.05858864 -0.055251822 -0.111234896 -0.0074471277 -0.07909541 -0.10862116 -0.0072856974
0.07359887 -0.1830091 -0.03719667 -0.13093287 0.0040014507 -0.03138745 -0.08976625 -0.03146006
-0.11914291 -0.026574867 -0.090276316 -0.015459579 -0.0847878 -0.12884642 -0.044910714 -0.027126223
0.019790003 -0.053039655 -0.15309249 -0.05015012 -0.15160273 -0.092418276 -0.028937345 0.02127308

network_body._body_endoder.seq_layers.2.weight f4 [128, 128]
00000000: 6371 7dbd e48f edbd 0ab1 f2bb c551 85bd
00000010: 4828 04be 14cc 26be 7174 1fbe 7dcd 8cbd
00000020: 0815 12be b7ea 583d 0b68 df3c e0f3 4fbe
00000030: 68b8 edbd e9c2 eeb8 d3e4 e03c 5aaf 10bc
00000040: 5b76 213d e99e 843d 181f b8bd fea0 aebd
00000050: 84b5 ffbd 7abb 873d d7d1 3abe 620c a93c
00000060: 9e7a 13be d9f6 a43d cbc4 81bd 4229 023e
00000070: 6f73 86be b39c e4bc 7069 90bd f23c b1be
00000080: e804 4dbd e607 b3bd 9af2 aebb 12f8 243e
00000090: 45da dabd 22d5 34be 7183 76be 2520 17be
000000a0: b632 4cbd 00dd a63d ffea 79be ed22 6d3d
000000b0: ef2f 2bbe 9b69 98be afaa 86bd ae41 683d
000000c0: 9f68 05ba c0a8 80bd ce4f 113d 9bea 2abe
000000d0: 4266 8ebe d62a 8d3d bd72 0a3e a12a e53d
000000e0: 9d7f 403e 3e30 1abe 8a52 4bbc 06b1 3bbe
000000f0: c6cc 9abd 98d7 1cbe 43d1 683e d391 2fbd
00000100: 6f9f a5bd 84db 88be ae38 f23d f12d 20bd
00000110: da18 2a3c d071 d9bd a252 13be b104 7ebb
00000120: deef 60bd a183 253d 2666 8f3a 98ae d6bc
00000130: 1dfe 43bc c0a4 a63d b90f d8bd 9bc0 643d
00000140: 371e 3fbe d92a 33be 4177 aa3d 6421 143e
00000150: 1283 08bd cd7c 053e 9430 8b3c 22e4 97bc
00000160: 049c 88bd 5f35 e5bd b38c 20be 030b 28be
00000170: 440c cebd f6db 03be a269 423d 99ad 62bd
00000180: 7a82 52bd 2b4a 393e aa55 e0bd c677 a13c
00000190: 11aa 88bd 8cca 973d 569a fa3b e3c9 07be
000001a0: 1ae1 e83d 052a f7bc f09d 9cbb cb1b 3cbd
000001b0: 7294 52be c1eb 863d f48f 033d 80a7 51be
000001c0: 9c0a 20be a4e9 1a3d e86c 71bd 4bb1 5dbe
000001d0: dff0 2cbd 3e7c 58bd 6cdb c73c e29b b93d
000001e0: 7630 0c3c 9441 a33d c81e 35be fb55 51be
000001f0: 34a3 043e d99a 22be 9dda b93d 4586 03be
00000200: e82b b3bd d816 62be 6f17 7d3d 8c15 3ebe
00000210: 5d20 2bbe 8e94 afbe 5cf8 963d 25a7 64be
00000220: 69a6 b7bc 42ac ec3c 74a1 bf3d 87e3 803e
00000230: 6e3c 8dbc 5a9f c5bd 16d1 4fbd 0b9b 363d
00000240: 6163 b33c 97e4 cebc 80fe b1be 0033 41be
00000250: 60cb 0fba 2852 903d db39 0dbc 5f1d 0fbe
00000260: 5bc5 2c3e f52c debc 241d 1bbe 5860 92bc
00000270: 9edd 05bc 810f d53a 7ef0 b8bd 7111 c8bd
00000280: 5294 a23d 02cf c9bd 47e6 a73d dec8 5fbd
00000290: 008a a739 209f 62be ca29 0c3c ad62 ddbd
000002a0: 5890 033e 2f5f 733e 06a8 eebd 56ef 25bc
000002b0: 8ae7 bf3d fd8a f73c dfc9 ec3d 0f95 efbd
000002c0: b63e ac3d ffa6 11bd d531 823d b637 37bd
000002d0: e4f6 32be 6270 f23d 8756 babd b02b 67be
000002e0: 1a34 a43d da0f 41be baa5 de3b a5b6 acbd
000002f0: 6498 49be e6af acbd c251 913d 66aa 7dbe
00000300: c12f 12bb 5c83 5bbd acb3 11be 5936 423e
00000310: 9c4b 03be 8e21 9abd d8c2 ccbd 9ab2 063e
00000320: b1e1 2f3c 66b6 7abe 40bc 973a 56f1 a73d
00000330: d3ad 883c 3f37 72be b6fe 1abe 6424 27bd
00000340: 8a5a 14be dfa1 703c 4bac d0bd 909b 2b3e
00000350: 4787 88bc dc3a 8ebb 0fea e13d 2a0e cfbe
00000360: 08b4 9f3d 2a17 43be 725c 023d 73ee 49be
00000370: f0b9 45be 36a4 e2bc 10b8 94bd 6a2e 063c
00000380: 163e ecbb c082 30be 39bf 283e 0732 09be
00000390: d353 ae3c 28ae 85be 294e 453d b29f 95be
000003a0: 0bb0 be3c d51f 0e3c 60d5 e33c 46f4 4dbd
000003b0: 8011 0abd 6585 00be a817 643e 0378 123c
000003c0: 18b6 08be 6b95 14be 24a4 aabe 93b2 b93d
000003d0: 15f6 22bd 8b80 a63d d926 783d 9686 bbbd
000003e0: 08e5 ba3d 8943 bcbd 0989 c2bd bde1 433b
000003f0: 9c70 41bb 9a76 e3bc e5f9 04be 2755 503d
-0.061875712 -0.115997106 -0.0074063586 -0.06509737 -0.12905991 -0.16288787 -0.15571763 -0.06875131
-0.14265835 0.052958217 0.027271291 -0.20307875 -0.11607438 -0.00011385029 0.027452862 -0.00883087
0.039419513 0.06475622 -0.08990306 -0.085268006 -0.12485793 0.06627555 -0.1824411 0.020635787
-0.14402243 0.08054895 -0.063363634 0.12711051 -0.26259944 -0.027906751 -0.070513606 -0.3461681
-0.050053507 -0.08741741 -0.005338979 0.16110256 -0.10686163 -0.17659429 -0.24073578 -0.14758356
-0.04985305 0.08147621 -0.2440605 0.057894636 -0.16717504 -0.2976807 -0.06575524 0.056703262
-0.0005089137 -0.062821865 0.0354765 -0.16691057 -0.27812392 0.06892936 0.13520332 0.111897714
0.1879868 -0.15057465 -0.012409816 -0.18329248 -0.07558589 -0.15316617 0.22736077 -0.04286368
-0.0808705 -0.26729977 0.11827217 -0.039106313 0.010381902 -0.10617411 -0.1438699 -0.003876012
-0.054916255 0.040408734 0.0010940477 -0.0262063 -0.011962441 0.08136892 -0.10549874 0.055847745
-0.1866387 -0.17496814 0.08323527 0.14465863 -0.033328123 0.13035889 0.016990937 -0.0185414
-0.066703826 -0.1119182 -0.15678672 -0.1641045 -0.10060933 -0.12876877 0.04746402 -0.055341337
-0.051393963 0.18094699 -0.10953839 0.019710433 -0.066730626 0.074116796 0.007647793 -0.13260607
0.1137106 -0.030171404 -0.00477957 -0.045924943 -0.2056444 0.06587935 0.032119706 -0.20474052
-0.15629047 0.037820473 -0.05894175 -0.21649663 -0.0422219 -0.05285286 0.02439662 0.090629354
0.008556476 0.079714924 -0.17687523 -0.20442955 0.12952882 -0.15879382 0.090749 -0.12844189
-0.08748609 -0.22079027 0.061789926 -0.18562907 -0.16711564 -0.34293026 0.073715895 -0.22329386
-0.022418218 0.028890733 0.093569666 0.2517359 -0.01724073 -0.096495345 -0.05073651 0.044581454
0.021897973 -0.025255485 -0.3476448 -0.18867111 -0.00054853223 0.0704692 -0.008619751 -0.13976048
0.1687216 -0.027121047 -0.15147835 -0.017868206 -0.008170513 0.0016255231 -0.09030245 -0.09768952
0.07938446 -0.09853937 0.08198219 -0.05463492 0.0003195554 -0.22131014 0.008554885 -0.108098365
0.12848032 0.23766778 -0.11653142 -0.010127863 0.093703344 0.030217642 0.11561941 -0.116983525
0.08410399 -0.03555965 0.06357161 -0.044730864 -0.17476994 0.118378416 -0.09098535 -0.22575259
0.0801775 -0.18853703 0.0067946585 -0.08433274 -0.19687039 -0.084319875 0.07095672 -0.24772033
-0.0022306296 -0.05359207 -0.14228696 0.18966044 -0.12821811 -0.07525931 -0.09998101 0.13154069
0.010734961 -0.24483642 0.0011576489 0.08200328 0.016684448 -0.23653887 -0.15136227 -0.04080619
-0.14487663 0.014687031 -0.10189112 0.16758561 -0.016666068 -0.0043405127 0.11030971 -0.40440494
0.0779801 -0.19051805 0.031826444 -0.19719867 -0.19309211 -0.027666193 -0.0726167 0.008189777
-0.0072095497 -0.17237377 0.16479196 -0.1339799 0.021280205 -0.26109433 0.048170242 -0.292234
0.023277303 0.008674582 0.027811706 -0.050281785 -0.033708096 -0.12550886 0.22274649 0.008939746
-0.13350713 -0.14510123 -0.33328354 0.090672635 -0.039785463 0.081299864 0.060583923 -0.091565296
0.091257155 -0.09192569 -0.09498794 0.002988919 -0.0029516583 -0.027766515 -0.12985952 0.050862458
