RollerAgent/Assets/Learn/RollerAgent_13.onnx (onnx, 81045 bytes, 9 tensors)

action_model._continuous_distribution.log_sigma f4 [1, 3]
000000 ed 47 36 bf 7c 18 11 bf 24 44 32 bf
       -0.712035 -0.56677985 -0.69635224

action_model._continuous_distribution.mu.bias f4 [3]
000000 29 eb 2c 3d d0 32 01 3c 41 65 36 3c
       0.042216454 0.00788565 0.011132539

action_model._continuous_distribution.mu.weight f4 [3, 128]
000000 1b 8b 07 bc e3 a0 a0 3c 02 db a1 3c ca 44 9a bc
       -0.008272911 0.019607967 0.019757751 -0.01883163
000010 a9 a5 26 bc 10 2d 06 3d 4f 00 8a bc 8a b0 8c bc
       -0.010171332 0.03275782 -0.01684585 -0.017174024
000020 8b 19 89 3c 22 f4 41 3d 02 2d 0c bd 85 ed a8 3b
       0.016735813 0.047351964 -0.03422261 0.0051552677
000030 65 66 6d bc 69 3e 45 3c e4 5f 85 bd 67 c3 8c 3d
       -0.014489745 0.0120388055 -0.0651243 0.068732075
000040 e6 ee bd bc d6 78 f6 3c c2 04 d0 3c 00 b7 b6 3b
       -0.023185205 0.030086916 0.025392894 0.0055760145
000050 ad 6e a7 bd 85 5d 65 3d 6d 58 98 3c 88 68 42 3d
       -0.081754066 0.05599739 0.018596852 0.04746297
000060 d5 bb 02 3c 6f 54 d5 bd 26 92 1c bc 2e a4 01 3d
       0.007979353 -0.10416495 -0.009556329 0.031650715
000070 c9 f7 a5 bd 19 14 e6 bc ff 27 dc bd e0 34 94 3b
       -0.08103902 -0.028085755 -0.10749816 0.0045229048
000080 6f 38 4f 3d bb ab d2 3c 2d c6 1a bd 3c 1b fd 3c
       0.05059093 0.025716653 -0.03778665 0.030896775
000090 63 a7 7a 3d 27 26 6b bd d3 a2 dd bc a6 59 6b ba
       0.06119479 -0.05740943 -0.02705518 -0.0008977897
0000a0 83 b9 95 3c 99 0b aa 3b 32 37 04 bd be b1 03 3c
       0.018276935 0.005189371 -0.0322792 0.0080379825
0000b0 39 5a 64 bc 19 0e f6 bc 42 0e a6 bc 11 1d 09 bd
       -0.013937526 -0.03003602 -0.02027047 -0.033474986
0000c0 a3 70 1f bd 1c 93 cb bc e0 f2 95 bd 1a 3a b1 3c
       -0.038925778 -0.02485042 -0.07321715 0.02163415
0000d0 b4 94 0a 3d 4a 21 ef bc e7 9e 14 3b 85 2d 14 bd
       0.03383322 -0.029190678 0.002267772 -0.036176223
0000e0 91 ca 2a 3c b8 c6 b3 bd 00 44 fe 3c 78 69 47 bd
       0.010424272 -0.08778137 0.031038284 -0.048684567
0000f0 ae 80 e3 bc 4a d8 e8 bc 31 29 b7 bc 84 d3 b0 bd
       -0.02777132 -0.028423447 -0.022358509 -0.086340934
000100 52 fc 16 3d 7b 8b 5f bd a7 fa 1c bd 76 3f 02 3d
       0.036861725 -0.05457638 -0.03832498 0.031798802
000110 b0 43 4b bd f9 72 13 bc 88 9d 12 3d fa 16 e1 bc
       -0.0496251 -0.00899958 0.035794765 -0.027476776
000120 ab 18 84 3c c6 3d 4f 3d 43 0e 83 bc bc 24 1b 3d
       0.016125044 0.05059602 -0.015998011 0.03787683
000130 c8 1c 82 bd 63 2c 15 bd cf 8c 16 3d 8e 7a d2 3c
       -0.06353146 -0.036419284 0.03675538 0.025693204
000140 9a 65 e6 bc 80 0c fb 3c 08 0f 97 3c 04 11 0a bd
       -0.02812462 0.030645609 0.018439785 -0.033707634
000150 4e da 80 ba c4 0a 9e bb 8c df dd bb 06 8c b8 bc
       -0.0009830685 -0.0048230607 -0.0067710336 -0.022527706
000160 8d 21 d0 3b 4f 82 af bb 57 e2 66 bd ed 53 0b 3d
       0.006351656 -0.00535611 -0.0563682 0.034015585
000170 83 23 08 3d fc 9c 8e bd c7 66 8f 3c c3 b3 01 bb
       0.03323699 -0.06963536 0.017505063 -0.0019790984
000180 9c ed 5b bc c7 31 33 bd d9 d1 6c bc 56 d3 19 3d
       -0.01342335 -0.043748643 -0.014454328 0.03755506
000190 8c 86 ee 3c 5a 4e 8c 37 d0 8d 26 bc e8 2f ae bc
       0.029116891 1.6725786e-05 -0.010165647 -0.021263078
0001a0 9b 18 2e 3c 60 a1 15 3c 89 4f a0 bb 59 e3 dd 3c
       0.010625984 0.009132713 -0.004892294 0.027085947
0001b0 27 da 9d 3d 31 28 66 3d 06 c3 99 3c ee fa c2 3b
       0.07707625 0.056190673 0.018769752 0.0059503233
0001c0 5e 6c 12 bc ce b6 31 3b db e9 4e bd 13 52 cf bc
       -0.00893697 0.0027117017 -0.05051599 -0.02530769
0001d0 7a 7a 0b 3d 2e db ea bc 1e 0f 0f 3d 7d b8 16 3d
       0.03405235 -0.028668966 0.034926526 0.036797035
0001e0 db 12 4a bc 27 b1 7a bd 06 b4 be 3c a0 7e 4e bd
       -0.012333597 -0.061204102 0.023279201 -0.050413728
0001f0 f2 f5 59 bc da b0 55 3d f7 0d a6 3c 38 ce d3 bc
       -0.013303267 0.052170612 0.02027033 -0.025855169
000200 0f 4e 9e 3d 04 60 3d 3b df 26 0d bd 43 66 ed bc
       0.07729732 0.002889634 -0.0344609 -0.028979426
000210 96 d7 c4 b8 57 be 18 bd db 2c c5 3c 00 bc 79 3b
       -9.386164e-05 -0.037290897 0.02406924 0.0038106441
000220 5e 0b ed bc 4d 4a 7e 3d b3 07 0e 3c 72 40 4f 3d
       -0.028936084 0.062082577 0.008668828 0.05059857
000230 b2 55 0f 3c 9d 44 2e bd ae 5c cd bc 03 e1 17 3d
       0.008748459 -0.042545903 -0.025068607 0.037079822
000240 24 f0 2c bd a9 50 87 bb be 18 6c bb ea 17 d3 bb
       -0.042221203 -0.0041294885 -0.003602549 -0.0064420598
000250 02 ae 89 3d 10 6a eb 3c 0d be 21 bd c5 e3 81 bc
       0.067226425 0.028737098 -0.039487887 -0.01585568
000260 76 22 49 bd 6d b3 2b 3d 3c 0e b2 bc 36 bf 98 3c
       -0.04910513 0.04191916 -0.021735303 0.018645864
000270 5a da 2a 3c 71 34 c5 bb ba 69 14 3d 7f db 80 3d
       0.010428036 -0.0060182144 0.03623364 0.062918656
000280 c1 60 b9 bc 8c 2a 3e bc 20 ee 1d bd a7 9e 46 bc
       -0.022629144 -0.011606824 -0.03855717 -0.012122787
000290 10 65 45 bd 32 68 d9 bb 9b dd b8 3c ff 0c 8c 3c
       -0.048192084 -0.0066347355 0.022566607 0.01709604
0002a0 e9 35 a5 3d d5 93 22 bd e9 68 b4 3c c3 f3 62 ba
       0.08066923 -0.039691765 0.022022681 -0.0008657539
0002b0 80 14 6e bc 62 c2 dc bb bd 2a 29 3d e3 82 a1 bc
       -0.014531255 -0.0067370394 0.041300524 -0.019715732
0002c0 f5 25 30 bb 3f 5e b7 3c cf 8d d0 bc 74 d1 28 bd
       -0.0026878093 0.022383807 -0.025458245 -0.041215375
0002d0 86 3c 00 bd a4 18 1c bd 84 67 cd 3c b1 41 c2 bc
       -0.03130772 -0.038109437 0.025073774 -0.023712965
0002e0 30 e5 fe 3b 0f b6 38 bc 7f fe f5 bc 72 df 62 bd
       0.007778786 -0.011273875 -0.03002858 -0.055388875
0002f0 aa 08 35 3c 02 e7 6c 3d 4f f1 cd 3d 30 ec a6 bd
       0.011049429 0.057837494 0.100557916 -0.08150518
000300 cc 1c 4a bd d0 80 99 3d 30 e6 2f bd 77 d7 41 3d
       -0.04934387 0.07495272 -0.042944133 0.047324624
000310 99 bb 0b bd be e7 b5 bc 97 b5 26 3d da f5 8e 3b
       -0.034114454 -0.02220523 0.04070052 0.004362804
000320 ba 4a 42 bd d9 ed 98 bd 32 99 a3 bd 65 88 2b bb
       -0.047434546 -0.07467241 -0.07988204 -0.0026173827
000330 f4 7e 69 bc 39 91 7f 3d fe 7c cc bc da 07 a0 bc
       -0.014251459 0.062394354 -0.024961945 -0.019534994
000340 f2 fc ea 3c 39 1f 6e 3d 47 3f 22 3c 53 9f c9 3c
       0.028685067 0.058135245 0.009902782 0.024612105
000350 12 56 f1 3b 2e 49 f1 bc 08 33 49 bc 88 5b ff bc
       0.0073649967 -0.02945384 -0.012280233 -0.031171575
000360 c1 71 72 3d 50 32 48 bd 43 fd 88 bc 1c 6c 9a bd
       0.059190515 -0.048876107 -0.016722327 -0.075401515
000370 54 7c 36 3c 1f 56 e7 bc 8f fc 3d 3b 31 84 ce bc
       0.011138041 -0.028239308 0.0028989648 -0.025209518
000380 43 e6 a0 3d a4 bb 46 bc fe 3d b3 bc 34 64 c0 bc
       0.07856419 -0.012129698 -0.021880146 -0.02348528
000390 93 2a d3 3c b9 4d 40 3d b6 df 97 3d 0e bc 23 bd
       0.025777137 0.046949122 0.07415716 -0.039974265
0003a0 e9 9f 29 bd 89 cc 54 3d 6a e3 67 bc 72 47 13 3d
       -0.041412268 0.051952872 -0.014153341 0.035956807
0003b0 5e 7c fe bb b1 5b 9e 3c f2 67 a8 3c db a4 ef 3b
       -0.0077662906 0.019330831 0.020557377 0.0073133535
0003c0 48 62 36 3d c9 a8 9c bd 98 17 0c 3d a6 61 2f bd
       0.044527322 -0.07649381 0.03420219 -0.042817734
0003d0 56 48 5f bd dc b0 f2 3c d3 dd f4 3c e3 6a 94 3d
       -0.054512344 0.029625349 0.02989093 0.072469495
0003e0 d5 49 c4 bc 8a e7 4e bd 7e 2f 3c bc 2a cc c5 bc
       -0.023960987 -0.05051378 -0.011485932 -0.024145205
0003f0 d0 c6 0f bd e7 1b e7 3c a8 90 c1 3c ba 06 cb 3c
       -0.03510171 0.028211547 0.023628548 0.02478348

action_model._discrete_distribution.branches.0.bias f4 [2]
000000 0a 8a 28 bd 1b 8a 28 3d
       -0.04114727 0.041147333

action_model._discrete_distribution.branches.0.weight f4 [2, 128]
000000 9a 2d 1b bd b2 23 5d bd 49 11 68 3c 7e c7 8d bd
       -0.037885286 -0.05398912 0.014164277 -0.06922816
000010 ef af 12 bd 88 bd b4 3d a4 f5 ce 3c c2 11 1f bc
       -0.035812315 0.08825213 0.025263615 -0.009708824
000020 eb 38 5b 3d 88 74 13 3d 32 db f8 bd ca 84 ed bc
       0.053521078 0.035999805 -0.12151183 -0.028993983
000030 1a eb 3b bc c7 73 e1 bc 2c 48 16 3d c9 d5 a1 3c
       -0.011469627 -0.027521027 0.036689922 0.019755261
000040 d1 08 8d bd 21 42 c2 bc 30 27 22 3e 51 99 8d 3c
       -0.06886447 -0.023713173 0.15835261 0.017285021
000050 46 65 71 3d 32 42 1f 3d fc ee ad bd e4 1b c8 3d
       0.058934473 0.03888149 -0.08492848 0.09770945
000060 f0 e9 36 3d 31 2c db 3d c5 c9 70 3b 35 5b 04 be
       0.044656694 0.10701788 0.0036741358 -0.12925418
000070 ab 39 28 be a0 35 5a bc 17 97 57 bc 94 16 41 3d
       -0.16428249 -0.013318449 -0.013158581 0.047140673
000080 dd 16 b1 bd ee 3e 68 bd 6f be 2a 3d c6 bf 5d 3b
       -0.08646939 -0.05670064 0.041685518 0.003383623
000090 d9 c5 65 3d 97 c0 22 3c 96 e2 ee bc c7 fa c5 bd
       0.056096885 0.009933612 -0.029160779 -0.096669726
0000a0 6c ac b4 3d b8 07 35 bd ee 51 26 3d 82 52 1f bd
       0.08821949 -0.044196814 0.040605478 -0.038897045
0000b0 8d 84 85 3d da 68 4f bd 62 c6 09 be 58 51 b3 3c
       0.06519423 -0.050637104 -0.13454583 0.021889374
0000c0 42 65 30 3e 6b 8a ac bd 42 91 14 bd 25 d9 e6 3d
       0.17226127 -0.08424839 -0.03627134 0.11271886
0000d0 51 74 e5 3d f4 21 76 bd 26 fb 83 bc a5 69 59 3c
       0.11203826 -0.060090974 -0.016110968 0.0132698165
0000e0 6e 4b 92 bd c6 40 f6 bc 7e c5 5a bd 20 73 1b 3e
       -0.07143293 -0.030060183 -0.053411 0.15180635
0000f0 5d ae 35 3e 31 4a cd bb c2 c6 80 bd 92 2b 9d 3d
       0.17742296 -0.006264948 -0.0628791 0.07674326
000100 5d e8 d3 bd b8 8a 2d 3c ab f5 b9 bd 87 f2 60 3d
       -0.10347054 0.010592155 -0.090800606 0.054918792
000110 bd bf c0 bd 19 41 7e 3b 3e 4e 8b 3d 0f cb 04 3d
       -0.09411571 0.0038796125 0.06802033 0.032420214
000120 84 85 39 3d 20 32 8a bc 0f cb 89 bc 59 50 3c bd
       0.045293346 -0.016869605 -0.016820459 -0.045975063
000130 0c 2c ef 3c a9 91 b5 bc c5 f4 16 be ae 2d 87 3d
       0.029195808 -0.022164183 -0.1474181 0.066005096
000140 ec 0d 27 bd d7 6e 1d 3d 03 6e a5 bd a6 33 36 3d
       -0.04078476 0.038435783 -0.08077624 0.04448285
000150 12 46 b9 bd 98 ea a2 3c 56 76 8d 3d 28 fc bc bd
       -0.09046568 0.019887254 0.069073364 -0.092277825
000160 67 cd c9 3c f9 0c 19 3d 86 c4 48 3d 4b 45 8d 3c
       0.024634076 0.037365887 0.049015544 0.017244956
000170 1a fe 0f bd 88 a2 e1 3c 99 26 11 3e 8a fa fa 3c
       -0.03515444 0.027543321 0.1417488 0.030637044
000180 cc 5e 69 bc 5b 81 af 3d 8e 66 82 3d 1b 01 1a 3d
       -0.014243793 0.085695945 0.06367217 0.03759871
000190 5d db fe 3d a1 dd 11 3d 2c 91 62 3c a7 64 30 bc
       0.12444184 0.035611752 0.013828557 -0.010766185
0001a0 89 cf 67 bd 6f 7c 2d 3d 4d dc f7 bd 5c 27 82 bd
       -0.056594405 0.042354997 -0.12102566 -0.063551635
0001b0 32 97 f6 3b fb d0 44 bc a5 c6 8c bb 0b b6 b8 bc
       0.007525348 -0.012012715 -0.004296141 -0.022547742
0001c0 5a 15 97 bd a2 63 33 bc 55 7f 76 3d b7 f0 1f be
       -0.07377119 -0.010949047 0.060180027 -0.15619169
0001d0 97 96 07 be a1 a5 f7 bd ea 11 79 3d b8 e7 36 3b
       -0.13241039 -0.12092138 0.0608081 0.0027909111
0001e0 5f a6 61 3d 84 62 bd bc f2 cf d8 bd ef 04 2e 3d
       0.055090304 -0.023118265 -0.105865374 0.042485174
0001f0 3b f2 0e 3d 6c f9 9e bd 1c 02 a7 3d 36 dd 41 3c
       0.034898978 -0.07762417 0.08154699 0.011832526
000200 31 03 4e 3d a1 df 9d 3d 54 05 8d bc 8f 5d 6a 3d
       0.050296012 0.077086695 -0.017214455 0.05721813
000210 7f 23 ca 3c ec 91 c1 bd db 75 08 bd 65 a4 1a 3d
       0.024675129 -0.094516605 -0.03331552 0.037754435
000220 4c 20 61 bd aa 53 bc bc 3c c6 0a 3e 6c ec 1c 3d
       -0.05496244 -0.022989113 0.13552183 0.038311407
000230 8f cd ea 3c 48 5a ba 3c 54 f8 fb bc d2 fb 18 bc
       0.028662471 0.022748128 -0.03075806 -0.009337382
000240 2a 72 98 3d d7 6a 00 3d b2 c8 2e be 1b 10 93 bc
       0.0744365 0.03135189 -0.17068747 -0.017952016
000250 84 88 80 bd 6a a7 60 bd a2 6f 9e 3d 8e 0a c4 bd
       -0.06276038 -0.05484716 0.07736136 -0.09572326
000260 d1 90 81 bd f7 08 b1 bd 94 81 96 3c aa 99 05 3e
       -0.0632645 -0.08644288 0.018372335 0.130469
000270 c7 94 1c 3e 01 07 68 3c 13 21 52 3c 3c 0d 11 bd
       0.15291129 0.014161826 0.012825268 -0.035413012
000280 f9 5b 95 3d 63 e9 8b 3d 4b d4 7d bd 04 52 df ba
       0.07292933 0.06831624 -0.061970036 -0.0017037992
000290 27 79 22 bd 6b 0b 19 bc ff 26 1d 3d 4d 1d b2 3d
       -0.03966632 -0.009341101 0.038367268 0.08696995
0002a0 f2 76 bd bd 7e 5e 24 3d 29 94 08 bd 71 53 19 3d
       -0.09251203 0.040129177 -0.03334442 0.03743309
0002b0 98 b3 94 bd 07 d1 5c 3d 95 94 06 3e ba e9 ce bc
       -0.07260817 0.05391028 0.13142617 -0.025257934
0002c0 ed 23 0d be 3e 53 c3 3d 22 0a 0a 3d a4 b8 fa bd
       -0.13783236 0.095373616 0.03370107 -0.12242249
0002d0 9d c7 c2 bd 93 e1 56 3d 18 c2 7a 3c df 06 bc 3b
       -0.095107295 0.052461218 0.015305065 0.005738124
0002e0 e0 7a 92 3d 18 2c 63 3c e9 a1 0f 3d ad 42 15 be
       0.07152343 0.013865493 0.03506652 -0.14576216
0002f0 d6 f1 1e be c1 49 d2 3b 27 11 a2 3d 2f 79 a0 bd
       -0.1552194 0.0064174836 0.07913428 -0.07835614
000300 8d f8 b5 3d 42 71 8e bb b0 58 b4 3d 7e 15 64 bd
       0.08885298 -0.0043469975 0.08805978 -0.05568456
000310 cb 51 cf 3d a2 c3 f6 ba 1f 5a b3 bd 0a f0 15 bd
       0.10123023 -0.0018826614 -0.087574236 -0.036605872
000320 e4 35 9c bd 0f b4 14 3c b1 87 49 3c b8 43 3e 3d
       -0.07627466 0.009076132 0.012300418 0.0464513
000330 53 da 2b bc 42 0b 80 3c 75 ed 24 3e c9 09 5e bd
       -0.010489064 0.015630368 0.16106208 -0.05420855
000340 76 51 af 3c aa 57 22 bd 94 e4 b9 3d b2 23 27 bd
       0.021401148 -0.039634384 0.09076801 -0.040805526
000350 43 43 d1 3d a8 fb c9 bc d6 78 6f bd 12 b6 eb 3d
       0.10217907 -0.024656132 -0.058464848 0.115093365
000360 db f1 87 bb 09 27 46 bd ca fa 68 bd 53 f0 c6 bc
       -0.0041487045 -0.04837707 -0.056879796 -0.024284517
000370 3a 29 70 3d 9b c2 fb bc a8 01 03 be 05 d8 02 bd
       0.058633067 -0.030732444 -0.127936 -0.031944294
000380 b9 b8 cc 3c 88 fe a0 bd 44 f9 81 bd 65 90 5a bd
       0.024990426 -0.07861048 -0.06346372 -0.05336036
000390 c5 82 0a be ac da 87 bd 31 1e 94 bc 58 f1 c6 3b
       -0.13526447 -0.06633505 -0.018080803 0.006071251
0003a0 85 c0 88 3d 6c be 5d bd 36 09 02 3e eb d0 a8 3d
       0.06677345 -0.05413668 0.12698826 0.08242973
0003b0 68 94 a0 ba a6 39 e9 3c 2c 0e f5 3b 67 2a cb 3c
       -0.001225126 0.028469872 0.007478496 0.024800492
0003c0 73 12 97 3d 3f 6e 0a 3c e2 b6 39 bd 6d 8d 20 3e
       0.07376566 0.008449136 -0.045340426 0.1567895
0003d0 93 64 e2 3d bf af c5 3d 73 c2 75 bd 48 67 03 bd
       0.11054339 0.096526615 -0.059999894 -0.03208092
0003e0 08 c8 5a bd 73 f0 37 3c 26 5b e2 3d e4 13 c4 bc
       -0.05341342 0.011226761 0.110525414 -0.023935266
0003f0 78 48 4d bd 36 12 d7 3d 93 3c 97 bd ad e9 27 bd
       -0.05011794 0.1050152 -0.073846005 -0.040994335

network_body._body_endoder.seq_layers.0.bias f4 [128]
000000 79 16 ce bc 4e b1 9a bd 3b af 9a 3c 67 6c 4f bc
       -0.0251572 -0.075533494 0.018882385 -0.0126601225
000010 57 46 bc bc f8 e8 00 be 11 0a 18 bd 40 31 78 bd
       -0.02298276 -0.1258887 -0.037118975 -0.060593843
000020 f9 7a 9f bd 75 d3 04 3a 6c ec 88 3a a2 ee 0c 3c
       -0.07787127 0.000506691 0.0010446436 0.008601816
000030 dd 08 9c bc 72 b4 cb bd 08 ae 6e bd c0 6a aa 3c
       -0.019047195 -0.099465266 -0.058271438 0.020802855
000040 ef 0b 6b 3d 5f 3e 91 bd 59 01 0e be 59 47 8a bd
       0.057384428 -0.070919745 -0.13867702 -0.0675189
000050 f2 4b 72 bd 1e da 09 bd 93 1e b5 bd 76 49 e3 bc
       -0.05915446 -0.03365528 -0.08843722 -0.02774499
000060 f1 b3 bc 3b d4 a7 aa bd 87 46 c5 bd 71 ad 61 bd
       0.0057587554 -0.08332792 -0.09632593 -0.055097047
000070 f6 5d 93 bd 92 49 ad 3b 49 24 69 bc b5 dd 5f bd
       -0.07195656 0.0052883113 -0.014229842 -0.054654796
000080 ca ed c1 bd 19 67 9e bd 1f 87 42 bd dc 24 8a 3c
       -0.09469183 -0.07734508 -0.047492143 0.016863279
000090 42 e2 ea bc 93 eb 38 3d 5f 71 e3 bd 0c 58 65 bd
       -0.028672341 0.045146536 -0.11105608 -0.05599217
0000a0 59 06 28 bc 5f bd b4 bd 26 4d cd bd a9 60 ab bb
       -0.01025542 -0.08825182 -0.100244805 -0.0052300286
0000b0 4c c3 0a bd 30 17 ba bc 09 60 04 be 5d 5c fb 3c
       -0.033877656 -0.022716135 -0.1292726 0.03068369
0000c0 a0 2f b6 bd 4f 81 ce bc a7 a3 18 bd a2 99 a6 3a
       -0.088958025 -0.025208144 -0.037265446 0.0012710581
0000d0 3a 3e 62 bc fe c0 b9 bd c0 8b 0b bd 45 0e 92 bd
       -0.013808781 -0.090700135 -0.034068823 -0.07131628
0000e0 79 44 7d bd 60 f6 84 3c 63 ef 1d 3c 0b b7 ff bc
       -0.06183288 0.016230762 0.009639594 -0.031215211
0000f0 cc 12 c1 bd ed ca 4d 3c df d5 89 bd 87 7b d0 bc
       -0.09427413 0.012560588 -0.06730246 -0.025449527
000100 f5 c7 a7 3b c3 f9 d0 bb 9e c5 17 3b 36 50 91 bd
       0.0051202723 -0.00637743 0.002315856 -0.07095377
000110 19 d4 db 3c e1 5b 1b bd 02 9d 10 bd 06 3a 21 bd
       0.026834534 -0.03792942 -0.035305984 -0.039361976
000120 f1 2e a9 bd 3d d3 3d bd 7e d9 a6 bd dc e6 d5 bd
       -0.082609065 -0.04634403 -0.08146952 -0.104444236
000130 ac 22 33 bc 53 fa 9b bb 36 0a 4d 3c 05 52 d6 bd
       -0.010933559 -0.0047600656 0.0125146415 -0.10464863
000140 b3 81 99 bd 86 99 8b bd 85 ad 67 bd 8e a2 b6 bd
       -0.07495441 -0.06816392 -0.056561965 -0.089177236
000150 ae 53 5b 3a f7 f7 2d be 23 c7 b6 3c f2 03 bd bd
       0.0008366656 -0.16989122 0.022311753 -0.09229268
000160 1d cf c5 bc 99 6a c7 bd bf e3 2f bd b9 41 a6 bd
       -0.02414661 -0.09737129 -0.042941805 -0.08118004
000170 66 d6 0d bd 6c 87 ba 3c be cc c5 bd ba 47 3d 3c
       -0.034628294 0.022769652 -0.09658192 0.0115527455
000180 c6 45 ce bd 41 3b 26 bc 3f 72 9d 3c ab c1 71 3d
       -0.10071902 -0.010145963 0.019219516 0.059022587
000190 34 99 6c 3c 48 84 de bd 37 c9 ff 3a f4 54 19 be
       0.014440823 -0.108650744 0.0019514923 -0.14973813
0001a0 02 7e e6 bd 45 78 71 3d 0b 19 b5 bd 00 24 8f bc
       -0.11254503 0.05895259 -0.08842667 -0.01747322
0001b0 c7 fd e5 bd a3 e5 3a bd 1c 1b c7 bc dc 01 2d bd
       -0.11230045 -0.045629155 -0.024304919 -0.0422381
0001c0 f3 47 1c bd ab ce a7 3c b6 ae 54 bd 28 e9 b3 bd
       -0.038154554 0.02048429 -0.05192443 -0.087847054
0001d0 95 d3 d3 bb 35 e6 91 3d 46 f9 2e bd d1 56 a2 bd
       -0.0064644315 0.07123987 -0.042718194 -0.07926715
0001e0 34 0f e4 bd 39 ed 71 bd 1d 3f 29 be 11 03 40 bd
       -0.11135712 -0.059064124 -0.16527982 -0.046877924
0001f0 a4 02 ef bc a9 3a 43 3c d8 b2 45 bc fa 40 9b 3d
       -0.029176064 0.011915841 -0.012066565 0.07580753

network_body._body_endoder.seq_layers.0.weight f4 [128, 17]
000000 77 c2 81 3e 10 3f 8a be 5a ae 38 3d 38 b3 ed 3d
       0.25343677 -0.27001238 0.04508815 0.11606449
000010 e4 d2 cc be d0 28 13 be c7 d4 cf be 91 5f b3 bd
       -0.40004647 -0.14371037 -0.40592024 -0.08758462
000020 8c 58 4e 3e f4 c4 cf 3d 40 6a 2f bf ce 7e 42 3e
       0.20150965 0.10144988 -0.685215 0.18993685
000030 71 a3 26 be 58 2e a7 3c 8d fe 3a 3f af fb 8f be
       -0.16273285 0.02040784 0.73044664 -0.28121707
000040 45 7e ec bd 1a 8b c7 be 36 34 aa be e7 d1 5a 3c
       -0.115475215 -0.38973314 -0.3324296 0.013355709
000050 79 d9 f1 3d 84 9a e6 bc 12 b6 9c bd 09 9d 02 3f
       0.11809058 -0.02814985 -0.07651915 0.51020867
000060 38 f7 3c bd 2d 25 81 bd 02 dd 21 3f 2d 0f 12 3d
       -0.046134204 -0.06305919 0.63227856 0.035659004
000070 85 51 c6 3c 03 9e 04 be 15 65 43 be e2 79 aa 3e
       0.024208793 -0.12950902 -0.19081528 0.33296114
000080 30 2c 5d 3e b5 61 5d bf 4d 85 16 be e5 ee 4d be
       0.21598887 -0.86477214 -0.14699288 -0.20110662
000090 10 3f 19 3d af 07 58 bd b8 46 a0 3d c4 66 0c bc
       0.037413657 -0.052741703 0.078259885 -0.008569423
0000a0 e3 fd 1b 3e 05 ff 47 be e9 5e 61 be 46 85 16 3e
       0.15233569 -0.19530876 -0.22008862 0.14699277
0000b0 f0 e6 8f bb 57 21 02 3c bb 9b f1 3d 3e 6a 0a bd
       -0.0043915436 0.007942519 0.11797281 -0.033792727
0000c0 bc a0 b4 bd 13 c4 66 bd 99 08 80 3e 84 09 51 be
       -0.0881972 -0.056339335 0.2500656 -0.20413786
0000d0 56 8e f0 3d db 25 51 bd cf 72 ae 3e ab e5 06 3e
       0.117458984 -0.051061492 0.34071967 0.13173549
0000e0 ca 7a 70 bd 39 08 33 be ad 20 8f 3e 26 58 18 be
       -0.05871085 -0.17483605 0.27954617 -0.14877376
0000f0 07 52 e0 3e 2a 7d 6d 3e 9d d6 c4 3d f6 ee c1 3d
       0.43812582 0.23192278 0.09611247 0.09469406
000100 19 ff 83 be 3f ac fd be f0 8e 64 3e c7 69 0c 3e
       -0.25780562 -0.49545476 0.22320151 0.13712226
000110 a5 d8 a5 bd 35 a6 b1 bd e5 66 60 3e e2 a0 2a be
       -0.08097962 -0.086742796 0.21914251 -0.16662934
000120 5f 5d a8 3e 8f b2 3a 3e 32 a9 b3 3e fd 93 b6 3e
       0.32883736 0.18232177 0.35090023 0.3565978
000130 30 33 95 3e b7 ca 0a be 30 01 42 3d b5 07 85 3e
       0.29140615 -0.13553892 0.047364414 0.25982442
000140 d7 cb 2e be 9f f1 87 be 7f d7 2c 3e dd 9b aa 3e
       -0.17069946 -0.2655153 0.1687908 0.3332204
000150 58 82 97 be a6 c0 78 be ae 8f a9 be 11 cb 2b bd
       -0.29591632 -0.2429224 -0.3311743 -0.041941706
000160 b4 53 f2 3e 70 58 8c be df 43 de 3e 60 6c 2e be
       0.47329485 -0.27411222 0.43411157 -0.1703353
000170 34 e3 41 be f4 71 fe 3a a4 e6 93 3e 40 f2 3d be
       -0.18934327 0.0019412623 0.28886902 -0.18549442
000180 38 46 9d 3e 7a 5d f4 be 6c 2b 96 bd 78 28 1a 3e
       0.30717635 -0.47727567 -0.07332501 0.150545
000190 4f 47 30 3e 5b 02 5a be 18 e7 12 3e 80 b8 eb 3d
       0.17214702 -0.21289961 0.14345968 0.115098
0001a0 51 01 36 be 07 df d4 3e 3e 27 62 3e 64 9d 23 3e
       -0.1777394 0.41576406 0.22085282 0.15978009
0001b0 37 02 e8 bd 0a 55 b7 3d 68 38 73 3e 1d 95 52 3e
       -0.113285474 0.08951767 0.23751986 0.20564695
0001c0 ef 70 a4 bd a2 9c 73 be 0a 6a c4 be 2d 9a 39 3e
       -0.08029353 -0.2379022 -0.3836215 0.1812522
0001d0 38 bd 3e bd be 8a e3 3d 88 ac 3a be 3c 94 dd be
       -0.04656717 0.11110447 -0.18229878 -0.43277156
0001e0 23 ba d7 3d b8 38 87 bd 8c d0 79 3d 02 ab c8 3e
       0.1053355 -0.06602615 0.0609899 0.3919297
0001f0 63 de 8d 3d 87 ca a8 3d 4a 6e 08 be 03 1b 7c bd
       0.069271825 0.08241754 -0.13323322 -0.061549198
000200 9c ac a9 3d 04 91 c8 3e 3c 1b 3d be 1a d0 0f be
       0.08284876 0.39173138 -0.1846742 -0.14044228
000210 e4 1b c5 3d d3 99 b8 3a 41 f4 aa 3e d2 73 55 3e
       0.0962446 0.0014083929 0.33389476 0.20844963
000220 75 23 07 bd f9 53 a6 3e 0c 25 1c be 2a 86 46 3c
       -0.0329928 0.3248594 -0.15248507 0.012116948
000230 38 5b 3c 3d 40 15 d6 3d 0f 6a 06 be 69 09 e8 3e
       0.04598543 0.10453272 -0.13126396 0.4531968
000240 a9 4a 4c be cd b7 58 3e f6 1c 22 be 16 a8 fe bd
       -0.19950356 0.21163864 -0.1583136 -0.124344036
000250 05 c9 90 be d0 54 24 3e 3b ad 29 be c7 91 03 be
       -0.28278366 0.16047978 -0.16569988 -0.12848578
000260 fd 3d ed 3e 6c 75 40 bd d6 54 e7 3e 3c 9a ef bd
       0.46336356 -0.046986982 0.45181912 -0.1169934
000270 a7 78 dc bd 24 08 12 be d7 01 e7 3e bc 87 50 be
       -0.107652 -0.14260918 0.4511859 -0.20364279
000280 53 bf a8 3d 02 2b 22 bd 55 64 25 3e 5f 97 74 bc
       0.08239617 -0.039591797 0.16151555 -0.014928668
000290 e9 10 72 3d 5a 3d f2 3c 0e 57 a6 3d e6 5f 91 be
       0.059098158 0.02957027 0.08122073 -0.28393477
0002a0 a1 7e 9c 3e 72 65 e5 bc 77 af 59 3e 7a 7d 54 be
       0.3056536 -0.028002474 0.21258341 -0.2075099
0002b0 9e 01 30 3e 16 1c e0 be 92 68 98 3e fd 56 59 3e
       0.17188117 -0.43771428 0.2976728 0.2122459
0002c0 64 d8 3b be 55 18 30 be 64 a2 7e be 38 45 db bd
       -0.18344265 -0.17196782 -0.24866635 -0.10706562
0002d0 ba bd dc 3e b8 39 6c 3d 59 b3 33 3c 60 a6 1e 3e
       0.431135 0.057672232 0.010968053 0.15493155
0002e0 0d bd 30 3e 69 1a 92 3e 6e b1 d2 bd a0 19 68 3e
       0.17259617 0.28535774 -0.10287748 0.22666025
0002f0 f6 d2 b0 bd c2 e8 5b be 69 6a 02 be f3 e3 aa bc
       -0.086339876 -0.21475509 -0.12735905 -0.020860648
000300 7b 77 7c 3e 4b ee 8e 3d df c1 68 3c f5 b6 82 3c
       0.24654953 0.069790445 0.014206379 0.015956381
000310 e9 12 b5 bd fb 49 59 bc e0 a1 aa bc 77 e6 95 bd
       -0.088414975 -0.013262267 -0.020829141 -0.07319348
000320 a9 fb 30 3e a4 c1 4f be 2a 9d bf 3e fa da f9 3e
       0.172835 -0.20288712 0.37424594 0.48799878
000330 1a aa 7b 3d 4e 1e c8 3d 46 80 5e bd 3b 5d 25 be
       0.06144152 0.09771405 -0.05432155 -0.16148846
000340 35 7b 70 3e 14 52 63 be 81 5b 80 3e 27 81 75 bc
       0.234845 -0.22199279 0.25069812 -0.014984406
000350 2c 40 64 bc e4 7c b0 be 73 c4 ac 3c 73 0d 9c 3e
       -0.013931315 -0.34470284 0.021089768 0.3047901
000360 b6 4b 14 3e d0 3d bb 3d 5f 77 f4 3d 1f 26 f2 3e
       0.14482006 0.09142649 0.11936831 0.4729471
000370 c9 8b 80 be 4f 8f 56 bd 13 d0 53 be 1a 9f ca bd
       -0.25106648 -0.052382763 -0.20684843 -0.098936275
000380 7f fd fb bc dc bf 67 be ec cc 18 be 39 33 3e 3e
       -0.030760525 -0.22631782 -0.14921921 0.18574227
000390 04 93 75 be 0f b2 38 3e 02 4d aa 3e 35 f9 06 3e
       -0.23981863 0.18036674 0.33261877 0.13181002
0003a0 a7 67 00 be 53 e6 85 bc e9 23 1c 3d c4 41 25 bd
       -0.1253954 -0.016345179 0.038120184 -0.040345922
0003b0 cc 7a 9f 3e 2f 65 61 be c7 59 db bd 77 5e 9b 3e
       0.31148374 -0.22011255 -0.10710483 0.30345508
0003c0 80 a4 81 be c1 b7 c0 bd 18 d1 e3 3e f5 c5 88 3d
       -0.25320816 -0.09410048 0.44495463 0.06678382
0003d0 7a ef 94 3d 10 15 28 3e 97 2b 79 3e 8d fd 33 3d
       0.07272239 0.16414285 0.24333034 0.043942977
0003e0 6e b6 bd bd 2b 9a 8d be 43 4c 36 be ed 7a 10 be
       -0.09263311 -0.27656683 -0.17802529 -0.14109392
0003f0 1b c5 06 be 8e c6 97 be ad 69 cd 3c 64 fc a9 3c
       -0.13161127 -0.29643673 0.025074804 0.020750232

network_body._body_endoder.seq_layers.2.bias f4 [128]
000000 e6 01 53 bd 2e 35 8f 3c 34 45 49 bd 16 36 90 bd
       -0.051515482 0.017481413 -0.049138263 -0.07041566
000010 39 7c 8d bd 7e 4c 3b bc 28 25 a9 bd 7e 3f 14 bd
       -0.06908459 -0.011431811 -0.0825904 -0.036193363
000020 ed 24 ce bc 81 5c 68 bd 87 ed 9e bd 59 aa ac bc
       -0.025164092 -0.056728844 -0.077601485 -0.021077322
000030 26 1a 08 be fa e4 09 bd fe 63 c9 bd c3 70 d5 bd
       -0.13291225 -0.033665635 -0.09833525 -0.10421898
000040 59 a0 54 bc a5 1a a8 bd d7 c4 da bc ba 2e 5e bd
       -0.012977683 -0.08208207 -0.026705189 -0.05424378
000050 29 22 24 bd 7a 95 fd bc f1 57 2b bd de a6 f0 3b
       -0.04007164 -0.030955065 -0.041831914 0.007344111
000060 72 88 67 bd 79 8a d9 bd 5f 34 62 bc b2 85 44 bd
       -0.05652661 -0.10622115 -0.013806432 -0.047979064
000070 5e ba 02 bc af 41 c5 bd 83 81 82 bd 09 ba aa bd
       -0.007979004 -0.09631669 -0.06372359 -0.08336265
000080 bc cf 0e bb dc 1f 33 bd fe 0f a4 bd b2 b3 cc bd
       -0.00217913 -0.043731555 -0.08010863 -0.09995212
000090 80 5d 1a bd 24 c6 01 bd 8a e7 b6 bd e1 be aa bd
       -0.037686825 -0.031683102 -0.08930881 -0.083371885
0000a0 65 27 8a 3b cc de 37 bd 56 87 76 bd 41 b7 4e bd
       0.004216122 -0.04489021 -0.06018766 -0.050467733
0000b0 f4 79 59 bd 54 82 8d bd 25 4a 5e bd af 78 88 bc
       -0.05309482 -0.06909624 -0.05426993 -0.016659109
0000c0 25 7d 01 bd 69 55 8c bd 2d 4c 82 bd 10 2e a0 bc
       -0.031613488 -0.06852228 -0.063621856 -0.019553214
0000d0 f9 ff 64 bd 47 64 c8 bd 94 54 49 bd 1f 22 be bd
       -0.055908177 -0.097847514 -0.049152926 -0.09283852
0000e0 e5 f5 7c bd a3 75 22 bd 3b bf d4 bd 19 ce de 3b
       -0.06175794 -0.03966297 -0.10388037 0.006799471
0000f0 f7 d0 65 bd fa 1b 46 bd a2 ac 9a bd 7e 01 d2 bd
       -0.056107488 -0.048366524 -0.07552458 -0.10254191
000100 18 35 e2 bc df 05 be bd 6c 06 3a bd 73 f6 48 bc
       -0.027613208 -0.092784636 -0.04541628 -0.012265789
000110 ac b8 07 bd ae 9c a6 bd 2d e6 7f bd 06 a0 15 be
       -0.0331351 -0.08135353 -0.062475372 -0.14611825
000120 e9 cd e8 bd fd 1f eb 3a b8 34 12 bd 3d 39 55 bd
       -0.11367399 0.001793861 -0.035694808 -0.05205654
000130 fb ac 8d bd d1 d6 0d bd 81 23 17 bd ea 53 79 bb
       -0.06917759 -0.034628693 -0.036899094 -0.0038044401
000140 80 05 d2 3c 3e da cc bd 50 96 2a bd 74 a2 b6 bd
       0.025637388 -0.10002564 -0.041647255 -0.08917704
000150 76 b6 06 be b8 17 96 bd 70 81 b6 bd e1 2e d7 bd
       -0.13155541 -0.07328743 -0.08911407 -0.10506988
000160 0d b4 0a be 7e 0f 21 be 72 4c 82 bd 81 28 05 bc
       -0.13545246 -0.15728566 -0.06362237 -0.008127333
000170 cc 51 b9 bd e0 20 37 bd 54 d9 a3 bd 9f 15 d1 bd
       -0.09048805 -0.044709086 -0.080004364 -0.10209202
000180 ab b0 27 bd 63 f3 b6 bd be 91 36 bd d3 2e ff bc
       -0.040939968 -0.08933141 -0.044572584 -0.031150257
000190 ba cf 95 bd 00 ee 95 bd 93 bc ea bc 43 90 59 bd
       -0.07315011 -0.073207855 -0.028654372 -0.053116094
0001a0 17 18 3a bd 80 ea f1 bb 27 50 96 bd cc b2 78 3c
       -0.04543313 -0.007382691 -0.073395066 0.015179347
0001b0 a9 bf e7 3b 69 04 c7 bc 0f 46 85 bd 26 ca f9 bd
       0.007072408 -0.024294095 -0.06507503 -0.1219676
0001c0 e7 43 51 bd 43 3d 9b bd 56 9f 5b bc df 9e 7a bb
       -0.051090147 -0.07580044 -0.013404688 -0.0038241667
0001d0 22 cb 40 3d 45 71 b7 bd c0 fe 03 be b9 a5 6a bd
       0.047068723 -0.08957151 -0.12890148 -0.05728695
0001e0 4a f7 4d bd e3 7d f0 bc b9 48 02 bd 74 ec 2d bd
       -0.05028466 -0.029356902 -0.031807635 -0.042461827
0001f0 9c 23 8c bd b6 9b a8 bd 53 f5 d6 bd e0 d0 08 be
       -0.068427294 -0.082328245 -0.10496011 -0.1336093

network_body._body_endoder.seq_layers.2.weight f4 [128, 128]
000000 87 b6 89 3d a4 09 ba 3c 76 c4 17 be 59 d2 08 bd
       0.067242675 0.022709675 -0.14821038 -0.03340373
000010 35 d7 a3 bc 5d 20 84 3c c6 69 ba 3d c4 8c 35 be
       -0.02000008 0.016128713 0.09102206 -0.17729479
000020 66 94 26 bd 59 6c 3f 3d e5 30 23 bd 51 51 47 3d
       -0.040668868 0.046734188 -0.03984155 0.048661534
000030 88 e9 9f bd 12 d5 87 bc 33 e4 13 3e d1 8d 19 3e
       -0.078082144 -0.016581092 0.1444252 0.14995505
000040 a8 e3 e9 bc 78 65 44 bd bf c6 b5 bd 5f 9c 39 bd
       -0.028550938 -0.04794833 -0.088757984 -0.045315143
000050 ce cf d7 bc af 90 f3 bd 0c 1c 09 3e ae f5 04 be
       -0.026344206 -0.118928306 0.13389605 -0.12984344
000060 c6 3e 03 be ff 55 7a bd 78 87 da bd e8 89 2c 3e
       -0.12816915 -0.06111717 -0.1067037 0.16849482
000070 e5 b7 07 be f4 c4 b1 bd 44 f0 d7 bd 60 8a ec bd
       -0.13253744 -0.08680144 -0.10543874 -0.115498304
000080 2f 65 4f be 70 8c 6b bd fe 1f 27 be ba c3 0e be
       -0.20253442 -0.05750698 -0.16320798 -0.13941851
000090 87 db 5d bc 67 6d 67 bd 3b 3a c7 bc b8 cc ac bd
       -0.013541109 -0.05650082 -0.024319759 -0.084374845
0000a0 2b fb 05 bb 40 ab 5f bc e0 35 48 3d ec 92 a5 bd
       -0.0020443897 -0.013651669 0.048879504 -0.08084664
0000b0 19 7a a7 bc f8 db 3c bd 0f 5c c2 3b 6b 92 3f bd
       -0.020443963 -0.046108216 0.0059313844 -0.046770494
0000c0 81 62 6f be 10 2e b5 bb dd ba e8 bc 08 ef 8c 3d
       -0.2337742 -0.0055291727 -0.028409416 0.06881529
0000d0 b7 a4 25 be 3c 8e c3 3c 50 03 82 3d 79 c7 7a 3d
       -0.16176115 0.023871534 0.06348288 0.06122539
0000e0 7c 07 40 3d f9 0d 83 3d 4a 4b 18 be dc 56 4e bd
       0.046882138 0.063991494 -0.1487247 -0.050375804
0000f0 86 8a c1 bd ee d5 07 3d 5d 93 4a 3d 84 59 c1 bc
       -0.094502494 0.033163004 0.049456943 -0.023602255
000100 7c 1c 1e bc ba 2a 3e bd 0d 17 17 be d1 a9 e4 3d
       -0.009650346 -0.046427466 -0.14754887 0.111652024
000110 62 e6 53 bc 54 9e 33 be 04 b2 76 be b0 03 33 bd
       -0.0129333455 -0.17540866 -0.24091345 -0.04370469
000120 58 08 da 3c db 4d ed bd 80 db 06 bd 26 6e 01 be
       0.026615307 -0.115871154 -0.032924175 -0.12639675
000130 05 8c 70 be fd 6f 79 bc 37 38 ab bd e0 09 51 bd
       -0.23490913 -0.015224454 -0.083603315 -0.05103481
000140 bf 6d c8 bd b7 1a 93 3b 23 f9 40 bd 12 5a df 3d
       -0.097865574 0.0044892686 -0.047112595 0.109058514
000150 fb cf 5d bd c8 68 11 3d 5e 3e 40 bd 00 b0 14 3e
       -0.054153424 0.035500318 -0.046934478 0.14520264
000160 28 92 03 be 01 27 60 bd 19 f5 cb 3d 08 f0 a3 bd
       -0.12848723 -0.054724697 0.09958858 -0.08004767
000170 aa 4a de bd 99 fe 25 bd 46 08 c7 bc 11 ed 7d bd
       -0.10854085 -0.040526006 -0.024295937 -0.061993662
000180 c1 88 32 be 1e 98 91 bd d3 49 04 3e f8 9d 14 be
       -0.1743498 -0.07109092 0.12918787 -0.14513385
000190 29 f1 66 bd 05 b4 48 be 2f 12 1f be 8e 21 18 bb
       -0.056382332 -0.19599922 -0.1553428 -0.002321336
0001a0 09 e3 cd bd 28 ec f4 bc 28 37 1c 3e 84 44 89 bd
       -0.10053069 -0.029897764 0.15255415 -0.067025214
0001b0 dc 9f a5 bd 1e e4 da 3d 83 63 22 be ef 2c b1 3d
       -0.080871314 0.10688041 -0.15858273 0.086511485
0001c0 7b 48 36 3e 0e 73 85 3d ec e2 12 bd 09 4c a8 3b
       0.17801087 0.065160856 -0.03586094 0.005136017
0001d0 da a0 6b bb 57 57 04 3e 50 98 22 be 5a 85 1d 3d
       -0.003595403 0.12923943 -0.15878415 0.038457252
0001e0 5e 53 d9 b9 c5 c2 1e be 72 a9 8f bd 3b 5d 3b 3b
       -0.0004145158 -0.15503986 -0.07014741 0.0028589505
0001f0 72 df ac 3d e9 39 f5 bd df fc 2c be 20 d8 8a bd
       0.08441056 -0.11973936 -0.16893338 -0.06779504
000200 e0 a0 19 3e be a8 37 3e b1 ca 2d bd f0 1d ef bd
       0.15002775 0.17935464 -0.04242963 -0.11675632
000210 78 41 1d bc d8 eb f8 3c fb 0f 57 3e 91 5c 1c bc
       -0.0095981285 0.030385897 0.2100219 -0.009543554
000220 ec d1 91 bd 80 00 44 3c 56 9f 6c 3d 77 1c 28 3d
       -0.071201175 0.01196301 0.057769142 0.04104277
000230 f7 d9 35 3d ac 64 87 3e 60 80 98 bd 09 d4 29 bb
       0.04439732 0.26443994 -0.074463606 -0.0025913736
000240 b2 47 00 3e 4f 19 cc 3d e3 58 a3 3d 67 4f 11 3e
       0.1252735 0.09965765 0.07975938 0.14190446
000250 9d ef b9 3d ba b4 ae bd f9 ad 0e 3e 80 64 a2 3d
       0.09078906 -0.085305646 0.13933553 0.07929325
000260 d5 b7 c7 3d 84 1f e1 3d 73 73 27 be 2b 69 b8 bd
       0.0975186 0.10992339 -0.16352634 -0.09004434
000270 f5 94 9c bd be 95 56 3d 9d f7 8b bd a3 a3 cd bd
       -0.07645599 0.0523889 -0.06834338 -0.10040977
000280 7b 45 45 3d cf 87 00 3d 66 07 4a bc b2 d3 d1 bc
       0.048161965 0.031379517 -0.0123308655 -0.02561364
000290 b6 32 17 be d9 a1 6e 3d 78 f6 19 3e 9d 75 83 3c
       -0.14765438 0.05825982 0.15035427 0.016047293
0002a0 2e 6c 7c bd 8d a5 26 bd fe 2c 3a be 75 bf 2b 3d
       -0.061626606 -0.040685225 -0.18181226 0.041930635
0002b0 d4 e2 05 bc 90 41 c2 3c cf c3 22 3e e7 1e e0 3d
       -0.008171756 0.023712903 0.15895008 0.10943394
0002c0 bf 85 a4 bb 42 e9 99 3c c4 c6 a6 bd aa 82 02 be
       -0.0050208266 0.018787984 -0.0814338 -0.12745157
0002d0 20 15 85 bd 17 67 09 3e 57 7e 8f 3e f4 21 61 3c
       -0.0649817 0.13418232 0.28026077 0.013741005
0002e0 11 ea c5 bd a5 5d 5a 3d 4e 93 b8 3c a1 34 a6 bd
       -0.09663785 0.053311963 0.022531178 -0.08115507
0002f0 7d 5a 96 bd b7 c4 9c 3d b2 b3 4c 3d d5 0e 7c bd
       -0.07341478 0.07654708 0.04997606 -0.061537582
000300 be 39 2b 39 24 db f3 3c 47 a7 a8 3c 16 2b 31 bc
       0.00016329341 0.02976758 0.020587577 -0.010813495
000310 e2 ab 4b bd 31 9b e2 3a 2e 06 db 3d c0 d1 fc 3d
       -0.049724467 0.0017288682 0.10694538 0.12344694
000320 83 7a 43 be c9 41 00 3d 54 a4 37 3d 2c 37 8f 3d
       -0.19089703 0.031312738 0.04483445 0.06992945
000330 8b 33 52 3d 7c ac 99 bc ec 82 43 3e b7 2a d7 bd
       0.051318686 -0.018759005 0.19092911 -0.10506194
000340 27 3c 31 3d 81 ee 28 3e f4 26 9f bd dd d0 a5 3d
       0.043270256 0.16497232 -0.077711016 0.08096478
000350 e3 b9 db 3d 5b a0 a1 bc 14 c6 c5 bd db cf 51 bc
       0.107288145 -0.019729784 -0.09656921 -0.012805904
000360 2a 0f 08 3e c0 10 d7 3d 9e 15 30 bd 49 9e 2a bd
       0.13287035 0.10501242 -0.042989366 -0.04165486
000370 f6 27 77 ba ad b1 e9 bd bb bd 93 bd 8a 23 d1 3c
       -0.0009428257 -0.11410842 -0.072139226 0.025529642
000380 50 35 e9 bd 54 d9 bc bd 4e 79 8c 3d b7 92 78 3d
       -0.11387122 -0.092211396 0.068590745 0.060686793
000390 c5 47 1a be e5 51 07 3e b1 08 12 be 2e 54 c9 3c
       -0.1506644 0.13214834 -0.14261128 0.024576273
0003a0 8a 6e e1 3c e4 9f bb 3b 7b a0 38 bd fd 66 a6 b9
       0.02751853 0.0057258476 -0.04507492 -0.0003173872
0003b0 87 06 af bd 90 3b 39 3c c6 2c 5b 3d 94 05 0a 3e
       -0.08546167 0.011305705 0.053509496 0.1347869
0003c0 e7 fe 43 bd 33 3e 6e 3c bd 13 a3 bd d1 c0 04 be
       -0.047850516 0.014541197 -0.07962749 -0.12964179
0003d0 9d f8 58 be 50 fa cb 3d 3a 10 4d 3d fe c2 0f 3e
       -0.21188588 0.09959853 0.050064303 0.14039227
0003e0 cb 30 46 bd f0 ea 01 3d fd b3 8f bd 9d cb 3c 3e
       -0.048386376 0.031718194 -0.07016752 0.18437047
0003f0 c2 81 1b 3c 4c 8b fa 3d 43 5f 95 bb f9 0f 6b 3c
       0.009491386 0.122336 -0.004558475 0.01434707
