RollerAgent/Assets/Learn/RollerAgent.onnx (onnx, 73663 bytes, 7 tensors)

action_model._continuous_distribution.log_sigma f4 [1, 2]
-0.5293985 -0.6088954
00000000: a986 07bf 92e0 1bbf

action_model._continuous_distribution.mu.bias f4 [2]
-0.010928645 0.012554615
00000000: 0f0e 33bc dfb1 4d3c

action_model._continuous_distribution.mu.weight f4 [2, 128]
0.09517969 -0.04165794 -0.0020461385 0.0073643774 0.030706814 0.06506476 -0.09124413 0.04738153
0.011872919 -0.009181686 -0.07041073 0.123147346 -0.06601368 -0.050455436 0.05796991 0.08654673
-0.018468728 0.026203176 0.09166512 0.01865334 -0.101161726 0.031651344 0.03252952 0.12377325
-0.063144796 0.05656688 -0.058142826 -0.09681013 0.025754362 -0.008460927 0.057531767 0.07000544
0.023998065 0.0075058253 -0.035697944 -0.11666936 -0.068703465 -0.09759876 0.052329715 -0.028500661
-0.028344166 0.05187663 0.10720698 0.007968884 0.0724699 -0.06560309 0.08078434 0.064784706
0.0037923325 0.03645944 -0.048853397 0.008093803 0.046658687 0.13879365 -0.049884465 0.053935934
-0.017498674 -0.0052642412 0.14734031 -0.057011854 -0.023222378 0.015093137 0.13298702 -0.03032036
0.07337357 -0.10293591 4.666942e-05 -0.08954209 0.032775942 -0.013043972 -0.11092163 0.015148001
0.05410637 -0.034303058 0.07629596 -0.013198806 -0.06931356 0.065753326 0.07017839 -0.0004422666
0.04189578 0.051018775 0.055964503 -0.032849588 -0.031831842 -0.05741547 -0.09763506 0.020072049
-0.078744195 0.13773017 0.026297994 0.14565164 0.10140096 -0.054006413 0.09287163 0.05631123
0.0074489047 -0.11097801 0.11401351 -0.0053277453 -0.02713872 -0.07397875 0.08885734 0.016442295
0.013832861 0.046446316 0.020190356 -0.070707574 0.028287468 -0.052593898 0.0013263781 -0.015714282
-0.059622597 -0.049952965 0.052646548 -0.108787484 -0.0400392 -0.07407678 0.055131655 0.07275912
0.038008504 0.055580016 0.06481883 0.0066049355 -0.1311494 0.1341277 0.057567157 -0.0021115637
0.022083279 -0.004851103 -0.017118908 -0.11161859 -0.059648633 0.04782723 -0.093924455 0.04338551
-0.07560255 -0.09606424 0.08151431 -0.043615874 -0.009369471 -0.105156146 0.086134195 0.055390608
-0.01941083 -0.16872722 0.017702686 -0.057883084 0.023371598 0.12345905 -0.04326394 -0.0108141545
-0.09507763 0.1456417 -0.0009717916 -0.029489284 0.06665971 0.069139555 -0.03635242 -0.051827814
-0.16184413 -0.1636124 -0.074105434 -0.018413352 0.054018717 0.046810742 -0.057516485 0.11173647
-0.13392696 -0.09740704 0.012243274 -0.16163981 -0.13343608 0.019411456 -0.05142364 -0.018930757
0.09260688 -0.06542435 0.108501755 0.021104014 0.08231673 -0.06673824 0.07036888 -0.061961453
-0.11700625 -0.12671623 -0.019559393 -0.020658152 -0.051225957 -0.018147102 -0.029920312 -0.052538645
0.12313838 0.07025919 -0.00447027 0.049327817 -0.098388016 -0.12295753 0.0015779022 0.08799392
0.04591225 -0.07700994 -0.030132158 -0.024902431 0.10697574 -0.14095686 -0.059131365 0.10053614
-0.08295374 0.031852037 -0.045260802 -0.030752312 -0.09499064 -0.021080026 -0.016723651 0.15565845
-0.10778602 0.06503325 0.08922914 0.053880792 -0.009019423 -0.0048716287 0.0475456 -0.07874035
0.06861113 0.124497145 -0.08038867 -0.13853268 0.032933604 -0.020162884 0.03238198 0.053074326
0.033668455 0.11218198 -0.1451856 0.04061128 -0.06788529 -0.055301964 0.05651813 -0.116410375
-0.012969035 -0.08125449 -0.1188209 0.03589961 0.08908443 -0.052178208 -0.031757463 0.053762816
0.12454474 -0.027770562 0.03538316 -0.040281333 -0.101130985 0.011255919 -0.09203506 -0.14502577
00000000: 92ed c23d 84a1 2abd 8218 06bb e050 f13b
00000010: db8c fb3c ac40 853d 34de babd 2313 423d
00000020: a286 423c c86e 16bc 8033 90bd ad34 fc3d
00000030: 2e32 87bd 5caa 4ebd db71 6d3d 693f b13d
00000040: bb4b 97bc 0ba8 d63c ecba bb3d e4ce 983c
00000050: e12d cfbd d7a4 013d ad3d 053d d47c fd3d
00000060: 0f52 81bd acb2 673d 2c27 6ebd 6444 c6bd
00000070: d0fa d23c b39f 0abc 6ea6 6b3d 035f 8f3d
00000080: 9797 c43c 6df3 f53b 0238 12bd 58f0 eebd
00000090: 67b4 8cbd dce1 c7bd af57 563d 387a e9bc
000000a0: 0632 e8bc 977c 543d 558f db3d ec8f 023c
000000b0: 196b 943d ea5a 86bd 4372 a53d d8ad 843d
000000c0: c888 783b 7e56 153d 801a 48bd df9b 043c
000000d0: 2e1d 3f3d ec1f 0e3e a753 4cbd edeb 5c3d
000000e0: 6159 8fbc a87f acbb 61e0 163e 4385 69bd
000000f0: db3c bebc 3449 773c c02d 083e 6762 f8bc
00000100: e244 963d 10d0 d2bd e8be 4338 d861 b7bd
00000110: 1140 063d 62b6 55bc e12a e3bd 522f 783c
00000120: a49e 5d3d 5d81 0cbd 0e41 9c3d ce3f 58bc
00000130: 45f4 8dbd aea9 863d b0b9 8f3d 05e0 e7b9
00000140: e99a 2b3d 10f9 503d 093b 653d 4a8d 06bd
00000150: 1b62 02bd 7c2c 6bbd e4f4 c7bd 236e a43c
00000160: a344 a1bd 2309 0d3e e46e d73c b425 153e
00000170: 4eab cf3d d435 5dbd 7b33 be3d 9ba6 663d
00000180: f115 f43b 7048 e3bd ea7f e93d 5e94 aebb
00000190: 0552 debc 2c82 97bd d6fa b53d feb1 863c
000001a0: 39a3 623c 7e3e 3e3d 3f66 a53c 22cf 90bd
000001b0: 1fbb e73c b36c 57bd ddd9 ad3a 3dbb 80bc
000001c0: d336 74bd 7b9b 4cbd e8a3 573d f9cb debd
000001d0: 2500 24bd 91b5 97bd bbd1 613d bc02 953d
000001e0: ceae 1b3d dfa7 633d bcbf 843d 376e d83b
000001f0: 074c 06be c658 093e 8acb 6b3d 2962 0abb
00000200: fee7 b43c 00f6 9ebb f43c 8cbc 4a98 e4bd
00000210: 2052 74bd 7ce6 433d 775b c0bd 01b5 313d
00000220: 82d5 9abd 54bd c4bd f9f0 a63d 8fa6 32bd
00000230: 6982 19bc 1b5c d7bd 2067 b03d 43e1 623d
00000240: 7603 9fbc d4c6 2cbe 3905 913c d016 6dbd
00000250: cb75 bf3c 19d8 fc3d 8735 31bd da2d 31bc
00000260: 0fb8 c2bd 1923 153e d5bf 7eba 8393 f1bc
00000270: e384 883d 0a99 8d3d 46e6 14bd 6749 54bd
00000280: 78ba 25be 028a 27be 97c4 97bd 99d7 96bc
00000290: bb42 5d3d 9fbc 3f3d 6896 6bbd 17d6 e43d
000002a0: 2624 09be 587d c7bd 0398 483c e884 25be
000002b0: 78a3 08be c604 9f3c 98a1 52bd ad14 9bbc
000002c0: ada8 bd3d 34fd 85bd 2b36 de3d 53e2 ac3c
000002d0: ac95 a83d 0fae 88bd 8f1d 903d 4bcb 7dbd
000002e0: f9a0 efbd e6c1 01be 053b a0bc 493b a9bc
000002f0: 4fd2 51bd 3ba9 94bc 711b f5bc c332 57bd
00000300: fa2f fc3d 0de4 8f3d 587b 92bb f70b 4a3d
00000310: a87f c9bd 28d1 fbbd 9dd1 ce3a 2836 b43d
00000320: 7c0e 3c3d 63b7 9dbd b7d7 f6bc 2f00 ccbc
00000330: 1916 db3d ff56 10be bb33 72bd e4e5 cd3d
00000340: a7e3 a9bd 4877 023d 6463 39bd 46ec fbbc
00000350: 748a c2bd 05b0 acbc 0a00 89bc ee64 1f3e
00000360: ebbe dcbd 2730 853d c4bd b63d 1bb2 5c3d
00000370: 34c6 13bc 2fa2 9fbb 2dbf 423d 9f42 a1bd
00000380: fe83 8c3d 5cf8 fe3d d1a2 a4bd 83db 0dbe
00000390: 63e5 063d a22c a5bc f8a2 043d 7764 593d
000003a0: efe7 093d aabf e53d 89ab 14be 0358 263d
000003b0: 7107 8bbd 5084 62bd 8e7f 673d 9068 eebd
000003c0: 137c 54bc c168 a6bd 5f58 f3bd 780b 133d
000003d0: e671 b63d d1b8 55bd 1d14 02bd 6636 5c3d
000003e0: 5011 ff3d 177f e3bc efed 103d 0afe 24bd
000003f0: c31d cfbd bf6a 383c e17c bcbd a381 14be

network_body._body_endoder.seq_layers.0.bias f4 [128]
0.02262986 -0.054069206 0.074329585 -0.10465384 -0.101783745 -0.06946915 -0.05778207 -0.018518766
-0.027633652 -0.025767209 -0.052973773 -0.07226734 -0.022255978 0.030056825 -0.016187064 0.020681305
-0.0007539426 -0.04856012 0.05243499 0.07206709 -0.08796065 0.03818445 -0.06791901 0.015654875
0.14886117 -0.076026544 -0.0053458116 0.06413512 -0.14690916 -0.035980873 0.012014651 0.077529676
0.067610286 0.052413326 -0.11515247 -0.009087321 0.085347794 0.07156924 -0.11322131 0.061830744
0.019433212 -0.13866006 0.03948707 0.06680625 0.040787075 0.08856804 -0.019867104 -0.037020076
0.16282639 0.15172707 -0.056841586 -0.074841164 0.03501172 0.002557702 -0.07010552 -0.0795884
-0.011024499 0.06318696 -0.068000466 0.00959941 0.06790408 -0.15304267 -0.001028516 0.05205928
-0.102388255 0.08088636 -0.09552147 0.018248536 -0.10040017 -0.09076852 -0.08627169 -0.045754965
-0.051883362 0.045750726 0.14060776 -0.026655214 0.0015968451 -0.100768 -0.1422025 -0.017440025
-0.0135314325 -0.102574185 -0.08231311 -0.07105231 -0.029595593 -0.039861437 -0.13958813 0.16241337
-0.10639776 0.20308596 0.034797758 0.0942611 -0.16779628 0.0482006 -0.2660778 0.009951324
0.04345251 0.02080467 0.109753035 -0.07051613 0.076548465 0.1468642 -0.06569489 0.002570317
0.004495793 -0.06447304 -0.0387282 0.0739031 -0.14971107 -0.03216936 -0.05244407 0.020774381
0.07777478 0.07308569 -0.011085727 0.01394391 0.049665183 -0.11369691 -0.057738464 -0.062096354
0.032101437 0.06625951 -0.035718646 -0.04276752 -0.11057023 -0.008946395 -0.16652419 0.084453024
00000000: 4262 b93c ac77 5dbd 1c3a 983d c154 d6bd
00000010: ff73 d0bd d745 8ebd e4ac 6cbd abb4 97bc
00000020: f85f e2bc c115 d3bc 07fb 58bd e600 94bd
00000030: 2b52 b6bc bb39 f63c bc9a 84bc d76b a93c
00000040: 3ba4 45ba fae6 46bd 12c6 563d e997 933d
00000050: b724 b4bd 4c67 1c3d 1f19 8bbd a73e 803c
00000060: 106f 183e ceb3 9bbd eb2b afbb 4659 833d
00000070: 5b6f 16be ae60 13bd 19d9 443c e1c7 9e3d
00000080: 4377 8a3d 5baf 563d 0fd5 ebbd fde2 14bc
00000090: d3ca ae3d e592 923d 93e0 e7bd 3c42 7d3d
000000a0: 6632 9f3c e7fc 0dbe 32bd 213d b7d1 883d
000000b0: 5910 273d 2963 b53d 56c0 a2bc 5da2 17bd
000000c0: f6bb 263e 575e 1b3e b9d2 68bd 5346 99bd
000000d0: 7368 0f3d 1e9f 273b 7c93 8fbd 3eff a2bd
000000e0: 1aa0 34bc 2a68 813d d443 8bbd d846 1d3c
000000f0: 4b11 8b3d 38b7 1cbe 45cf 86ba 1d3c 553d
00000100: efb0 d1bd bfa7 a53d c3a0 c3bd f47d 953c
00000110: 9b9e cdbd d9e4 b9bd 36af b0bd 8f69 3bbd
00000120: a683 54bd 1d65 3b3d 7bfb 0f3e 095c dabc
00000130: 3b4d d13a 745f cebd 889d 11be 62de 8ebc
00000140: f1b2 5dbc 6a12 d2bd c793 a8bd e083 91bd
00000150: 7572 f2bc bf45 23bd 31f0 0ebe b14f 263e
00000160: 12e7 d9bd c4f5 4f3e 1888 0e3d f70b c13d
00000170: cad2 2bbe fe6d 453d 593b 88be e10a 233c
00000180: 42fb 313d 8e6e aa3c 33c6 e03d c36a 90bd
00000190: 71c5 9c3d 9263 163e 0b8b 86bd c372 283b
000001a0: 7251 933b 710a 84bd 76a1 1ebd 825a 973d
000001b0: dc4d 19be 05c4 03bd 98cf 56bd 092f aa3c
000001c0: 6248 9f3d f3ad 953d e9a0 35bc ff74 643c
000001d0: b86d 4b3d edd9 e8bd 2b7f 6cbd bf58 7ebd
000001e0: cc7c 033d 11b3 873d b74d 12bd ff2c 2fbd
000001f0: a572 e2bd e693 12bc 5185 2abe b5f5 ac3d

network_body._body_endoder.seq_layers.0.weight f4 [128, 8]
0.3046334 -0.21024832 0.094200104 0.020609349 0.13686141 -0.8056976 -0.0024697983 0.07853694
0.5685087 -0.32026473 -0.1097529 -0.13616022 -0.022302486 0.57977396 0.5739839 0.19605784
-1.0883782 0.0018106276 -0.463434 0.7539661 -0.3911279 -0.19223462 0.62279314 -0.029401733
-0.0150099825 -0.2716184 0.18356629 -0.7980921 -0.098646335 -0.27178624 -0.7484317 -0.2515543
-0.084937684 -0.11287588 -0.060736354 0.3528287 -0.5040469 -0.1662523 -0.036997017 -0.7838968
0.32823437 -0.26978847 0.049706306 -0.3043164 -0.3180578 0.2773719 0.22681168 0.747546
0.054776058 0.123815276 0.7164671 0.13824306 -0.2339425 0.21884158 0.7176775 -0.4256306
0.44928223 -0.33703566 0.48050484 0.3205001 -0.27609375 -0.5560835 -0.15953876 0.66294366
0.6866665 -0.25483805 0.04767842 -0.16298555 0.3238595 0.10700868 -0.46290883 -0.015881969
-0.015379676 0.13627626 -0.061875414 -0.5410076 0.30669788 -0.44641617 0.0032508473 -0.41081336
-0.18694577 -0.5718767 0.474961 -0.74493027 -0.48485103 0.031815663 -0.2799691 0.11603051
0.19490452 -0.3859787 0.25549516 0.13424353 -0.12697127 0.82555795 -0.018864106 -0.5621285
-0.25418094 -0.12204136 -0.14116 0.2322848 -0.0027597838 0.008545471 -0.028712377 -0.21664985
0.010804647 0.35942134 0.50392455 0.5735254 0.45693982 -0.22155379 0.09137638 -0.5304304
0.13254087 -0.44814146 0.16133574 -0.28140002 0.8856198 -0.17814769 0.39314193 0.023293989
-0.19790171 0.32045573 0.34461114 0.09781445 0.28683692 -0.0753891 0.7908063 -0.059992373
-0.49359527 -0.6073212 -0.2608244 -0.07169423 0.007307192 -0.04746026 0.3067523 0.24490488
-0.15702677 0.024974987 -0.4022756 -0.3806366 0.30261844 0.15142575 -0.22152458 0.44669598
-0.1826016 0.5333927 0.6340581 -0.3778051 -0.050393477 -0.35815603 0.24416631 0.65467477
0.012309235 0.10766729 -0.2476544 -0.04691078 -0.45120725 0.52900225 -0.66617167 0.1436757
-0.14341313 0.15432303 0.1301653 0.3689064 -0.45685816 0.44066685 -0.2361998 -0.43648702
-0.19411059 -0.15034926 0.44575724 0.2966253 0.20152195 -0.20440006 0.016593385 0.10047436
0.01726572 -0.026436314 -0.31969327 0.4743419 -0.47523752 -0.35298383 0.4833324 -0.045111097
-0.085144 0.22980279 -0.47856325 -0.27454183 0.35538766 0.27921835 -0.29158565 0.0015610913
0.20325531 0.07459889 -0.5071295 -0.03095194 0.29695407 0.44265988 0.024726897 0.1982095
0.3565987 -0.29949737 0.006340886 -0.23409647 -0.5141441 0.027495718 0.6259863 0.4787976
-0.27107567 -0.16640857 0.2945339 0.43186238 0.08261372 0.061852656 -0.27736685 -0.016290544
-0.26238346 -0.05739411 0.516974 0.33595556 -0.24028671 -0.30358696 0.04345491 -0.44303784
-0.0031444523 -0.22728704 0.070195876 -0.2672375 -0.34883326 -0.21822876 -0.11310523 -0.25419822
0.07880876 -0.22305275 -0.3414057 -0.1375467 -0.9288528 -0.06182093 -0.61768717 0.50634503
-0.18296665 -0.33116043 0.30485675 0.34088856 0.3860852 -0.065839656 0.25295457 -0.4918227
0.22973435 -0.5193084 -0.311589 -0.12304882 0.21804702 0.35199684 -0.15729341 0.44028795
00000000: e9f8 9b3e 564b 57be fceb c03d f0d4 a83c
00000010: 6625 0c3e 3342 4ebf 57dc 21bb fad7 a03d
00000020: c989 113f bdf9 a3be 21c6 e0bd 966d 0bbe
00000030: b4b3 b6bc 116c 143f 9cf0 123f 63c3 483e
00000040: fa4f 8bbf 9552 ed3a 3947 edbe ec03 413f
00000050: eb41 c8be 27d9 44be 5f6f 1f3f e7db f0bc
00000060: 6eec 75bc 9111 8bbe cdf8 3b3e c44f 4cbf
00000070: 1707 cabd 9127 8bbe 3899 3fbf bacb 80be
00000080: cff3 adbd 782b e7bd afc6 78bd f7a5 b43e
00000090: 3809 01bf 0b3e 2abe 2f8a 17bd 76ad 48bf
000000a0: 560e a83e b721 8abe d798 4b3d 5ccf 9bbe
000000b0: 79d8 a2be b103 8e3e 5241 683e 2d5f 3f3f
000000c0: dc5c 603d dd92 fd3d 636a 373f 978f 0d3e
000000d0: 9f8e 6fbe 0218 603e b6b9 373f 41ec d9be
000000e0: 5208 e63e f08f acbe bb04 f63e 9718 a43e
000000f0: 295c 8dbe 7d5b 0ebf 215e 23be adb6 293f
00000100: 60c9 2f3f 227a 82be 724a 433d afe5 26be
00000110: ead0 a53e 5e27 db3d 6302 edbe e71a 82bc
00000120: 09fb 7bbc 018c 0b3e 1371 7dbd 797f 0abf
00000130: 8107 9d3e a990 e4be 2b0c 553b 2156 d2be
00000140: b66e 3fbe 8366 12bf 172e f33e c0b3 3ebf
00000150: 653e f8be 2451 023d 1c58 8fbe 67a1 ed3d
00000160: 0d95 473e 009f c5be 43d0 823e 2377 093e
00000170: c204 02be c457 533f e688 9abc a7e7 0fbf
00000180: 0124 82be d2f0 f9bd 3f8c 10be 11dc 6d3e
00000190: 7ddd 34bb 4e02 0c3c 3836 ebbc 75d9 5dbe
000001a0: f905 313c 1306 b83e 3301 013f 90d2 123f
000001b0: 04f4 e93e ffde 62be 8a23 bb3d 49ca 07bf
000001c0: cbb8 073e cc72 e5be 3235 253e aa13 90be
000001d0: fbb7 623f 596c 36be e649 c93e 09d3 be3c
000001e0: bfa6 4abe c612 a43e df70 b03e f152 c83d
000001f0: 4adc 923e 9a65 9abd 4872 4a3f 90ba 75bd
00000200: 85b8 fcbe 6779 1bbf c78a 85be 6dd4 92bd
00000210: 2b71 ef3b b165 42bd a30e 9d3e 58c8 7a3e
00000220: a0cb 20be 5898 cc3c 11f7 cdbe cde2 c2be
00000230: cef0 9a3e 5a0f 1b3e 57d7 62be 56b5 e43e
00000240: eafb 3abe 6d8c 083f a251 223f ac6f c1be
00000250: 6469 4ebd 3a60 b7be bc06 7a3e c498 273f
00000260: acac 493c ab80 dc3d 1d99 7dbe 8525 40bd
00000270: a304 e7be b16c 073f 3a8a 2abf b91f 133e
00000280: e4da 12be db06 1e3e 0d4a 053e 4de1 bc3e
00000290: 50e9 e9be 169f e13e 5cde 71be 3a7b dfbe
000002a0: edc4 46be 28f5 19be 4b3a e43e 45df 973e
000002b0: c55b 4e3e 404e 51be daee 873c 80c5 cd3d
000002c0: d770 8d3c f890 d8bc d6ae a3be f1dc f23e
000002d0: 5552 f3be 4cba b4be 5877 f73e 6ac6 38bd
000002e0: fa5f aebd 6c51 6b3e 3e06 f5be bf90 8cbe
000002f0: 5ff5 b53e b5f5 8e3e b74a 95be 889d cc3a
00000300: 2922 503e 4ec7 983d 3dd3 01bf ec8e fdbc
00000310: 5d0a 983e 51a4 e23e 1090 ca3c 6ef7 4a3e
00000320: 1b94 b63e b857 99be 35c7 cf3b fcb6 6fbe
00000330: f39e 03bf b33e e13c a340 203f f624 f53e
00000340: 6eca 8abe 0267 2abe 26cd 963e 111d dd3e
00000350: 6231 a93d 3659 7d3d 0703 8ebe bf73 85bc
00000360: 2057 86be 1616 6bbd 6858 043f 5e02 ac3e
00000370: b80d 76be c06f 9bbe c7fd 313d dbd5 e2be
00000380: 2813 4ebb efbd 68be dbc2 8f3d 5bd3 88be
00000390: 469a b2be 5c77 5fbe b7a3 e7bd 4526 82be
000003a0: 7d66 a13d f167 64be bacc aebe 0bd9 0cbe
000003b0: 4cc9 6dbf f237 7dbd bf20 1ebf d49f 013f
000003c0: 9c5b 3bbe dc8d a9be 2f16 9c3e f288 ae3e
000003d0: f6ac c53e f1d6 86bd 4383 813e 2fd0 fbbe
000003e0: 7b3f 6b3e 65f1 04bf 9888 9fbe 0501 fcbd
000003f0: b847 5f3e ee38 b43e 8611 21be 6c6d e13e

network_body._body_endoder.seq_layers.2.bias f4 [128]
0.057987638 0.017416243 -0.014449246 0.042936724 -0.033259094 -0.02802157 0.10268922 0.043446
0.01886881 -0.040572017 0.049264405 0.046828266 -0.005725537 0.09725413 0.040984493 0.038504455
0.022689449 0.089065336 0.060644552 0.047930717 0.06315388 0.053956248 -0.017393973 0.07085993
0.095603265 0.10295061 0.028801095 0.074042015 0.03414539 0.09724393 0.104605265 -0.10838097
0.046440884 0.14713882 0.035750464 0.07897744 0.009195377 0.08321071 -0.036485255 0.09656358
0.18649246 0.051569723 0.05496054 0.16280152 0.071556054 -0.010577262 0.060227327 0.0048994417
0.04301858 -0.0669587 0.030117912 -0.1578691 0.039378 0.101889454 0.031405963 0.04733921
0.06672462 0.04902924 0.072896615 0.03480072 0.06320574 -0.057727963 0.11961886 0.07135975
0.0844383 0.12388091 -0.09631898 0.07884046 0.013944651 0.11858753 0.12988858 0.010529374
0.046780474 0.043735348 0.093401544 0.0021115832 0.070869185 0.06367167 0.008151633 0.07419578
0.039900955 0.04300738 0.020305255 0.06678926 0.038081557 0.10784158 0.10619443 0.08775674
-0.011553867 0.073696144 0.077678844 0.078202605 0.04702247 0.075131565 0.04763054 0.05832185
0.017452586 0.09445985 0.037365068 0.09294589 0.030420898 0.073477075 0.075851925 -0.019886266
-0.00953629 0.04930286 0.06393092 0.09020295 -0.042359546 0.0241892 0.019824576 0.053563442
-0.0009968012 -0.02223616 0.057307515 0.10227006 0.043222357 0.10590849 0.040952202 0.085246585
0.052842233 -0.028386196 0.04392437 0.005527761 0.051360287 0.09319251 0.08859987 0.08900363
00000000: 7284 6d3d 82ac 8e3c 88bc 6cbc 6bde 2f3d
00000010: b03a 08bd 7e8d e5bc ba4e d23d 6ff4 313d
00000020: c392 9a3c d82e 26bd 79c9 493d ffce 3f3d
00000030: 499d bbbb 2c2d c73d 5bdf 273d d9b6 1d3d
00000040: 39df b93c e367 b63d 6c66 783d 0053 443d
00000050: d256 813d 3a01 5d3d ce7d 8ebc 031f 913d
00000060: a5cb c33d c5d7 d23d 46f0 eb3c 57a3 973d
00000070: 09dc 0b3d d327 c73d 493b d63d d8f6 ddbd
00000080: cc38 3e3d 8fab 163e 146f 123d edbe a13d
00000090: 35a8 163c 606a aa3d 9071 15bd 20c3 c53d
000000a0: e1f7 3e3e c63a 533d 4e1e 613d 71b5 263e
000000b0: fb8b 923d 414c 2dbc eeb0 763d 7f8b a03b
000000c0: 4034 303d a521 89bd d7b9 f63c 70a8 21be
000000d0: d34a 213d 6bab d03d 8aa3 003d c2e6 413d
000000e0: eba6 883d e2d2 483d d24a 953d 338b 0e3d
000000f0: 0372 813d 2874 6cbd bcfa f43d 1025 923d
00000100: fded ac3d 46b5 fd3d e342 c5bd 1b77 a13d
00000110: 1b78 643c 05de f23d 8301 053e 6583 2c3c
00000120: e29c 3f3d d623 333d 4f49 bf3d 7d62 0a3b
00000130: dd23 913d 4b66 823d 6d8e 053c f5f3 973d
00000140: 2f6f 233d 8228 303d 3557 a63c cfc8 883d
00000150: 68fb 1b3d 0cdc dc3d 777c d93d ceb9 b33d
00000160: 6e4c 3dbc 01ee 963d 1616 9f3d b028 a03d
00000170: a29a 403d 94de 993d 3e18 433d e4e2 6e3d
00000180: baf8 8e3c 2a74 c13d 1d0c 193d 6a5a be3d
00000190: 3f35 f93c 267b 963d 4158 9b3d 86e8 a2bc
000001a0: 193e 1cbc ccf1 493d 37ee 823d 53bc b83d
000001b0: 3481 2dbd 6e28 c63c 2667 a23c 5765 5b3d
000001c0: 19a7 82ba 9b28 b6bc 49bb 6a3d f772 d13d
000001d0: ed09 313d 8de6 d83d 7fbd 273d c395 ae3d
000001e0: 1971 583d 2b8a e8bc 0aea 333d 3822 b53b
000001f0: 2a5f 523d b7db be3d d973 b53d 8947 b63d

network_body._body_endoder.seq_layers.2.weight f4 [128, 128]
-0.11840346 0.056898728 -0.052521553 -0.064567044 -0.03810509 0.06823426 -0.04639809 0.1606576
-0.014021234 0.044804525 0.12032867 0.036917906 -0.07418147 -0.04957972 0.04710753 -0.06802879
-0.16939878 -0.0103285955 -0.01229012 -0.037057012 0.0043738284 -0.074695095 0.024453497 -0.03324646
0.13097142 0.04635406 -0.012076233 -0.10633552 -0.010095609 -0.098125935 -0.28854746 -0.04792939
0.0019002375 0.034771577 0.08779024 0.016237428 -0.032639455 0.12725337 0.12494406 -0.12234771
-0.068216465 -0.15004356 0.14828993 0.09165854 0.028032552 -0.16150872 -0.112359375 -0.0076129623
-0.00503434 -0.056632858 -0.11527768 0.08734746 0.16218074 0.17540796 -0.07229918 -0.29557282
-0.12797555 0.21425237 -0.21125996 -0.15811844 0.21569157 0.10325033 0.13462485 0.14937411
-0.11982923 0.031264618 0.024698595 -0.027694974 0.048899576 -0.06678346 -0.06296789 0.039371774
0.07208818 -0.05420093 -0.1288585 -0.07828825 -0.077726886 0.06187765 0.054637793 0.13582155
-0.067916855 0.15607485 0.1738994 0.013379892 -0.07769476 0.08970908 -0.045313768 0.08559664
-0.098097354 -0.18228252 -0.005243522 0.13270727 -0.03090884 0.01755406 -0.21512659 -0.054916378
-0.037053443 -0.017897854 -0.050967626 -0.021685828 0.07727393 -0.36197218 -0.07153963 0.030488439
0.06745041 -0.039234962 0.051363505 -0.17773768 0.036450524 -0.012210247 0.005841553 0.10192796
0.062627934 -0.028106539 0.0134798335 0.12615997 -0.040668942 0.06671338 -0.022508867 -0.13935396
0.013309973 0.054974243 -0.09925721 0.081444055 0.0033896542 0.07983741 -0.016154062 -0.098269165
0.053549696 -0.17770033 0.01806436 -0.05196308 0.008944289 0.0008165449 0.0064325565 -0.0972687
-0.03063647 0.022071848 -0.31096625 0.04016976 0.120620966 0.13090709 -0.19730097 -0.13110626
-0.044394873 0.06578807 -0.051252827 -0.06585593 0.16763867 0.11960771 0.050473243 -0.005117858
-0.21661521 -0.063760996 -0.06923245 0.22192001 0.035312098 -0.04974149 -0.017675517 0.04471229
-0.104815826 0.10330495 -0.12573168 -0.014837046 0.11332307 -0.2500049 -0.043856353 0.05664392
-0.09929161 -0.05408422 -0.036626928 0.042995647 -0.08764356 -0.06907154 0.071984924 -0.07095451
-0.18150415 -0.19891106 0.094169885 -0.093581736 -0.06859212 -0.18212302 -0.22873862 -0.013538337
0.16058193 -0.07055357 -0.0444678 -0.00022600316 0.002548579 0.074855484 -0.13067707 -0.11136343
0.13967784 0.21764334 -0.01143802 0.10092467 -0.018335322 0.10009879 0.0017343363 0.15378805
-0.15711518 0.08962496 -0.24208094 -0.015067756 0.11410867 -0.05236214 -0.048473462 -0.12887667
0.09180168 0.0465486 -0.074722886 0.0055955257 0.10543484 -0.041919895 -0.14975064 -0.11908213
0.021352854 -0.022152798 0.048509616 -0.021913486 -0.10647235 -0.037994716 0.08531643 0.12167429
-0.18384698 0.070440084 -0.27049026 -0.15075234 -0.08737368 -0.046561245 -0.16967 -0.034612358
0.040096648 0.09567045 -0.043971896 0.11742428 0.008054303 -0.03536569 -0.069176696 -0.09798967
-0.17643085 0.073898494 -0.029741952 -0.007970998 0.14331026 0.12385071 -0.01197924 0.062775545
-0.08542932 -0.019850321 -0.015215117 0.22525997 0.2081389 -0.063147694 -0.13895917 -0.12138021
00000000: 837d f2bd a40e 693d d720 57bd ba3b 84bd
00000010: 1514 1cbd 67be 8b3d ec0b 3ebd 6d83 243e
00000020: 51b9 65bc f384 373d e16e f63d 3b37 173d
00000030: 74ec 97bd 1b14 4bbd d3f3 403d ae52 8bbd
00000040: e076 2dbe 4539 29bc 805c 49bc 18c9 17bd
00000050: 5552 8f3b bef9 98bd b352 c83c 712d 08bd
00000060: 5f1d 063e c1dd 3d3d 64db 45bc 70c6 d9bd
00000070: 0e68 25bc 40f6 c8bd 7ebc 93be 9c51 44bd
00000080: 6411 f93a a46c 0e3d 5fcb b33d 5b04 853c
00000090: f3b0 05bd b54e 023e ace2 ff3d 7091 fabd
000000a0: 13b5 8bbd 05a5 19be 51d9 173e 79b7 bb3d
000000b0: 86a4 e53c 8b62 25be ac1c e6bd 2876 f9bb
000000c0: 1bf7 a4bb dbf7 67bd b416 ecbd 3ae3 b23d
000000d0: b512 263e 259e 333e 9811 94bd 5255 97be
000000e0: 060c 03be f964 5b3e 8854 58be cde9 21be
000000f0: 40de 5c3e e974 d33d 19db 093e 87f5 183e
00000100: 0769 f5bd 540f 003d b554 ca3c 92e0 e2bc
00000110: ec4a 483d c4c5 88bd 4ff5 80bd 4c44 213d
00000120: f8a2 933d cb01 5ebd 7cf3 03be 9755 a0bd
00000130: 462f 9fbd 6b73 7d3d e1cb 5f3d ce14 0b3e
00000140: fe17 8bbd 16d2 1f3e af12 323e 5637 5b3c
00000150: 6e1e 9fbd 65b9 b73d ee9a 39bd 4b4d af3d
00000160: 44e7 c8bd 45a8 3abe dad1 abbb 6ae4 073e
00000170: 8934 fdbc 88cd 8f3c 254a 5cbe ffef 60bd
00000180: 5ac5 17bd 859e 92bc 6ec3 50bd 7aa6 b1bc
00000190: cb41 9e3d 6b54 b9be 5f83 92bd e4c2 f93c
000001a0: 7123 8a3d d7b4 20bd 8a62 523d de00 36be
000001b0: 254d 153d 7d0d 48bc 806a bf3b 9bbf d03d
000001c0: 1343 803d af3f e6bc 85da 5c3c 1430 013e
000001d0: 7a94 26bd 06a1 883d 8464 b8bc ceb2 0ebe
000001e0: 1312 5a3c ac2c 613d 5d47 cbbd 24cc a63d
000001f0: f624 5e3b cc81 a33d 8655 84bc 5841 c9bd
00000200: ed56 5b3d 13f7 35be b5fb 933c 3dd7 54bd
00000210: 118b 123c 670d 563a 32c8 d23b d034 c7bd
00000220: 56f9 fabc 05d0 b43c f836 9fbe 0c89 243d
00000230: 2008 f73d 820c 063e 4409 4abe b840 06be
00000240: 66d7 35bd e5bb 863d 7cee 51bd 79df 86bd
00000250: 79a9 2b3e e3f4 f43d 08bd 4e3d b4b3 a7bb
00000260: 61d0 5dbe 2095 82bd bec9 8dbd 003f 633e
00000270: 6ba3 103d bcbd 4bbd 3fcc 90bc 3c24 373d
00000280: aea9 d6bd 8c91 d33d cebf 00be 1517 73bc
00000290: ed15 e83d a400 80be b8a2 33bd 7403 683d
000002a0: 6659 cbbd 6a87 5dbd 1e06 16bd 341c 303d
000002b0: 777e b3bd 6175 8dbd d56c 933d 9950 91bd
000002c0: 39dc 39be 57af 4bbe 24dc c03d c8a7 bfbd
000002d0: 077a 8cbd 757e 3abe 753a 6abe e7cf 5dbc
000002e0: 976f 243e 647e 90bd de23 36bd 43fb 6cb9
000002f0: 0f06 273b d54d 993d 36d0 05be 8312 e4bd
00000300: b507 0f3e e5dd 5e3e 8866 3bbc 98b1 ce3d
00000310: f533 96bc 9800 cd3d ab52 e33a 9d7a 1d3e
00000320: cde2 20be 4b8d b73d 11e4 77be c0de 76bc
00000330: ceb1 e93d af79 56bd 1c8c 46bd 3ff8 03be
00000340: 8502 bc3d bfa9 3e3d 5008 99bd ac5a b73b
00000350: 39ee d73d 32b4 2bbd 3b58 19be 55e1 f3bd
00000360: 2eec ae3c c979 b5bc 05b2 463d e983 b3bc
00000370: 2d0e dabd 59a0 1bbd 61ba ae3d 5f30 f93d
00000380: 6242 3cbe e442 903d b37d 8abe d25e 1abe
00000390: f9f0 b2bd 01b7 3ebd f9bd 2dbe b0c5 0dbd
000003a0: 623c 243d deee c33d e01b 34bd 247c f03d
000003b0: 32f6 033c 9ddb 10bd 83ac 8dbd cfae c8bd
000003c0: 4aaa 34be 1858 973d 65a5 f3bc ca98 02bc
000003d0: edbf 123e 71a5 fd3d 9344 44bc 7790 803d
000003e0: 91f5 aebd 249d a2bc d348 79bc 8daa 663e
000003f0: 5d22 553e 9453 81bd 504b 0ebe 3096 f8bd
