RollerAgent/Assets/Learn/RollerAgent_10.onnx (onnx, 81045 bytes, 9 tensors)

action_model._continuous_distribution.log_sigma f4 [1, 3]
00000000: 22b5 6e3f aafc 673f ca5a 013f
0.93245137 0.9061991 0.5052916

action_model._continuous_distribution.mu.bias f4 [3]
00000000: 3ca9 ca3d 4614 1d3e b5aa 883b
0.0989556 0.15339765 0.0041707405

action_model._continuous_distribution.mu.weight f4 [3, 128]
00000000: 0141 f93c 6fa6 9e3d 6064 0bbe 7bfd 0d3e
00000010: 4094 1b3e 1cb0 913d 1367 f03d 2506 ba3d
00000020: c5ea fd3d cf8f f43d 93d1 163d e288 febd
00000030: 4861 223e f1d3 2b3e 9d1d df3d ddb4 0f3e
00000040: ae05 14be 2810 cb3d 4499 363e d7d5 dfbd
00000050: b5e6 133d e773 a9bd 4ff2 073e cb06 1c3e
00000060: 02df 913d 142b 073e bcfb 323c 45f7 52bd
00000070: f934 5c3d 9897 d6bd f317 3a3d 4d89 093e
00000080: cc33 c9bd 79d0 8b3d f4f2 893d 89ff cb3d
00000090: 9fa5 753d 2e58 8d3d 1523 c23d d32f a93d
000000a0: 2b14 823c 51f8 5d3e 966d 15bd 8efd 053e
000000b0: 274b 0bbe 4767 1d3e e143 a2bd 02d9 33bb
000000c0: e1da 953d 2b10 b03d 27b3 063c e26d 0bbe
000000d0: 08c6 ef3d 5d62 d83d 8cf2 ca3d 0aa3 143e
000000e0: 9f97 413e 78d4 0e3e 2178 d43d 23fa af3d
000000f0: b765 b43d d02f f03d 45fa 233e 7776 543d
00000100: 2e8d a1bb a790 253e 96ab 293e 9d5e 313d
00000110: c6ae 693e 7336 e63d 520c 3cbe f19c 20be
00000120: 09dc a8bc ff07 e63d 8e09 243e 5668 f13d
00000130: 4900 2a3c 7313 28bd 9fd1 453e b776 59bb
00000140: 9d14 dc3d 4d4a c13d b6d5 e83d 404e 403e
00000150: 5069 033e 9580 203d ac26 413e 1e7d 5bbd
00000160: b68c 8bbd ba0a 0d3e 76a2 9fbd f848 143e
00000170: d21b f53d e9d5 123e 8199 a33d 574c 573c
00000180: 83d8 513d 4753 1e3e 13da 153e f4e8 df3d
00000190: ead6 1bbc 90e9 8c3d 48ed 053e 30ce 32bd
000001a0: 9bae 253e 2c2d a8bd d79c 233e 55ec e73d
000001b0: 6602 5bbc 66c5 8e3d f2e5 003d dbe6 0f3e
000001c0: 452d fbbd 8139 c43c 3029 45bd a1bd 1bbe
000001d0: 0748 b73d 60cb 183e 9880 3a3e c6c0 0b3d
000001e0: 5129 e9bc bb2e f2bc e439 803d 4b35 133e
000001f0: 29c1 123e 677c 343e ef0b 043e 55af ee3d
00000200: 1a61 113e 78d4 ff3d 2558 d1bd 1ecd 503e
00000210: 54af 2c3e 14b4 7e3e 9008 533e 68dc 373e
00000220: 9877 7e3e c1c4 1a3e 82c3 843c 3fe4 473d
00000230: 39a8 763e c8c8 7b3d cd14 423e 78fc 2e3e
00000240: 4fac abbb ac37 6d3e 1097 473e 11b8 c13c
00000250: 0869 60bd b1b7 9a3d 0a1a 3a3e 8356 3e3e
00000260: b8da 913e c078 613e 828a 283e 1333 0bbb
00000270: 9f36 af3d 072a 7b3c 3992 423e b2d6 473e
00000280: 1314 bfbb 58dc 60bd 722f 02bc fa02 1c3e
00000290: ff67 873e bbde 4abd a420 693e 1203 1e3e
000002a0: dac6 0d3e 106a 09be f53e c0bd 20d9 71bd
000002b0: 92ec 693d 31a7 813e 42d4 abbb 0bcd 363c
000002c0: 8d2e 983e bd48 c43d 801a 173e eb54 f23d
000002d0: 1c88 4c3e 6186 d2bd e322 383e ed81 643e
000002e0: 29d1 883c 27ef 8b3e 6ba9 553e be09 8d3e
000002f0: fcf8 9d3d 1677 743e c7d3 8f3d dd65 00bd
00000300: 337f 4ebd 285c 233e c52b 863e 1f81 033d
00000310: c303 bbbd 0173 523e 1317 883d c979 e1bd
00000320: 7ebb 53bd 8ab0 483e 4456 823d de1e 513e
00000330: 8468 ff3d 1dd0 1d3e 9a98 1e3e 7909 853e
00000340: 25ac 423e 1299 1e3e a961 7a3e 4053 1f3e
00000350: 2cf5 3d3e 371a d33c 8779 3b3e 8526 3e3e
00000360: c0cd cebd 3047 3f3e 1adc 013e 2a3f 3b3e
00000370: 97f7 2d3e b4f6 693e 439d ba3d dd3f 5a3d
00000380: 1eb1 303e b99b 3c3e c55f 633e e1bb 753e
00000390: c1d0 db3d b0db 493e 9f82 843e fa21 8f3d
000003a0: a367 123e 84db fb3d 832e 473e df94 0f3e
000003b0: 8396 4e3e 040d 0e3e 2884 043e 5e07 0f3e
000003c0: 5469 823d 46f8 8f3b a493 143e 617e c03c
000003d0: 8e73 ff3d f582 1c3e fbdc 233e da39 033e
000003e0: d53d 1a3e 4a57 f73d c080 bd3c c816 433e
000003f0: dfdf 563e 4d51 583e 2eba 603e 9551 743e
0.030426504 0.077465884 -0.13612509 0.13866226 0.15193272 0.07113668 0.1173841 0.09083203
0.12398294 0.11941492 0.03682096 -0.12428452 0.15857422 0.16780068 0.1089432 0.14033838
-0.14455292 0.09915191 0.17831904 -0.109294586 0.03610869 -0.0827406 0.13276027 0.15236966
0.071226135 0.13200027 0.010924276 -0.051505346 0.053761456 -0.10478133 0.045432996 0.13431282
-0.098243326 0.068268724 0.06735793 0.09960849 0.0599724 0.069015846 0.094793476 0.08261075
0.015878757 0.21676756 -0.036481462 0.13085005 -0.13602887 0.15371428 -0.07923103 -0.002744258
0.073171385 0.08596834 0.008221424 -0.13616136 0.11707693 0.10565636 0.099095434 0.1451532
0.18905495 0.13948238 0.10374475 0.08592632 0.08808463 0.117278695 0.16013439 0.05187079
-0.00493016 0.16168462 0.16569361 0.04330312 0.22820577 0.11240854 -0.18364075 -0.15684868
-0.020612733 0.11231994 0.1601927 0.117874786 0.010376045 -0.041034173 0.19318245 -0.0033182332
0.10746119 0.09438 0.11368887 0.1877985 0.12833142 0.039185125 0.18862408 -0.053586118
-0.06813948 0.13773623 -0.07794659 0.1448096 0.11968197 0.14339413 0.07988263 0.013140759
0.051231872 0.15461455 0.1463397 0.10933104 -0.009511689 0.06880486 0.13078797 -0.043653667
0.16179888 -0.08211741 0.15977798 0.11324374 -0.013367271 0.069712445 0.031469293 0.14052908
-0.12264494 0.023953201 -0.048134983 -0.15209056 0.08949285 0.14921331 0.18213117 0.03411939
-0.028462084 -0.029563298 0.06261042 0.14375798 0.14331497 0.1762558 0.12895177 0.11654536
0.14197198 0.12491697 -0.1022189 0.20390746 0.16863757 0.24873382 0.20608735 0.17955172
0.24850309 0.15114118 0.016206507 0.048801657 0.2408761 0.061470777 0.18953247 0.17088497
-0.0052390466 0.23165768 0.1949122 0.02364734 -0.054787666 0.075545676 0.18173996 0.18587689
0.28487182 0.22018719 0.16459087 -0.002124016 0.0855534 0.015329844 0.19001092 0.19515494
-0.0058312505 -0.054897636 -0.007945882 0.1523551 0.2644653 -0.04952882 0.22766358 0.15430859
0.13845387 -0.13419366 -0.09387008 -0.059044957 0.057110377 0.2532287 -0.005243809 0.0111572845
0.29723015 0.09584186 0.14756203 0.11832603 0.19973797 -0.10279537 0.17982058 0.22315188
0.016701298 0.27330896 0.20865409 0.27546495 0.077135056 0.23873553 0.07022815 -0.031347144
-0.050414275 0.15953124 0.26205269 0.03210556 -0.09131577 0.20551683 0.06645026 -0.11009557
-0.05169248 0.19598594 0.0636411 0.20421931 0.12471107 0.1541142 0.154879 0.2598379
0.1901098 0.15488079 0.24451317 0.15559101 0.18550557 0.025769336 0.18308078 0.18569382
-0.100978374 0.186795 0.12681618 0.18285814 0.1698898 0.22848016 0.091120265 0.05328356
0.17255065 0.18418778 0.22204502 0.23997451 0.10733176 0.1971271 0.25880906 0.069889024
0.14297347 0.12297729 0.19451337 0.14021634 0.20174603 0.13872153 0.12941039 0.13967654
0.06367746 0.00439361 0.14509445 0.023497762 0.12473212 0.15284331 0.16002266 0.12815037
0.1506265 0.12077196 0.023132682 0.19051659 0.20983838 0.21124764 0.21946022 0.23859246

action_model._discrete_distribution.branches.0.bias f4 [2]
00000000: 83ee 843b 6658 84bb
0.004056753 -0.004038858

action_model._discrete_distribution.branches.0.weight f4 [2, 128]
00000000: 794b 253d 1233 183e 60e0 b8bd ea7a d23b
00000010: 3aa0 a23d 5a4e 8c3d 5c5e ac3d d87e 5c3c
00000020: 94b8 853c 8bd7 0ebd 6c25 e73c e6fe 9c3d
00000030: 965a 953a 4cda 373d 9e30 c23b 8c31 65bb
00000040: 80ed 253d fee5 fe3d 1363 d0bd b553 e8bd
00000050: 7c68 4f3e d0a2 0fbd 061c 443b f0cc 98bc
00000060: 4f60 823d 27f2 863d 0d85 ba3d cdb8 343e
00000070: 0bcb ddbd 1e02 bf3d 3e14 c0bd 79b4 cf3d
00000080: 5069 a93d 8704 0d3e 1a26 e3bc 5ac0 4f3c
00000090: 356c 5f3d 2837 c0bd b73c 283d 3c77 cbbb
000000a0: 0c5f 6d3d 6b31 543e 6a3e a53d aff5 cebd
000000b0: 8486 183e 4188 f3bc 000d 0fbd 58d3 403e
000000c0: c8b5 d03c d37b 98bd 48ec 033e 58ec 0b3e
000000d0: c655 433c 4a3e 0ebe 00b4 76bc cbec 923d
000000e0: 0642 0bbe e5ff 483c 7c9f 243d 682c 823c
000000f0: 8dae d43c 3541 a13d 734a d23d b98d 0cbc
00000100: e5c0 e6bb bec0 933d 49f7 e93c e835 2c3c
00000110: 5575 a53d 6fa4 483d ade1 a83e acb1 09be
00000120: 886c 513d 0363 e03d ea78 20bb 0ff8 373d
00000130: 9125 993d fa77 cf3c fb2f e5bd ea09 973d
00000140: 8faf 553d 58b5 8c3c 952a 493d 12ca b5bc
00000150: 7fd6 e23d 9d16 3b3e 72d1 dcbc 9672 24bd
00000160: 0eea 13be 6183 96bd ca41 ab3d a914 383d
00000170: 7dcb d4bc 423a b5bc 9807 dbbc e807 00be
00000180: 5413 733d 56c1 39bd e2ce af3a 95f1 e5bd
00000190: 394f 343c 9366 0c3c 9cd7 20bc 43ca 8bbd
000001a0: aea0 5b3d 9d06 a73c 23c2 8bbc 46c6 973d
000001b0: 90f5 013d f525 ad3d f1fc a0bc 0b3f 473d
000001c0: ecba 103e fcb8 293e efcc b0bb fea8 943d
000001d0: 0be7 1dbd 99a5 4a3d 7244 1a3d fc4d c73d
000001e0: b9e4 b83d b927 df3d 9077 babd b959 2e3d
000001f0: adfe 3b3d 6d31 e43c a71a af3c f5d9 2f3d
00000200: 8a0f d5bc e7ca 23be 73de be3d 6c9a ffbc
00000210: fb70 88bd 4d7f 28bd d338 c0bd 5c23 7cbc
00000220: 2aa1 d0bc 751d 623c aec1 f2bc 4d4d 7ebd
00000230: 6d51 553c e1b2 48bd e850 74bb d74b 483b
00000240: 0ffc 13bd 3370 efbd 7e01 9f3d 2377 e63d
00000250: 6468 5ebe a88c 143d 09df 393b d2a6 4d3c
00000260: 0dfc 36bd ef94 cbbd 4f33 d1bd 0f44 3dbe
00000270: 5c9f f83d 6d65 99bd d199 ca3d e4ac c8bd
00000280: 0313 9cbd 487b 0fbe 0d22 ec3c 068d 76bc
00000290: 6a78 4abd 3b35 ba3d 9501 3cbd 7106 633c
000002a0: 61a1 26bd 762f 5fbe a306 85bd 02c1 b23d
000002b0: 244d 12be 2f6c 113d 112a 833c 73b7 31be
000002c0: b8fc adbc 65d0 a83d 376a 04be f6cc 08be
000002d0: 48fc ecb8 8e8f fb3d f71f 823c 7126 88bd
000002e0: 7d12 023e 4b2c e13c 4689 42bc 2453 57bc
000002f0: 84d6 8bbc a79b bdbd d788 cabd d015 843c
00000300: 6d20 7dbc 1a63 92bd dba1 05bd 4a40 5f3c
00000310: 00b3 aebd 0415 69bd e1c3 b6be 989b 113e
00000320: 530f 3abd 0631 debd 6bfb f0bb 1cbb 87bd
00000330: d7d7 a1bd 055c 66bc d44d f93d c704 91bd
00000340: 3f42 3ebd 1b4e 88bc f7d8 1cbd eb6c 003d
00000350: c224 ddbd 93e5 47be c33c 023d 37e7 c23c
00000360: 0248 013e 5ca5 a33d c79e a7bd dcb6 f3bc
00000370: 0f41 d63c 5502 bb3c c055 013d 658c f33d
00000380: d5ee 3dbd bc4c 0a3d e85f 3abb 3802 ca3d
00000390: 73a0 12bd f76e 52bc 0b3a b43b c5e6 d13d
000003a0: 7eb8 9abd 62a2 30bd d895 483c 03cb a6bd
000003b0: fecf d6bc 80c8 8ebd 194a c43b 4a5b 89bd
000003c0: 8283 20be bed6 22be fd5d 5ebb ddce 8cbd
000003d0: 761b 403d 4b17 02bd 7be2 45bd ebe9 b2bd
000003e0: 901b f7bd d78f c1bd 10e6 b93d 1540 96bc
000003f0: 6241 07bd 3841 6abd 6dd0 b1bc e929 70bd
0.04035518 0.14863232 -0.09027171 0.006423344 0.07940717 0.06850882 0.08416435 0.013457976
0.016323365 -0.034873527 0.028216086 0.076658055 0.0011394795 0.04488592 0.005926206 -0.003497216
0.0405097 0.12446211 -0.10175147 -0.11344091 0.20254701 -0.03506738 0.002992393 -0.01865241
0.06366026 0.06589156 0.09107409 0.17648621 -0.10829743 0.09326576 -0.09378861 0.10141844
0.0827204 0.13771258 -0.02772813 0.0126801375 0.054546554 -0.0938552 0.041073527 -0.006209282
0.057951972 0.20721976 0.08068545 -0.10105454 0.14895064 -0.029728057 -0.034924507 0.18830621
0.025477305 -0.074454926 0.12883103 0.13664377 0.011922305 -0.13890949 -0.015057564 0.07174071
-0.13599405 0.012268041 0.04019116 0.015890315 0.025962139 0.078737654 0.10268106 -0.008578711
-0.007042038 0.07214497 0.028560298 0.010510899 0.0807902 0.04898494 0.32984677 -0.13446683
0.051128894 0.10956385 -0.0024486133 0.0449143 0.07477868 0.025325764 -0.11190792 0.07374938
0.05216938 0.017176315 0.049112875 -0.022191081 0.11076068 0.18270345 -0.02695534 -0.04014834
-0.14444754 -0.07349277 0.08362158 0.044941578 -0.025975937 -0.022122506 -0.02673702 -0.12503016
0.059344605 -0.045350395 0.0013413096 -0.11227719 0.011005216 0.0085693775 -0.00981703 -0.06825688
0.053620033 0.020388896 -0.017060345 0.074108645 0.031728327 0.08454505 -0.019651862 0.048644107
0.14133805 0.16574472 -0.0053955237 0.07258795 -0.038550418 0.049474332 0.03766293 0.09731671
0.090280004 0.10896248 -0.09104836 0.042566035 0.045897175 0.0278556 0.021375014 0.04293247
-0.026008386 -0.1599537 0.093197726 -0.031201564 -0.06662174 -0.04113703 -0.09385838 -0.01538929
-0.025467474 0.013800968 -0.02963337 -0.06208544 0.013019902 -0.048998717 -0.003727967 0.0030562782
-0.036129054 -0.11691322 0.077639565 0.11253192 -0.2171951 0.036266953 0.00283617 0.01255198
-0.044673968 -0.09940516 -0.102148645 -0.18482994 0.121397704 -0.074900486 0.098926194 -0.09798601
-0.07620814 -0.14011872 0.02882483 -0.015048271 -0.049431242 0.09092184 -0.045899946 0.013856516
-0.040681247 -0.21795449 -0.064954065 0.087282196 -0.1428724 0.035503563 0.01601127 -0.17355137
-0.02123867 0.08242873 -0.12931143 -0.13359436 -0.00011300348 0.1228324 0.015884383 -0.06647957
0.12702365 0.02748694 -0.011873549 -0.013142381 -0.017070062 -0.09258204 -0.098893814 0.016123682
-0.015449625 -0.071478084 -0.03262506 0.013626168 -0.08530235 -0.056904808 -0.3569632 0.1421951
-0.04542477 -0.10849194 -0.00735419 -0.06627485 -0.07902496 -0.014060025 0.12173048 -0.07080989
-0.046449896 -0.016638806 -0.03829285 0.031353872 -0.107980266 -0.1952117 0.03179623 0.023791892
0.12625125 0.07990524 -0.08184581 -0.02975028 0.02615407 0.02282826 0.03157592 0.118920125
-0.046370346 0.033764586 -0.0028438512 0.098637044 -0.035797548 -0.012843839 0.0055000833 0.10249094
-0.0755472 -0.04312361 0.012242757 -0.0814419 -0.026222225 -0.06971836 0.0059902784 -0.06706865
-0.15675166 -0.1590223 -0.0033930533 -0.068753935 0.04690119 -0.031760495 -0.04831169 -0.087360226
-0.12065804 -0.094512634 0.09077084 -0.018341104 -0.03302134 -0.057191104 -0.02170583 -0.05863372

network_body._body_endoder.seq_layers.0.bias f4 [128]
00000000: b4ee 213d b2fc 733c 2fc0 8b3c 66e4 213e
00000010: 0cb7 703d ba69 fb3d 453c fe3d ac2b b1bd
00000020: f75d 0b3e 2d5b 103c 817e 33bd ca59 833d
00000030: 6db8 413c 2c3b 1e3e c623 603d e10e 923c
00000040: 35ea 893d af14 1b3e 1535 5e3d 47c1 0c3d
00000050: a270 ce3d 8700 813d 82d5 093e 4e6f 0abd
00000060: 4de3 003e 3c1f 1a3e c394 75be 5c6a ea3d
00000070: 016d ca3d 2492 233e 2ba9 ff3d 4182 cebd
00000080: b5b4 de3d a494 87bc 2ea7 143e 4626 0d3d
00000090: 8ee5 fb3d 8892 183d a3be fd3d 70b6 0c3e
000000a0: 5f9f fc3d 0425 64bb aff4 2c3d a5eb f53d
000000b0: b6b9 093e 198a 863d f749 c73d c80e 253d
000000c0: 8a8d 1a3e a62e a93d 6999 593d 796b 15bd
000000d0: aa09 96bd 7848 193e 4207 063e 9cb1 203d
000000e0: 6e88 62bd e0a4 7d3d 98b3 92ba 92a0 013e
000000f0: a204 71bd 894b 393d c54e 9f3d dc90 7b3d
00000100: 1c83 a53c 13c6 ca3d 24cb f73d c2a1 ad3d
00000110: 6749 2b3e 0344 e83d f5a4 ae3c f479 183e
00000120: a798 063e ce0f d43d 2015 df3d fa81 403e
00000130: f2d7 d53d 71c2 5bbd 4e62 183e 64a2 e5bd
00000140: fe46 c73d cd13 f5bd 0f25 313e 6e8a 9c3d
00000150: 4fcf 263e 338b 163e ecd9 323e cd9c afbc
00000160: 468a fa3d 9c26 de3c d728 2c3e 6ed2 053e
00000170: 628b b8bd 989a 043d 1a61 d53d bdce 6a3e
00000180: dd06 e9bd 6176 22be 0bfa ab3d 73c9 f83d
00000190: 2f36 8c3d 15f0 a63d 3f0b c43d dcdd f33d
000001a0: f6e5 c0bd da39 463e 3177 ff3b aa7b 34bd
000001b0: dba6 a63d 085c 063c f9f9 06bd c28a aa3c
000001c0: e980 c53d 7082 883d dbb0 433d 5c71 43be
000001d0: 919d 13be 2e98 a2bc d22e b63d 91b3 693e
000001e0: d496 883d 09fb 7f3e f2fd 4ebe f536 a33d
000001f0: b77d 373e 9d84 273c 96d3 593d 690d 07bd
0.039534286 0.01489179 0.017059414 0.15809783 0.058768317 0.12276025 0.12413839 -0.08650908
0.13610063 0.0088108005 -0.043821815 0.0641361 0.011823756 0.1545226 0.054721616 0.01782936
0.067341246 0.15144609 0.05424984 0.03436401 0.10080077 0.06298929 0.13460353 -0.033797555
0.12586708 0.15050977 -0.2398253 0.11446068 0.09884072 0.15973717 0.12483438 -0.10083438
0.10874311 -0.01655037 0.14516899 0.03446033 0.122996435 0.037249118 0.12389877 0.1374147
0.12335085 -0.0034812102 0.042225536 0.12007836 0.1344975 0.06569309 0.097309045 0.0402973
0.15093055 0.082608506 0.05312482 -0.036479447 -0.07326062 0.14969051 0.13088706 0.03923188
-0.05530589 0.061924815 -0.0011192439 0.12658909 -0.05884231 0.04523805 0.07778696 0.061417446
0.02020412 0.09901061 0.12099293 0.084781185 0.1672722 0.11341097 0.021318892 0.14890271
0.1314417 0.10354577 0.10892701 0.18799582 0.10441579 -0.05365223 0.1488125 -0.11212614
0.097303376 -0.11966667 0.17299293 0.07643591 0.1629002 0.14701538 0.17465943 -0.021437073
0.12233405 0.02711802 0.16812454 0.13068554 -0.0901096 0.032373995 0.10418911 0.22930427
-0.11378262 -0.1586547 0.08397301 0.121477984 0.06846272 0.08151261 0.095724575 0.11907551
-0.094188616 0.19358006 0.007796191 -0.044063248 0.08137294 0.008200653 -0.032953236 0.020818118
0.09643728 0.06665504 0.047776084 -0.19086212 -0.14415576 -0.019847956 0.08895649 0.22822405
0.06669393 0.24998106 -0.2021406 0.079694666 0.1791905 0.010224489 0.0531803 -0.032971773

network_body._body_endoder.seq_layers.0.weight f4 [128, 17]
00000000: edc4 37be 2543 b0be 24c9 25bf a041 26bd
00000010: 42aa d1be ac91 a93e e121 ddbd 5f8d 62bd
00000020: b340 323d 28d7 1ebe 0267 143e 4307 2c3e
00000030: 9ae5 90be 64d1 813d 5924 423d fadb c6bd
00000040: 52e6 85be 4b23 bc3e 3515 653e 105c dc3e
00000050: eb21 36be a3c1 babd 18cb 86be c080 adbe
00000060: dfc7 9b3e 60c7 eebc 5f2e 33be d763 bf3b
00000070: ef5b 943e 27c4 263b 2e46 86be c243 cebe
00000080: 9530 63be fb78 a23d 99e9 b63e f8f0 2abe
00000090: dbed 9f3e 4e28 56bd d3cd e7be 6cd9 36bc
000000a0: 95ed f2be dd66 383e d428 01be 6717 aebe
000000b0: f7c5 8abc 2628 063e 79b7 01bf c3df abbd
000000c0: a5fd 29bd 3387 9b3e df43 82bd 86d5 113e
000000d0: 9b1c 64be cc82 9dbe 6791 f93e e5e8 b9bd
000000e0: de6d ac3e 2259 1fbe 7ecf 903d 0769 a13d
000000f0: 23d4 c83e 01ec eb3d 2099 9cbe 8c08 543e
00000100: 7d11 513e 4a75 d43d 4436 6c3e a236 9cbd
00000110: 215f 89bd b40d 33be f029 3f3e 19d5 fa3d
00000120: accc 993e 24aa 433e 720d 433e 2a26 a53d
00000130: d590 963e 6f64 7fbc c637 223e a492 df3e
00000140: a085 a3bd 150c 823e 3075 aebd fedc 503e
00000150: fd8a be3e f01a b03d 1e7d f0bb a7f0 96be
00000160: f379 e6bc ee4f 183c 5ca7 8f3e da82 193e
00000170: 0384 d53e 9352 be3e 05f2 193f 0b04 c93e
00000180: ab62 05bf 3197 51be 52ba ef3d 3cbe 46bd
00000190: 11dd 123f 7d95 343e 5773 5cbd 4086 fabd
000001a0: bf1a 57be 097a 1f3e 7ba4 87bd 9376 13bf
000001b0: 1fbc 923e bfc6 34be f92c 063e 6ccf 873d
000001c0: 1364 213e 77b9 5c3e 34f3 473e cf57 51be
000001d0: dd6e 47be 1a21 4abe 3fe8 ed3e 756b e7bd
000001e0: 9c48 12bf 222c 30be 78e3 553e a370 9f3d
000001f0: 6f46 5bbe b46a b43e 0555 0c3f d8d4 da3d
00000200: 97a5 2bbe bf96 603d 11d2 f43c 9577 3dbd
00000210: c1ae 123e 6042 c53d c3b5 e93e 8118 95be
00000220: 2a89 03bf 16f4 423e f44e a3be 60c4 b13d
00000230: 2431 1cbe 43bf 36be 7088 99bd 31ce a2bc
00000240: 1fc5 003d ef42 bebc 457a 2dbe 6c4c c9be
00000250: c49d 98be 54e7 f83d 855f b83d b457 52be
00000260: 4b83 0a3e d4ad b6be 73f5 e13e f866 cd3d
00000270: 1323 a63e 3ac0 7e3d 2669 313e 53e1 d23d
00000280: c5dd 17bd af41 183e 5b24 adbe b713 5f3e
00000290: 238a fa3e 4c37 2abe cf57 93be d7cb c63e
000002a0: f22a 76be 8bb7 a23e 7c85 02be a61a 4cbe
000002b0: 87c8 a2bd e7bc c8bc 469f 32be 7822 ed3c
000002c0: 5511 44be ebc9 50bd 76b6 1c3e 6d5a 7c3d
000002d0: f9d3 ccbe 8b65 9f3e a03b 22be 6e74 173c
000002e0: 3140 c03e 433d 6ebd d4d6 213d 79f3 cebe
000002f0: e4d8 c73e 2ddf b83e 17ca 193d 47f9 193e
00000300: 39d5 143e 899b 9dbe f52b 953d 0546 123f
00000310: fe64 003e edde 40be 2c95 48bc e654 5abe
00000320: 6edc 3c3d 5db8 58be f374 653e 625b 463f
00000330: f7a6 533d 59b7 c5bb cf6f 873e fdf0 61be
00000340: d1bc a1be 057b c1bc 398c afbe 630d e4bb
00000350: 9d3c 553e a07b 86bd 4ad7 87be dbc0 a63d
00000360: 0244 63bd 06fe 983d 5f46 6ebd c195 a63e
00000370: 4ca5 ab3a 1862 c3be 3742 d23c 3fa1 343e
00000380: 0dd1 853c 6c12 e63e 1c43 89be 3c3f ed3d
00000390: 3285 a43e 3228 9e3e cf9a 313c 805f 3b3f
000003a0: 1fc2 edbd c731 46be fa33 383e 5500 ec3c
000003b0: bff4 823e 9d03 f63e 46bf 21be d8bd 6d3e
000003c0: 3a2e dd3e 0bda 9b3e 327d 9c3d 168c b83d
000003d0: f7f7 b5be 84cd 0b3f 0914 5ebe 3b78 c7be
000003e0: 3e75 f0bd 3e6e a93d a9b0 d63d 0e5b 0e3f
000003f0: 707b 76be 2080 e2bd b017 cf3e 4453 ff3e
-0.17946215 -0.34426227 -0.6476004 -0.04058993 -0.4095021 0.3311895 -0.107974775 -0.055310603
0.043518733 -0.15511763 0.1449242 0.16799645 -0.28300172 0.06338766 0.047397945 -0.09709926
-0.26152283 0.36745676 0.22371371 0.43038988 -0.17786376 -0.091189645 -0.26326823 -0.3388729
0.30425927 -0.029147804 -0.17498158 0.0058407593 0.2897639 0.0025446506 -0.26225418 -0.4028607
-0.22186501 0.079332314 0.35725096 -0.16693485 0.31236157 -0.05228453 -0.4527422 -0.011160236
-0.47446886 0.18007989 -0.12613231 -0.3400223 -0.0169401 0.13101253 -0.5067058 -0.083922885
-0.04150166 0.30376586 -0.06360602 0.14241609 -0.22276537 -0.30763853 0.48743746 -0.09077624
0.33677572 -0.15561345 0.07070826 0.078813605 0.39224347 0.115196235 -0.30585575 0.20706385
0.20416827 0.103739336 0.23067576 -0.07627608 -0.067075975 -0.17485696 0.18668342 0.122476764
0.30038965 0.19107872 0.19048098 0.0806392 0.29407373 -0.01558791 0.15841588 0.43666565
-0.07984471 0.25399843 -0.085184455 0.20396802 0.37215415 0.08598888 -0.007339134 -0.29480478
-0.028134322 0.0092964005 0.28057373 0.14991322 0.4170228 0.37172374 0.6013492 0.39260897
-0.5210368 -0.20467831 0.1170546 -0.048521265 0.5736857 0.1763515 -0.053820934 -0.122326374
-0.21006297 0.15573896 -0.06623169 -0.57602805 0.2865915 -0.1765394 0.13103093 0.066313595
0.15760832 0.21555124 0.19526368 -0.20443653 -0.19475885 -0.1973919 0.46466252 -0.11299793
-0.57142043 -0.17204335 0.20887554 0.077851556 -0.21413587 0.35237658 0.5481723 0.10685128
-0.16762386 0.054831263 0.029885324 -0.04625662 0.14324476 0.09631801 0.45646486 -0.29120257
-0.5138117 0.19038424 -0.31896174 0.08680034 -0.1525312 -0.17846398 -0.074967265 -0.01987371
0.03143799 -0.023225276 -0.16941173 -0.39316118 -0.29807866 0.12153497 0.09002594 -0.20541269
0.13526647 -0.35679495 0.44132575 0.10029405 0.32448635 0.06219504 0.17325267 0.102968834
-0.03707673 0.14868806 -0.338168 0.21784864 0.48933515 -0.16622657 -0.2877793 0.38827392
-0.2403982 0.31780657 -0.12746233 -0.1993204 -0.07948404 -0.024504138 -0.1744357 0.0289471
-0.19147237 -0.050973814 0.15303978 0.061609674 -0.40005472 0.3113216 -0.15843058 0.009244068
0.37548974 -0.058163892 0.039511517 -0.4042013 0.39032662 0.3610777 0.037546244 0.15036498
0.14534463 -0.30782726 0.07283775 0.5713809 0.12538525 -0.1883504 -0.012242597 -0.21321449
0.046108656 -0.21164079 0.22407894 0.7748319 0.051672902 -0.0060338196 0.2645249 -0.22064586
-0.31589368 -0.02361823 -0.3428667 -0.0069596036 0.20823903 -0.06566548 -0.2653144 0.08142253
-0.05548478 0.07470326 -0.05817258 0.32536128 0.0013095527 -0.38160777 0.02566634 0.17639636
0.016335035 0.4493593 -0.26809013 0.115843266 0.3213287 0.30890042 0.010840132 0.73192596
-0.11609291 -0.19354926 0.17988577 0.028808752 0.2557735 0.48049632 -0.15795621 0.23216951
0.4319933 0.3043979 0.076410666 0.09011094 -0.35540745 0.54610467 -0.2168733 -0.38958916
-0.11741112 0.0827298 0.10482914 0.5560769 -0.24070525 -0.11059594 0.4044776 0.49868214

network_body._body_endoder.seq_layers.2.bias f4 [128]
00000000: 6fb4 323d d30a 0d3e 8b1e 94bc 910e d13d
00000010: 4ab1 493e 4acd 203e 4242 3a3e 98cf 913d
00000020: cd26 063e 09ce 873d c0bf 14bc e2af 803d
00000030: 76f8 343e e7a8 dd3b 5bc1 af3d 660f 343d
00000040: f52c 3b3d 18d0 263e fc6f d33d 4672 b43c
00000050: ba82 6dbd cb03 98bc 7d0c 0a3e 93f4 013e
00000060: ea38 013e 324d 2d3e a801 3d3d d4b0 13bd
00000070: aa7b f13c a670 603c 01ea 353d 8728 443e
00000080: 468e 2abd 5191 a5bd dbf3 f3bd 5ad2 883d
00000090: 371c 0b3e a257 033d db6d 2d3e efa8 913d
000000a0: 0f64 3d3d 0a83 073d 65fd d8bc db3e 303c
000000b0: 9439 023d ac5a 1a3e a5d0 09bd f97c 273d
000000c0: 0ba0 473e 8e28 c8bc 1ec7 ce3d 4e90 ff3c
000000d0: 98a8 143e 9e00 e93c b630 c93d 3800 103e
000000e0: fb81 963d 1fac 253e d4cf fc3d 6a85 143e
000000f0: 152a 9a3c 0bf8 2f3e bc46 413d 8c9c 9c3c
00000100: 3416 66bc 8d17 263e 60f1 0f3e 8a65 86bd
00000110: 01aa 2a3c bc8e ff3d 953f 023d f5e9 c13c
00000120: e5d0 93bd 3955 403e 13ed f03d 9d5f 223e
00000130: b8f6 9e3d d0f8 bc3c 8997 5e3d 9ea1 973d
00000140: 7709 c93d c5a6 733d 7414 123e 9b3d 173e
00000150: 4b28 3a3e c339 5f3d a17e ca3d 3e76 633c
00000160: 8c93 a2bd e25a 843d 027f 803d 6793 2c3e
00000170: 9720 c13d 0dbd 283e 1c95 cabc 2065 a03c
00000180: eacd 643d bfa3 363e 9b3a 0f3e 5e3d 333e
00000190: 5733 333d a202 3a3d 4406 153e e55c 7f3b
000001a0: 74c4 313e f55c 48bc 5c8a ed3d e1c6 083e
000001b0: 2c1c 5b3d 5b51 343d d4c0 db3c 0d88 053e
000001c0: ec88 d7bc 2ea5 b8bd 7c48 fd3c 0d89 cdbd
000001d0: c6d8 503d 7c26 ea3d a2ae 943d 1404 4c3c
000001e0: 8a2e b13d a4e9 6b3b a8bb bc3d 4339 d93d
000001f0: c3de 303e b431 553e cd21 073e f5d6 2f3e
0.043629106 0.1377366 -0.01808097 0.102078564 0.19696537 0.15703312 0.18189338 0.071196735
0.13100739 0.06631095 -0.00907892 0.06283547 0.17672905 0.0067645195 0.085818015 0.043959998
0.04569717 0.16290319 0.10324094 0.022027146 -0.057986 -0.018556496 0.13481326 0.12690954
0.12619367 0.16923979 0.046144158 -0.03605731 0.029477913 0.0136987325 0.044412617 0.19156085
-0.04163959 -0.080843575 -0.11911746 0.066807464 0.13584982 0.032065995 0.16936438 0.071123
0.046238 0.033083953 -0.026488015 0.010757173 0.031793192 0.15073651 -0.033646245 0.040890668
0.19494645 -0.0244334 0.10096572 0.03119674 0.14517438 0.028442677 0.09823744 0.14062583
0.073490106 0.1617894 0.123443276 0.14504018 0.018818894 0.17184465 0.0471866 0.019117616
-0.01404338 0.16219921 0.14056921 -0.06562336 0.010416509 0.12478396 0.031798918 0.02367113
-0.07217578 0.1878251 0.11763968 0.15856786 0.077619016 0.023067862 0.054343734 0.07403873
0.098162584 0.059485216 0.14265615 0.14769594 0.18179433 0.054498445 0.09887434 0.013883172
-0.079382986 0.06462647 0.06274225 0.16853105 0.09430044 0.16478367 -0.024729304 0.01957947
0.055860437 0.17835902 0.139872 0.17503878 0.043750133 0.045412667 0.14553171 0.0038965282
0.17360097 -0.012229194 0.115986556 0.13357116 0.053493664 0.0440229 0.026825346 0.1304018
-0.026310407 -0.090158805 0.030918352 -0.10035906 0.05098798 0.114331216 0.07259871 0.012452144
0.08651455 0.0035997415 0.0921548 0.10606625 0.17272477 0.20819741 0.13196488 0.17171843

network_body._body_endoder.seq_layers.2.weight f4 [128, 128]
00000000: 4364 f73d 33c0 5a3e 120b 683e a021 80be
00000010: 484d c33c bc4f 03be dc66 6abe 02a6 853c
00000020: 1b1e c43c e03b 9f3c 2884 11bd 3d5f b73b
00000030: 8102 163b 7c44 5bbc 49d8 213b b8f4 2e3d
00000040: 8c3b b03d ad26 71be 4790 153e 3eaf d73c
00000050: 79d7 e2bc 5e9b ae3c fab6 8abd 3be4 203e
00000060: 06c7 9c3d 76f9 433d a0f8 ab3d b3ce 843d
00000070: 1432 c3bd e8bf 163e 52ed 833c 3bfe 2d3e
00000080: c29b 1d3e 83f3 883d 2679 2a3e 8b06 103e
00000090: 0775 453d 98dd 4b3e 1b5d 67be 5f17 af3c
000000a0: d059 6d3d dcf4 10be 6bc6 adbd 0f16 183e
000000b0: 5d33 d03d 8db3 333e f936 163e f1eb b33c
000000c0: 4de3 4ebc acd4 0f3e 21d0 f0bd e3f6 283e
000000d0: 6e68 05bc 7494 32bb 9f80 30bd b0dd 5ebd
000000e0: 9441 843e 740e 113e 31ba a1bd 9a96 93bc
000000f0: 2416 a7bd f5e0 c8bc 4bb3 4fbc 8da5 d6bc
00000100: dac7 423e b124 2b3e c413 a03c 5509 9dbd
00000110: c0ed 053d 1272 57bd b007 17bd 4e39 15bd
00000120: bae1 0c3e 4dfe 983e b765 f33c 3462 443e
00000130: 2edd 6e3e 3039 14bd 0613 08be 8cb2 033e
00000140: ab9f f4bc e6a6 fb3d 1871 dc3c 139a 40bd
00000150: 589f fb3d 9632 973c 109e 343e 534c 08be
00000160: 0998 74bd 524c cc3b 4ac2 a2b8 8d55 42be
00000170: 1212 05be 19d1 23bb c686 8abd d8a7 82be
00000180: 09f8 c33d 9e9c 80bd 7e32 a33d 07a2 ca3d
00000190: a5fd df3b 3654 d13d 5ac0 243e 3a32 9bbd
000001a0: 3edb 35bc 0afa 0d3e 54c2 91bd 3a0f 8bbb
000001b0: 0f38 003e cd5b 9dbd f7c3 e33c a408 343e
000001c0: a4a8 973e 7317 e33d 6fdc 5e3e 0735 b1bd
000001d0: 32b2 293e f67b c23d 81f0 913d cefd 7d3e
000001e0: 1ecf 913c 9212 3f3c 4305 62be ea2a 18be
000001f0: 91cf 13bd faa8 113e 435a 763d fa4c 97bc
00000200: 8456 f7bd 8e79 6c3d b433 90bd 2986 713d
00000210: 3a04 593e 0443 583b dd6b 673e b67f 2c3d
00000220: f43d 18bd 3826 013d be06 543e 26ca cc3d
00000230: a338 18bd 1447 e33c 83ff 493c b431 043e
00000240: 75a6 d93c c787 3b3e 9c26 63be 0a4b 8e3d
00000250: 73e4 813e 0eb7 26bc 0f39 afbd 313b 0bbd
00000260: 1aed 663e 04c5 2b3e 115b 48bd a0e6 9ebd
00000270: f4ec 2a3e 5e22 4c3e 3941 323e 54f3 723c
00000280: 20e8 1a3e 82fe 84bd e9ee 353e 0ac6 39bc
00000290: 973f c53d 0ccd d4bd ae87 303b 7e6b 7f3e
000002a0: 91cb fb3c f5e6 e4bd b8f9 7ebe 743b 083e
000002b0: 3a36 c73d 9874 5e3d 6ff4 8e3c f184 89bd
000002c0: 2e67 e13d eb86 353e 82fe 95bd b932 83be
000002d0: e7c7 123e 915d b33d fe70 423e 7773 d53d
000002e0: 653e 9e3d 1b00 e83d 6d8b 213e 9733 96bc
000002f0: 6efd 253d a6c1 cc3d 4792 903e e2e5 933e
00000300: 231e 603c ac18 093e d1b0 8d3e 3c1a 97bd
00000310: e520 b13e bf3c 573d 27d9 a63d f0f7 043e
00000320: 060d 9b3e 7cd6 703d c5be 953e d482 153e
00000330: 29e9 ab3c db62 8f3d 155d ae3d 3322 d7bd
00000340: 4702 693e d1a7 003e 72d5 b73d 1a18 da3d
00000350: 5ace c0bd e584 ab3e c340 c3bd 58d9 e83d
00000360: 65a0 853d a43c 843d 6d4f 4cbd 613b ed3d
00000370: d70c ce3d 1e8b 373c c14f 203e ee50 7b3e
00000380: 94cd 3a3e cb3f d93d 5253 0e3e 7cd0 733d
00000390: 21a4 113e 945f 683e dc27 bb3d e223 8a3d
000003a0: 1e8b 5c3e 030a 913d 371e 963d ada2 10be
000003b0: 06d7 1cbd 6648 043e c121 783d af71 86bd
000003c0: b0ca 9eba 347e 303d 7620 d2bd e4ef d23d
000003d0: a467 e6bc 9465 ba3b ee7f f43c 5b3f 363e
000003e0: 5e1d 76bd 62f8 a13d ffc8 3a3e 5b46 a73d
000003f0: ed40 943e 6fcd 50be a8b3 0c3d 66e6 24be
0.1207967 0.2136238 0.22660473 -0.25025654 0.023840562 -0.12823385 -0.228908 0.01631451
0.023940137 0.01943773 -0.035526425 0.00559607 0.0022889676 -0.013383027 0.0024695566 0.04271385
0.08605108 -0.2354991 0.14605819 0.02632868 -0.027690636 0.02131432 -0.06773181 0.15712063
0.07655148 0.047845326 0.08397031 0.06484737 -0.09531036 0.14721644 0.016104374 0.16991512
0.15391448 0.06687071 0.16647777 0.14064996 0.04820731 0.1990875 -0.2259411 0.021373449
0.05794698 -0.14155906 -0.08485111 0.14852165 0.10166047 0.17548962 0.14669408 0.021963092
-0.012627435 0.14045972 -0.117584474 0.1650043 -0.008142574 -0.002724913 -0.043091413 -0.054410636
0.25831282 0.1416567 -0.07896841 -0.018016148 -0.0815852 -0.02452133 -0.012677024 -0.026201988
0.1902155 0.16713215 0.019540675 -0.076677956 0.03269744 -0.05259902 -0.036872566 -0.036431603
0.13757983 0.29881516 0.029711587 0.19178087 0.23326561 -0.03618735 -0.13288507 0.12861079
-0.029861292 0.12287693 0.026909396 -0.047021937 0.12286252 0.018456738 0.17638421 -0.13310365
-0.059715305 0.006234684 -7.760951e-05 -0.18977948 -0.12995175 -0.0024996458 -0.06763987 -0.2551868
0.09568793 -0.06279872 0.07968615 0.098941855 0.0068356567 0.1022114 0.16089001 -0.07577939
-0.011099635 0.13864914 -0.07117143 -0.0042437585 0.12521385 -0.07683525 0.027803404 0.17581421
0.2962085 0.11088457 0.21763776 -0.08652692 0.16571882 0.094963 0.071259506 0.2480385
0.017798956 0.011662142 -0.2207232 -0.1486012 -0.036086623 0.14224616 0.060144674 -0.018469322
-0.120770484 0.05773311 -0.070411116 0.058965836 0.21193019 0.0032998929 0.2259974 0.042113982
-0.037168458 0.03153059 0.20705697 0.09999494 -0.037163388 0.027743854 0.012328985 0.12909585
0.02656863 0.18313514 -0.22182697 0.06947906 0.25369605 -0.01017548 -0.08555805 -0.033991996
0.22551385 0.16774374 -0.048914973 -0.07758832 0.16691953 0.19934985 0.17407693 0.014828522
0.15127611 -0.06493856 0.17766918 -0.01133872 0.096312694 -0.10390672 0.002693634 0.24943349
0.030736716 -0.11176864 -0.24899948 0.1330393 0.0972714 0.05431041 0.01745054 -0.0671481
0.11006008 0.17727248 -0.07323934 -0.25624636 0.14334069 0.08758081 0.18988416 0.10422414
0.077267446 0.11328145 0.15775843 -0.018335147 0.040524893 0.09997873 0.282366 0.28886324
0.01367906 0.13388318 0.27673963 -0.07378051 0.3459541 0.052548166 0.08146887 0.12985206
0.30283374 0.0587983 0.29247108 0.14600688 0.020985203 0.07001277 0.08513848 -0.1050457
0.22754775 0.12564017 0.08976258 0.10649128 -0.094143584 0.33499828 -0.09533837 0.1136958
0.065247335 0.06456879 -0.049880434 0.11583591 0.10061043 0.011202602 0.15655424 0.24542591
0.18242484 0.10607871 0.13898972 0.059524998 0.14222766 0.2269271 0.09138462 0.06745125
0.21537444 0.07081988 0.07329982 -0.14124556 -0.038291 0.12918243 0.060579065 -0.06564652
-0.0012114849 0.043089107 -0.10260098 0.10299662 -0.028125592 0.0056883786 0.029846158 0.17797606
-0.0600866 0.079087034 0.18240736 0.08167716 0.28955784 -0.20390867 0.03435102 -0.16103515
