RollerAgent/Assets/Learn/RollerAgent_07.onnx (onnx, 81045 bytes, 9 tensors)

action_model._continuous_distribution.log_sigma f4 [1, 3]
00000000: 6fc6 83bf 0d11 81bf 5f2a 69bf
-1.0294932 -1.0083328 -0.9108028

action_model._continuous_distribution.mu.bias f4 [3]
00000000: 2670 bfbb 5c8d 713d a552 3c3d
-0.0058422266 0.0589727 0.045977253

action_model._continuous_distribution.mu.weight f4 [3, 128]
00000000: 399c 563d fcdd af3c a4da 8c3d 6ba5 4e3d
00000010: 9c9e 5f3d c741 183d b950 8bbd 0a07 bf3d
00000020: 8f10 ae3b 6b9f e4bc aab4 a4bd 7911 1dbc
00000030: 4750 a63d a991 b93c 0043 cdbd 0a3a 1e3d
00000040: 6398 8f3b bf36 5abc 61f9 bd3d 856e 4c3d
00000050: dce4 623c 9b52 a43d 583b b73b e377 4a3d
00000060: 4a4c 473d aa7a 423d 0e4a c83c fd71 cb3c
00000070: 3ac4 963d 1a7a cb3c c6eb 3d3c a8e4 e93b
00000080: 25f4 913d bd99 6b3d 7dcb 6abd c524 f83b
00000090: 300f 773c b6ad a83c 5dcf d3bd 6786 04bd
000000a0: 875e 323d 3b42 9b3d 7816 4abc 8f7c 833c
000000b0: 8ad1 6f3d d0e8 993c 82ca 993d c179 bd3c
000000c0: 6ffa 193b 19f0 34bc 1e2e 153d b6eb ddbc
000000d0: d976 fd3c a987 83bd 1d39 f3bd f15b f23c
000000e0: e9e9 033e 79e8 dd3c a16c 2d3d c8c1 b93d
000000f0: 3877 0f3d 4c7f e9bc 391a b83d 3d39 f33c
00000100: 5af7 0d3d 4a45 05bd 7e90 db3d 49e0 6e3d
00000110: bd77 b8bd 3dc1 91bc 9525 253c 6e47 173d
00000120: 248c 0e3d 0979 69bc 074c a0bd 4837 0dbc
00000130: 286e 74bd c53e df3d 528e 723d 8e82 53bd
00000140: 2c01 7d3d 6837 023d d78f b83d 67a7 b1bc
00000150: 95c7 7e3d 9017 06bd f8e3 eeba f5aa 0ebc
00000160: cd77 e0bd c34f b73b d8a3 dc3d 350b 21bc
00000170: d9ac f13d e799 80bc 8041 00bc e285 7b3d
00000180: 2a11 8b3d dcf4 bf3c 7ca9 fd3c 65d6 a23d
00000190: b5e8 c4bb 957a b53a 7f24 3bbc 1028 a23d
000001a0: 2c3a 033e 07e2 48bd bcb0 ca3c a8d2 9bbc
000001b0: 5bb2 20bc 0079 56bd 0dd0 153d e5af ee3b
000001c0: ef86 85bd f35e 5d3d 471c 383d 1309 ec3d
000001d0: 4dfe d5bc 1bdf 9a3c 0071 20bd 2336 0bbd
000001e0: 5258 b43d 825c e6bd 9cad 9f3d 1d6d 943d
000001f0: a025 19bb acc9 ed38 2b6e 023d d4ef fd3b
00000200: bf03 6ebc b5a0 adbd 43c8 08bd e2e0 6abc
00000210: f4bc 65bb b54f 793c afa5 ecbd f9a2 71bc
00000220: 1e87 0cbe 34b3 9d3d 532b 103d 81c2 7abd
00000230: a26d 05bc 912d 3e3b c0c6 ba3d c090 883d
00000240: ff16 433d c846 3fbc 94ad 713c 5190 62bd
00000250: c882 e9bd f59b 67bc 52a3 d2bc 64e6 a03d
00000260: f9c7 0c3d 0393 6d3c 7ab7 783d eacd 373d
00000270: 1f65 85bb 4da5 5b3d 6cb4 103a 1753 26bd
00000280: 6dd4 083d c59f 1dbb 0ac8 053d a2b7 2f3b
00000290: 6d24 55bd 8fec 9e3d a328 503d eff0 36bd
000002a0: b587 143d e732 8dbd 6037 51bd 9a54 043c
000002b0: 706e d7ba 9721 cabd ade4 8dbd e5b4 92bd
000002c0: e2f5 adbd e55b 273d d91f 2bbd 07a7 3e37
000002d0: 2c74 7f3d cbf0 a9bd b999 463d 2f6f 4b3d
000002e0: cc25 35bd 432f 15bd a163 013c 3f55 5dbd
000002f0: c31b 11bd 568c 7dbd ba24 3bbb 3e0b aa3d
00000300: 793b 70bd 8dd1 de3c 0a29 9a3c caed babd
00000310: 4fcd 4bbc 4a62 a9ba f56b 14be 2709 973c
00000320: e547 45bd 5fa3 103c 5422 66bd 0c69 99bd
00000330: c74c fc3c 732e 803d 6acd e3bc 80cf e2bd
00000340: 2504 e5bc 67d2 19bd 19de bdbc 6920 523d
00000350: 813d fd3c 9d0a 72bd b3ac 9c3d 63f5 c53d
00000360: d0f6 b4bb 131e fabc fdeb bcbd ac38 bdbd
00000370: f1ee ca3a a60c 2f3d eb7b e8bd 2bdb 7abc
00000380: 4dd2 f5bb 2b01 3f3d 4848 92bc 02fc c7bb
00000390: 4197 34bd 21e9 bc3c 25a8 663d 27b5 debd
000003a0: 6507 53bd 6e53 583c f76d 123d 43ae d83c
000003b0: 75b1 723c 7c49 1abd c375 4ebd 246b 55bd
000003c0: 6aeb 9f3c c497 f3bd c30f 89bd 0ede 763c
000003d0: b7f0 283d 9874 413d b7d6 0f3d 2d33 a1bd
000003e0: 422c a53c 01e3 b33b d465 21ba cac0 bc3c
000003f0: 56a6 b63d ef3b 7b3c 6c4b dcbb 2326 c83c
0.05239508 0.021468155 0.0687764 0.050450724 0.05459462 0.037172105 -0.06802506 0.093275145
0.0053120325 -0.027908048 -0.080422714 -0.009586685 0.081207804 0.022652464 -0.10022545 0.03862957
0.0043821796 -0.013318717 0.09276081 0.049910087 0.01384851 0.08023568 0.005591791 0.04943074
0.04865674 0.047480263 0.024449375 0.024834627 0.07361646 0.024838496 0.011591857 0.0071378537
0.07126645 0.057519663 -0.057322968 0.0075727426 0.015079305 0.020590644 -0.10342286 -0.03235474
0.04354718 0.07580992 -0.0123344585 0.016050605 0.05854944 0.018787771 0.075093284 0.023129346
0.0023495217 -0.011043572 0.036420934 -0.027089935 0.03094046 -0.064223595 -0.11876128 0.029584857
0.12882198 0.02708839 0.042339925 0.09070164 0.035025805 -0.028503083 0.089893766 0.02969038
0.03465972 -0.032536782 0.10720919 0.058319364 -0.09007213 -0.017792339 0.010079761 0.036933355
0.034801617 -0.014250048 -0.07827001 -0.008619137 -0.059675366 0.10900644 0.05921776 -0.05163818
0.061768696 0.03179112 0.0901181 -0.021686269 0.062202055 -0.032737315 -0.0018225899 -0.0087077515
-0.1096035 0.005594225 0.10773438 -0.009829332 0.11800546 -0.015698386 -0.007828116 0.061406977
0.06790383 0.023432188 0.030964606 0.07951049 -0.006009186 0.0013845736 -0.011422276 0.079177976
0.1281516 -0.04904368 0.024742477 -0.019021347 -0.009808148 -0.05236149 0.036575366 0.007284152
-0.06519877 0.05404563 0.044948842 0.11525168 -0.026122237 0.018905213 -0.039170265 -0.033987176
0.08805908 -0.11248113 0.07796785 0.07247374 -0.0023368374 0.00011338605 0.031843346 0.007749537
-0.01452726 -0.08477918 -0.03339411 -0.014335843 -0.0035055252 0.015216758 -0.11555039 -0.014748328
-0.13723418 0.07700196 0.035197567 -0.06122065 -0.008143814 0.002901886 0.0911994 0.06668234
0.047629353 -0.01167459 0.014750857 -0.055313412 -0.11401898 -0.014136304 -0.025712643 0.078564435
0.034370396 0.014500382 0.060721852 0.04487411 -0.0040708925 0.05362444 0.0005520049 -0.040606584
0.03340571 -0.002405153 0.032661475 0.0026812335 -0.05203669 0.07759964 0.050820004 -0.044663366
0.036262233 -0.068944745 -0.0510782 0.008076811 -0.0016436111 -0.09869688 -0.06928382 -0.07163409
-0.08494164 0.04085912 -0.04177842 1.1363772e-05 0.06236665 -0.08297881 0.048486445 0.04966658
-0.0442255 -0.036422025 0.007897289 -0.054036375 -0.035426866 -0.061901413 -0.0028555826 0.083029255
-0.058650468 0.027199531 0.018818397 -0.09127386 -0.012439086 -0.0012922969 -0.14494307 0.018436981
-0.048164267 0.008828013 -0.05618508 -0.07490739 0.030798329 0.062588595 -0.02780791 -0.11074734
-0.027956078 -0.03755417 -0.023177193 0.05130044 0.030913116 -0.059092153 0.07650127 0.096659444
-0.0055225864 -0.030531919 -0.09224699 -0.09239325 0.0015482587 0.042736672 -0.113517605 -0.015311043
-0.0075018764 0.046631973 -0.017856732 -0.0061030397 -0.04408956 0.023060383 0.0563127 -0.10874396
-0.051520724 0.013203485 0.035749402 0.026450282 0.014812817 -0.037667736 -0.050405275 -0.05210413
0.019521434 -0.11894181 -0.066924594 0.01506759 0.04124519 0.047230333 0.035116877 -0.07871089
0.020162705 0.0054897075 -0.0006156836 0.023041148 0.08918445 0.0153341135 -0.006722858 0.024432248

action_model._discrete_distribution.branches.0.bias f4 [2]
00000000: 51e2 503e 4fe2 50be
0.20398833 -0.2039883

action_model._discrete_distribution.branches.0.weight f4 [2, 128]
00000000: 1199 3b3d 99a3 af3d 380a 96bd 7c4d 0f3e
00000010: 7dbc 13be 6359 aebd 0293 c9bd f53c 3c3d
00000020: ab55 5bbe 6012 d6bd 46c5 f1bd f60c b8bd
00000030: 1c68 1dbe a747 463e af89 d5bc 3d01 c43d
00000040: 1a71 febd 98a0 73bd 8df3 f73c bac2 f0bd
00000050: a332 12be 1a4f a1bd fcbf f5bb ca51 d1bb
00000060: 7ea6 0b3d 8143 013e e0a1 ddbb 8c3f cbbd
00000070: 9074 43bd c4a2 03be 6f0b 7dbd 0512 ddbd
00000080: 6a91 f2bd 47d8 263d a38d 46be cd54 993d
00000090: dca1 17bd fbf0 eebd 309b 27be 82d9 853d
000000a0: c5d6 733d a75a ef3c 6f0e 1dbd 0aed 0f3d
000000b0: 6009 c03d ee5f 523d dafe 6fb8 13e2 283d
000000c0: aef3 16be ae8e 043c 0bf8 90bd 1840 ffbd
000000d0: 7889 05be 7d05 733c 8266 7e3c 18b8 c0bd
000000e0: d61a b63d 656e 4cbe b3d7 f73d 83f1 883d
000000f0: 71f8 cabc 9f7b 00be 0c92 04bd b161 16be
00000100: e2b5 653c ed04 05be 83a2 87bd c716 3dbd
00000110: 059e 6abd 4919 24be c4c0 dcbd 2a90 86ba
00000120: 50cc 87be 618a ee3d e883 2bbe dd60 703d
00000130: fd63 97bc 05a0 3dbe 728b 583d 093e a93d
00000140: f4c1 fcbd 2023 6cbd d9ec e3bd 9ead e13d
00000150: 25aa 15be 9a2d 76bc 2a0e 4d3c bc38 ce3c
00000160: 3b5d 733d 827e 56bd 485b 183e 131f 8cbd
00000170: fb94 b63c 2a69 fe3d 8b9b 31be 1caa 4cbe
00000180: 4af3 6cbd 428a 2abe 78c1 1cbd 989d 19bd
00000190: 01cd 8f3d 30dc d2bd 74b7 d4bb 3f2d 9e3d
000001a0: 2f0d 3abd 2c5d 6cbe 1a61 323d e23c a13e
000001b0: c8d3 0ebe 7306 edbc 07a1 59bc 1a2f 73bd
000001c0: 181f 543d 9328 52bd 4275 afbd 25fe 16bd
000001d0: 9505 cbbd e4ed 08be a9a7 f7bd 5718 00be
000001e0: 6815 4bbe aedf c2bc 7eeb cf3b 2cb2 1bbe
000001f0: fb9c 0dbd 8fa7 5abe 94ab c5bd b74f 223d
00000200: cf14 fdbc 548f bebd 9fb3 753d 53e6 0ebe
00000210: 53c5 1d3e 6778 b73d 5b00 013e dda1 efbc
00000220: 08b9 5a3e 355b d43d 6028 033e 1fb1 d63d
00000230: 4bfb 163e bc60 4dbe 354c 0d3d 3f5c c3bd
00000240: fe54 ed3d f8c4 843d a247 cebc 3cd9 d33d
00000250: 4678 0c3e 0426 b73d 5311 1b3c 3aea db3c
00000260: 8e7b 67bc 167a f1bd 9197 613c e893 b73d
00000270: 6f1d 3f3d 2bfa 033e 1b31 ae3d 4197 f43d
00000280: 96fb f43d 23af 09bd 94a8 443e 705a fcbc
00000290: ec1d 733c d275 053e 616f 223e 12c7 93bd
000002a0: 2f40 4fbd e9aa 59bd 1f1f c43c 4fd8 19bd
000002b0: 3beb c6bd 2504 63bd 0e7a 0ebc fd0a ddbc
000002c0: 6c1b 253e 91bb a4bc ae40 9a3d 43d5 003e
000002d0: 2ccf 043e c6e0 ebbb 3599 8dbc f1a7 a43d
000002e0: 9ad7 b9bd 5c88 5b3e 4055 cfbd fdd4 5cbd
000002f0: ae49 8b3c 0e0e dc3d f5ae 303d 2b03 0d3e
00000300: 1bf9 10bd 7933 0d3e e0f7 3d3d b4c3 473d
00000310: b9e0 d43c 6a5b 283e 8e44 f03d 4458 993b
00000320: 22dc 933e 89d0 d2bd 95a0 203e 0345 87bd
00000330: 9398 8f3b 3a5d 363e b686 72bd 700d b5bd
00000340: a1c3 073e 6305 663d 6d98 e23d 2d06 b9bd
00000350: d336 1b3e 56d5 5a3c 774d d9bb 247b f3bc
00000360: ff25 96bd 2161 5d3d 07a8 13be d99b 8c3d
00000370: a6ea 09bd 0bb6 0ebe 80ca 243e 0729 323e
00000380: a11a 6d3d 4e21 303e 5caa 433d 6137 223d
00000390: 4c00 7cbd 690a f03d e113 8ebb 4473 93bd
000003a0: 4394 333d 8fba 793e 6035 03bd 8648 99be
000003b0: 0cc8 033e 9409 d53c 71b9 523c 23a9 423d
000003c0: 4dda 60bd 62ca 393d 9ee9 ae3d 6022 b63c
000003d0: 0b86 a33d 0a92 f73d 1814 d93d 84ec 083e
000003e0: 0cc9 5a3e 5280 513c 41bb babc 9d50 163e
000003f0: 6d48 413d 2fd8 533e da09 bb3d 8a1d 11bd
0.045800272 0.08576126 -0.07326168 0.13994402 -0.14427371 -0.08513143 -0.09842493 0.04595657
-0.21419398 -0.104527235 -0.11805205 -0.08986847 -0.15371746 0.1936327 -0.02606663 0.09570549
-0.12423916 -0.059479326 0.030267501 -0.11755891 -0.14277129 -0.078764156 -0.007499693 -0.006387924
0.034094326 0.12623407 -0.006763682 -0.0992423 -0.047718585 -0.12855059 -0.061778482 -0.107944526
-0.11844142 0.040733602 -0.19389968 0.074868776 -0.037019596 -0.11667057 -0.16367793 0.06535627
0.059530992 0.029218031 -0.038343843 0.035138167 0.09376788 0.051361017 -5.721939e-05 0.041231226
-0.14741394 0.008090658 -0.070785604 -0.12463397 -0.13040721 0.0148328515 0.015527369 -0.09410113
0.08891837 -0.19963987 0.12101688 0.0668669 -0.02477667 -0.12547158 -0.032365844 -0.14685704
0.014020415 -0.1299016 -0.066227935 -0.0461643 -0.057279605 -0.1602527 -0.107789546 -0.0010266353
-0.26523066 0.116474874 -0.16749537 0.058686126 -0.018480295 -0.18518074 0.05286736 0.082637854
-0.12341681 -0.057650685 -0.111291595 0.11019443 -0.14615686 -0.015025521 0.012515584 0.025173537
0.059415083 -0.05236674 0.14878571 -0.068418644 0.022287836 0.12422402 -0.17344491 -0.19986767
-0.057849206 -0.16654304 -0.038270444 -0.03750381 0.07021523 -0.10295904 -0.006491596 0.07723474
-0.04542273 -0.23082417 0.043549635 0.31491762 -0.13947976 -0.02893374 -0.013283021 -0.05937109
0.051787466 -0.051308226 -0.08567287 -0.036863465 -0.09913174 -0.13371998 -0.120925255 -0.12509285
-0.19832385 -0.0237883 0.0063452115 -0.15204686 -0.034573536 -0.21352981 -0.096518666 0.039626803
-0.030893711 -0.093046814 0.059985753 -0.13955049 0.15407304 0.08958512 0.12597792 -0.029251987
0.21359646 0.10368959 0.1280837 0.10483002 0.14744298 -0.20056432 0.034496505 -0.09539079
0.115884766 0.06482881 -0.025180642 0.103441685 0.13717756 0.08942798 0.00946458 0.026845086
-0.014128579 -0.11790864 0.013769046 0.08963758 0.04665893 0.128884 0.0850546 0.11942912
0.11962049 -0.03361429 0.19204932 -0.030804843 0.014838677 0.13033226 0.158628 -0.07215704
-0.05059832 -0.05314151 0.023940621 -0.037559804 -0.097128354 -0.055423874 -0.008696092 -0.026982779
0.16123742 -0.02010897 0.07531868 0.12581353 0.12969655 -0.007198426 -0.017284969 0.08039845
-0.09074326 0.21438736 -0.10123682 -0.05391406 0.017002907 0.10744868 0.043135602 0.1377074
-0.035393815 0.13789167 0.04637897 0.04877062 0.025986062 0.16441122 0.11731826 0.0046797115
0.28878886 -0.10293681 0.15686257 -0.0660496 0.004382202 0.17809 -0.0592105 -0.088404536
0.1325822 0.05615748 0.11064229 -0.09034381 0.15157633 0.013356527 -0.006631549 -0.029721804
-0.07331466 0.054047707 -0.14419566 0.06865663 -0.033671044 -0.13936631 0.16092873 0.17398463
0.057886723 0.17200205 0.04776989 0.039603595 -0.06152372 0.117207356 -0.004335866 -0.071997195
0.043842565 0.24387573 -0.032033324 -0.29938143 0.1286928 0.026005544 0.0128615955 0.047524583
-0.054895688 0.045359023 0.08540653 0.022233188 0.07984551 0.120884016 0.10599536 0.13371474
0.21365756 0.012786942 -0.022794368 0.14679189 0.04718821 0.20687936 0.091327384 -0.03542856

network_body._body_endoder.seq_layers.0.bias f4 [128]
00000000: e9d4 ccbd 9aae 66bd c0e9 54bd 1944 51bd
00000010: c288 d43d 3a77 dabc 76b2 43bc f328 9fbc
00000020: ca97 fe3c 3a40 42bd 2bdc a1bd 32b0 41bd
00000030: 6245 41be a064 55be e855 35bd 63f1 eabc
00000040: f2a4 c53d 7cd3 683d 7508 213d 4e7c 2abd
00000050: 96f5 23be 97e0 2c3d a299 bdbd bbd4 01be
00000060: 24f3 f2bd 7500 81bd f638 98bd 934e 4ebe
00000070: c6f2 0bbe d021 34bb ad3c f5bd 9ee1 66b9
00000080: b4d7 a0bd faab 283d e19f fcbd 4c61 e6bc
00000090: 3ec5 77bd 23ed dfbd 3937 ff3c bdcc 9f3d
000000a0: c578 443e 3e37 5cbe 458f 533d 5d94 4bbd
000000b0: cfad dbbd 4996 b3bd 56a2 b5bd 817d ee3a
000000c0: 674d 94bd cc57 68be 0537 78bd 42cd f83d
000000d0: 7573 a9bd 3d42 483d fde7 1ebe e252 81bd
000000e0: 6477 653c 6884 bdbd 173d 55be b771 623a
000000f0: 86ed 44bb c208 04be 20bf d8bd e727 033d
00000100: 1ee2 e1bd a661 3abc 262d dabd bda3 1fbe
00000110: 4f54 b4bd 9da1 ebbd 5a45 1cbd 6781 b1be
00000120: 7cd9 f43c e97a d7bd 37c3 4abd e65c 75bd
00000130: 601c 743c 3eeb 5d3c 816a 0ebe 3e79 f63b
00000140: aa26 1fbe b109 1dbd 1113 bd3d 3bdd 5ebe
00000150: b51d 873d d9fa 06be 7617 143d 612e 93bd
00000160: f1b9 443d 5268 4f3e 5d8a 17be 55a6 26be
00000170: e095 3cbe 2e22 a7bd f8b6 3cbe 7fa7 c0bb
00000180: e020 bd3b 90ab dcbd 2a99 12be 7c6e 963d
00000190: 0091 323d 35b0 74bb 5168 00be 156b 28bd
000001a0: 1047 55bc 3beb 09ba 9e66 babd 5d86 c3bd
000001b0: 331c cfbd 615e 85bd 46c6 4dbd 5bd1 5fbd
000001c0: 18fd 6e3c 8a9e f0bd f75c 51be da18 08be
000001d0: 105f 97bb 9256 f3bd c9d0 1dbc 2d8a 013d
000001e0: 6835 173d 5d0f eebd 389d 63be fb45 683b
000001f0: 1de4 17bd 3125 49be e456 5ebd c7f8 2bbd
-0.10001547 -0.056318857 -0.051980734 -0.051090334 0.10377647 -0.02666818 -0.011944404 -0.019428706
0.031078238 -0.047424532 -0.07903322 -0.047287174 -0.18874124 -0.20839167 -0.04427138 -0.028679555
0.096506014 0.056842312 0.039314706 -0.041622452 -0.16011652 0.042206373 -0.09257819 -0.12678806
-0.11862782 -0.06298915 -0.074327394 -0.20147161 -0.1366683 -0.0027485974 -0.119744636 -0.00022018558
-0.07853642 0.041179635 -0.12335182 -0.028122567 -0.06049084 -0.10933902 0.031154262 0.078027226
0.19186695 -0.21505448 0.051650304 -0.049702037 -0.10726511 -0.08768899 -0.08868854 0.0018195362
-0.07241326 -0.22689742 -0.060599346 0.12148525 -0.08273975 0.048891295 -0.15518184 -0.06314637
0.014005516 -0.0925377 -0.20824085 0.00086381607 -0.0030048802 -0.12893966 -0.10583329 0.032020476
-0.110294566 -0.01137582 -0.10653143 -0.15589805 -0.08805143 -0.11505435 -0.038152076 -0.3466904
0.02988886 -0.1052149 -0.049502578 -0.059903048 0.014899343 0.013544856 -0.13907816 0.0075217774
-0.15542093 -0.03833932 0.09232152 -0.2176408 0.06597463 -0.13181628 0.036155187 -0.071865804
0.04802889 0.20254639 -0.14798875 -0.16274388 -0.18416548 -0.08160816 -0.18429172 -0.005879342
0.0057717413 -0.107749104 -0.1431624 0.07345292 0.043595314 -0.0037336473 -0.12539794 -0.041117746
-0.013017431 -0.00052611873 -0.09101604 -0.09547112 -0.101128004 -0.06512142 -0.050237916 -0.054643016
0.014586709 -0.11748989 -0.2044562 -0.1329073 -0.0046194866 -0.11881746 -0.009632298 0.031625915
0.036916167 -0.11624024 -0.22227943 0.0035442102 -0.03708278 -0.19643094 -0.054282084 -0.0419853

network_body._body_endoder.seq_layers.0.weight f4 [128, 17]
00000000: c605 413e 7870 edbe f1be eebe 8fec 443e
00000010: a5ce 4cbd e3b5 e43d c26b 423d f355 26be
00000020: 7a8a f23d 3b7d 88be 50b4 bb3c ee4f 18bd
00000030: 0a8c 1c3c 305f 7ebe 08a5 fc3d 8e38 18be
00000040: c348 603c 8aac 813c 41c4 bdbe 50e9 803d
00000050: d0f2 2bbe 499f 0fbe a917 383d e6b6 593e
00000060: 77f9 8fbe dab3 83bb 97ab f83c c4c3 f9bd
00000070: 90d6 cdbe 37e9 213e caaf 853e 5faa 27be
00000080: ccfb fa3a 42fb f13e fdcb b9bc 017b 13be
00000090: da75 903d ff89 c03d 7076 5c3b c604 64bd
000000a0: 74ba 86bc 9660 5ebe 2278 e63d fbf0 903e
000000b0: 010b 1cbf 7966 1ab9 b1f8 51be e551 24be
000000c0: 7f11 1dbe 5a29 123e bac5 f43e b99c 5dbe
000000d0: 73dd 8abe e7ba 843e 1a2e 45ba 42e3 2ebe
000000e0: 2565 22bd 05ea 47bd 7d11 9d3a 2bf1 2a3d
000000f0: d2cf 743d 721c a5bd f353 46bd 9af0 53be
00000100: c044 233e 60f6 b73c f92d 98bc 0c58 383f
00000110: 2e43 90bc f2cb c6bd dc01 913e 13b3 9c3d
00000120: 8fc8 44be c2d8 103f 5e45 673c c7dc 01be
00000130: 9c94 12be 40b3 863e 6a62 203e ad24 93be
00000140: b151 a43b 05fd 633d 8e24 b23e a2fd 4a3e
00000150: ecb4 063e 05e3 023e eeac a43d 281a 2c3e
00000160: ceca d73d f151 0cbe 4b05 2a3e d3c9 86bd
00000170: a77c d23d 4b62 7c3e 0064 48be 2aa6 033e
00000180: 3539 273f 297d 3d3d 6f9c 82be 922a 173e
00000190: a8a8 293d 8d7d 8ebe c981 8e3e c483 033e
000001a0: ea99 dc3d 95ec 573e bd9d c3bd 9c5b ddbe
000001b0: e1b0 bc3e 4e62 313f 5264 a13d e122 ebbe
000001c0: 2c0a 8abd 367f 983d ddf3 35be 46fe 7abe
000001d0: ec32 843d ead8 aabe d2d7 1b3e 191d a4bd
000001e0: 1fde 7c3e bcf6 923e 8d19 773e a959 813d
000001f0: e1d6 aabd 6457 403e b464 30be 5288 9dbe
00000200: e461 ebbd d1c5 d73d 8221 a5bd 345d e33d
00000210: 36a7 63be 30b9 63be d800 493e bdd4 eebe
00000220: 4dc7 d2bc de2e 82bc 57d5 103e 51bf 27be
00000230: 8833 15bf d1ca 4ebe ec4c 543e ddd0 d4be
00000240: edae d13e e4ce 2b3e d48c 78be 09ba 84be
00000250: 7d6f 303d 1352 ed3d f1ef 773e a86a 013e
00000260: 4afe afbe 28b8 33be f71f 68be 88ee 363d
00000270: d747 cebd 8e46 063e a42c 09be 108c 08be
00000280: 1e90 73bd d5a4 fc3d 6898 063c a23d 02be
00000290: 9bb6 7b3e 7449 303d 2ec1 8e3e 5b9a d03e
000002a0: 1405 20bf 6dd1 643e 34f0 a7bc 09b3 973d
000002b0: 5109 36be dd69 8d3d f132 413e eedd 30be
000002c0: 745c 403e f0d1 d4be fd7b 93bd 56b9 373f
000002d0: ee48 b9bd 6dfc cf3e 8f1e 383d e2d8 9939
000002e0: 3175 773c c54a 40be af98 873d e7b9 2b3e
000002f0: 39b7 c3be f0f4 e73c 3969 7abe fba1 a7be
00000300: 8e80 cdbd 7a3c 30bd 1dfa 053e 4c45 58be
00000310: 4786 12be 49d6 b13e 1f9d 53bd 6934 3bbe
00000320: 378c 1c3a 34f1 89be b438 e2be 9e78 9abe
00000330: 2b56 80be 6b2a acbe 4fa1 663e d069 113e
00000340: 9cf0 87be 06da 50be ae07 50bd ba8b efbe
00000350: 9896 39be bb1f 443e 5961 0d3e 14b7 ae3d
00000360: b31a bbbe 6eb8 6f3e d7dd e73d 2b65 763e
00000370: d008 50be 5494 ae3c ece8 fe3b 2f7e fe3e
00000380: f04c 89be c0ae 863d dfd3 463e 476d 23be
00000390: a8bf a0be 1f2a 843d 47b4 0cbd a7f5 e3be
000003a0: c140 f0bd c898 043e 5078 33be 0442 bd3d
000003b0: 8429 cb3d 377d 453d d4bd 07bc 8961 f63e
000003c0: f0d4 85bd 710f 853e 2455 45bd ca80 0dbf
000003d0: bb4b 7b3b 4b05 76be 9650 95be c500 24bd
000003e0: 2595 8abe aee2 1bbe f0c1 4ebe aa43 ed3d
000003f0: b2e9 ee3d 5f20 ebbc c112 793e c236 053e
0.18849859 -0.4637487 -0.46630052 0.19230865 -0.05000176 0.11167505 0.047466047 -0.16243725
0.118428186 -0.26658043 0.022913128 -0.037185602 0.009554872 -0.24840999 0.12336165 -0.14865324
0.013689223 0.015829343 -0.37063792 0.06294501 -0.16791844 -0.14025606 0.04494444 0.21261176
-0.28120014 -0.0040192427 0.030355258 -0.121955425 -0.4020276 0.1581162 0.2611068 -0.16373585
0.0019148528 0.47262007 -0.022680277 -0.14402391 0.070537284 0.09401321 0.003363993 -0.055668615
-0.01644633 -0.21716532 0.11253382 0.28308854 -0.6095429 -0.00014724759 -0.20505024 -0.16046865
-0.15338705 0.14273587 0.47807103 -0.21641816 -0.27122077 0.25923845 -0.0007521823 -0.1707888
-0.03964724 -0.048807163 0.0011983361 0.041733902 0.059768505 -0.08062066 -0.048419904 -0.20697251
0.15944195 0.022456348 -0.018576609 0.7200935 -0.017610159 -0.09706868 0.2832173 0.07651343
-0.19217132 0.56580746 0.0141156595 -0.12681876 -0.14314502 0.26308632 0.15662542 -0.2873892
0.005014621 0.05566122 0.34793514 0.19823316 0.13154954 0.12781914 0.08040796 0.16806853
0.10536729 -0.13703133 0.16603582 -0.06581464 0.10277682 0.24646871 -0.19569397 0.12856355
0.65321666 0.04626194 -0.25509974 0.14762333 0.04142061 -0.27830163 0.27833393 0.12843233
0.10771544 0.21086343 -0.095515706 -0.43233955 0.36853698 0.69290626 0.07880463 -0.45925048
-0.067402214 0.074461386 -0.17768808 -0.2451106 0.06455025 -0.33368617 0.15219048 -0.080133624
0.24694107 0.28703868 0.2413084 0.063159294 -0.08341766 0.18783337 -0.17225915 -0.30768067
-0.114932805 0.10535777 -0.08063032 0.111017615 -0.22231755 -0.22238612 0.19629228 -0.4664668
-0.0257298 -0.015891489 0.14143883 -0.16381575 -0.58281755 -0.20194556 0.20732468 -0.415656
0.4095377 0.16778141 -0.24272472 -0.25923184 0.043075074 0.1158792 0.24212624 0.12638342
-0.34373695 -0.17550719 -0.22668444 0.044661075 -0.10072296 0.13112852 -0.13395935 -0.1333468
-0.059463613 0.12336127 0.008215047 -0.12718824 0.24581377 0.0430388 0.2788176 0.40742764
-0.6250775 0.22345515 -0.02050028 0.07407195 -0.17776991 0.069049574 0.18867089 -0.1727216
0.18785268 -0.4156642 -0.07201383 0.71767175 -0.09047113 0.40622273 0.044951018 0.00029344024
0.015103624 -0.18778522 0.06620919 0.16770135 -0.38225725 0.028315037 -0.24454202 -0.3274077
-0.100342855 -0.043026425 0.13083692 -0.21120185 -0.14309035 0.347338 -0.051663514 -0.18281712
0.00059718214 -0.26941836 -0.44183886 -0.3017015 -0.2506574 -0.33626112 0.22522472 0.1420052
-0.26550758 -0.2039567 -0.050788574 -0.4678629 -0.18123853 0.19152729 0.13806666 0.08531013
-0.36543807 0.23410198 0.113216095 0.2406203 -0.20315862 0.021310963 0.0077792313 0.49705645
-0.2681651 0.065763 0.1941676 -0.15959655 -0.31396222 0.064533465 -0.034351613 -0.44523355
-0.11731101 0.12948906 -0.17526364 0.09241107 0.09920028 0.048215117 -0.008285005 0.48121288
-0.06534755 0.25988343 -0.0481769 -0.5527464 0.00383447 -0.24025457 -0.29163045 -0.040039796
-0.27066913 -0.1522319 -0.20191169 0.115851715 0.116656676 -0.02870196 0.2432356 0.1300917

network_body._body_endoder.seq_layers.2.bias f4 [128]
00000000: 7676 eebd 990b afbd 17d3 34be 2e54 bcbd
00000010: e920 ddbd 5278 d2bd 5dac 32bd 15f4 aabd
00000020: 6569 e8bc 30c6 cabd e2fb 8abd 2679 4ebb
00000030: e001 8bbc 51a0 24bd c37d a6bd c591 a4bc
00000040: bfc5 ffbc 9963 02be 1fef ebbd 965e 65bd
00000050: dd53 bdbd 40a5 d5bd 0c24 27bd 9028 7bbd
00000060: 294b debd 13d6 3bbd eccf a5bd 9bf8 adbd
00000070: 5d57 ebbd 7390 abbd bec2 d0bd 3d5e 33be
00000080: 4fa1 47bd 62cb 9cbd b71e 5bbb 12a5 9abd
00000090: 25f3 93bd 5840 c0bd 9ca5 83ba 1b05 66bd
000000a0: b5fa 163a 312c a7bd 1417 a3bd 84bf 0bbe
000000b0: 3425 46bd 32b4 c7bd b0ea 3ebd 4a59 d2bd
000000c0: 1b00 05be 998a d9bc c1ab 91bd 3f71 aabd
000000d0: e073 efbd 08d5 86bd 1ab7 f5bd 7125 f1bd
000000e0: dd16 89bd 8341 cdbd c1c7 5a3c 5b2d 8bbd
000000f0: a442 c2bd f6bf 2bbe 6b6e e53c 7633 95bc
00000100: 066b e7bd fc45 5fbd a19d 3cbd 33f6 f93c
00000110: 0e9d 69bd bd53 babd 3dfd 1abd 4d05 93bd
00000120: dd3d 9dbd 6abc 82bd b7aa 46bd 61ab 91bd
00000130: 05b0 8dbd 495e 70bd 1f5e c0bd 50e2 8dbd
00000140: 04f7 f2bd 9435 87bd 1408 0bbe 4725 b5bd
00000150: 8757 1cbd b9a7 1dbe b06a 38bd 9bac 59bd
00000160: 78c1 8e3d 019c ebbd 3ffc 38bd 1b8f e6bd
00000170: 5b15 20bd 5232 4c3c 8245 9abd 0e04 13bd
00000180: 5aa6 95bd 0614 4bbd 8bd1 cfbd 7020 4fbd
00000190: 6e42 9cbd ff55 e5bd 7dfb cbbd cabf a13c
000001a0: 5e0e 80bd 8d13 54bd ca5b 44bd e0b7 d73d
000001b0: 1a3f 11bd 7bb9 43bd 0989 d2bd 7d02 dfbd
000001c0: 9117 6f3c 9d83 aabd 7d03 8ebd c0f6 83bd
000001d0: ec29 64bd 8096 83bd effa 8fbd 6b86 33bd
000001e0: dbc8 5abd 4a0a 1bbd a966 adbd 2d4e 17be
000001f0: 07f3 febd 1797 57bd 72b0 a8bd b284 f3bc
-0.116436884 -0.08547134 -0.1765865 -0.091957435 -0.10797293 -0.102768555 -0.04362141 -0.08347336
-0.028370569 -0.099010825 -0.06786324 -0.0031505316 -0.016968668 -0.040191952 -0.08129456 -0.02008904
-0.031222222 -0.12733306 -0.11520218 -0.055998407 -0.09244511 -0.104319096 -0.04080586 -0.06131798
-0.108541794 -0.045858454 -0.080962986 -0.08494683 -0.114912726 -0.08377161 -0.10193394 -0.17516418
-0.04873782 -0.0765598 -0.0033435056 -0.07551016 -0.072241105 -0.093872726 -0.0010043862 -0.056157213
0.0005759404 -0.08162726 -0.07963386 -0.13647276 -0.048375323 -0.097511664 -0.046610534 -0.10270937
-0.12988321 -0.026555346 -0.071128376 -0.08322381 -0.11692023 -0.06583601 -0.119978145 -0.117747195
-0.06693814 -0.10022261 0.013353289 -0.0679576 -0.09485367 -0.16772446 0.028006753 -0.018213015
-0.1129971 -0.0545101 -0.046048764 0.030512905 -0.057034545 -0.09098003 -0.037839163 -0.071787454
-0.07677815 -0.063835934 -0.04850265 -0.07112766 -0.06918339 -0.058683667 -0.09392952 -0.06927931
-0.11863521 -0.06602016 -0.135773 -0.08845001 -0.03816941 -0.15396012 -0.04502362 -0.053143125
0.06970495 -0.11504365 -0.045162436 -0.11257764 -0.039082866 0.012463169 -0.07532789 -0.03589254
-0.0730712 -0.049579643 -0.10147389 -0.050568044 -0.07629858 -0.11198043 -0.09960077 0.019744772
-0.0625274 -0.051776458 -0.0479391 0.10533118 -0.03546057 -0.04778431 -0.10280044 -0.108891465
0.014593021 -0.083258845 -0.06934259 -0.06443548 -0.055704042 -0.0642519 -0.07030284 -0.043829363
-0.053414207 -0.03785161 -0.084668465 -0.14775915 -0.124486975 -0.052634325 -0.08236779 -0.02972636

network_body._body_endoder.seq_layers.2.weight f4 [128, 128]
00000000: ca5c abbd 5501 823d b18e 1cbe 4e92 6c3d
00000010: 0f82 9e3c ae2c 69bd 90d2 0d3d 2f1c 6f3c
00000020: 303a 59bd c9a1 e43c 4728 d5bd 1d3e 033c
00000030: 1bb3 a0bd ac68 ec3d 36c5 083a f73f 383e
00000040: 2ea5 22be 523d 9dbe 6beb 36bd 1142 40bc
00000050: 4c36 3c3d 1b6f 97bd b8f8 a13b 316e 4a3d
00000060: 8152 b5bd e2c2 40bd bcc7 bbbd 8f9e 62bd
00000070: a2fc 2b3c a15c 3ebe d0f4 743e 012b d4bd
00000080: e177 6fbe 9744 f0bd f9a8 d7bd 867b 36be
00000090: e79e 4fbe 4033 abbe f894 2a3d 84eb 89bd
000000a0: 318b 033e 5a49 8ebd f395 3fbe e2c8 06bd
000000b0: e579 ea3c 27b4 86bd f3a5 5cbe 5bbb 83bd
000000c0: ec32 273e cc23 70be feb4 39be 3fea e6bd
000000d0: 2009 f9bd 56f7 84bd b402 983c a369 37be
000000e0: 3c40 e0bd 1d3d dc3d 1c22 86bd d49d 413c
000000f0: db87 c93d 4e0c 80bc 571c b03c f99b 25bc
00000100: bdc5 b8bd 33df 55bd 0f61 293d 45f1 673c
00000110: 0387 82be ef45 ca3c d1f6 a43c db64 85bd
00000120: e30b adbd d862 e43d 74d1 83bd 6226 f13d
00000130: 3c42 c5bc 564d f3bc f10d 4ebe e575 d2be
00000140: 9951 2e3e f2f9 b8bd 0d6b 89be 5ec3 32be
00000150: faa0 a7bc a309 c1ba a447 e53d 3ee9 94bd
00000160: 0748 14be 854f 1f3e b53c 00be d654 dbbd
00000170: a8ca dcbd 1535 bc3d 7a8a f3bc e5b3 fcbd
00000180: e1bf 613d 5805 3fbd 60e8 56bc c057 a2bd
00000190: 75b0 15bd bef0 d23d d3bb b4bd 66bf 39bd
000001a0: ca46 d2bd b0b0 99be 2002 c33d baa5 39be
000001b0: 94aa 403e c8cb e7bd 95d5 a13d 01c7 44be
000001c0: 4634 39bc 1f9b ebbd 834b 9e3d d052 0dbe
000001d0: 4c77 c43b 7585 6fbd d04b 84bd 1702 cfbd
000001e0: 34a5 a2bd 272d 043c ce5e edbd d4b1 a0bd
000001f0: a7a4 9abc 6fed 743d 6f88 d23d dd8d 663d
00000200: bdd0 0cbe 903d cebd 6e68 7d3d 4667 263c
00000210: a448 bebe bacb e2bd b660 873d a43b 08bc
00000220: bdcd 613c 1eb3 9cbd baf5 a2bc f9cc 7b3d
00000230: 5196 99bc 2e5f d2bc b47a c7bd c2f6 aabe
00000240: f05e 7cbe 90d1 a1bd a1c1 4f3d 6bac 5bbe
00000250: f2fa 19be f286 9cbe 91ed 74bd 7bb3 96bd
00000260: 5865 83be 84ee e33b c7a8 e0bc 2563 293d
00000270: 0528 31bc 8da3 f8bd d5ff 8dbd 2754 083d
00000280: 8e36 2b3d d3c7 cfbb ced7 0f3e 667d 0cbd
00000290: 7ddc ed3b 6be2 53be 2206 73be 1d42 3bbe
000002a0: e315 8d3c 31de 7abe 4e4e 76be fc06 1cbe
000002b0: 2c1f 5d3d 0c23 8f3d a932 47be 69e2 893d
000002c0: cff6 86bd 7772 81bd 5e3a bfbc b001 97bd
000002d0: e52b 97be 00f8 88be 4f1b 873d 5d52 b6bd
000002e0: bca3 1f3d 0de1 00be f4e8 c4bc b811 7abe
000002f0: e342 1bbe 7394 b0bd 1bc5 4abe 9d9f 51be
00000300: 65c5 31bc 3808 5f3d cbdc ab3d 2995 2c3c
00000310: f987 edbd cd84 0bbe acf6 42be fee1 ce3d
00000320: cdb5 6fbe 4a7c cbbd b05b 12be 6ef7 ef3d
00000330: 13ba 08bd 5d71 e2bd ee81 233e 4fbc cabb
00000340: 66f6 073e 57f4 49be f90c 053d 61fd c93c
00000350: c03b 21be b615 df3d 1023 a7be 103f d1bd
00000360: 21f1 65bd 9d90 833d 6f56 71bd 1183 58bd
00000370: 200e 7d3c 586a 183d 2688 153e a46e 873d
00000380: 2f9e c2bd 079e 83bd 5f16 63bb a84a eabd
00000390: 0d57 a7bd ef53 dabd 04b2 6dbe 68ce 3fbe
000003a0: faa0 a2be 5d09 a9bd 7818 973c 0a4b b13d
000003b0: 1bc6 c3bd 5e0d 163d 3440 64bc 509e 03be
000003c0: f93e 07be 86bf 173d 950c 3cbd 214a 26bd
000003d0: 6b2b 1bbe dfaf 76bd 94a9 163b 8b36 54be
000003e0: 401a 7ebd 96c5 1d3c 5d08 f7bb 349f 24be
000003f0: c836 36be 9d38 983c 6451 a4bd 6ea4 d2bd
-0.083673075 0.0634791 -0.15288807 0.057756715 0.019349126 -0.056927375 0.034624636 0.014594122
-0.053034008 0.027909176 -0.10408073 0.008010414 -0.07846662 0.11543402 0.0005217375 0.1799315
-0.15883324 -0.30710846 -0.044658106 -0.011734501 0.04595022 -0.073942386 0.0049429797 0.049421493
-0.08853627 -0.047060855 -0.09168956 -0.055326995 0.010497244 -0.18590023 0.23921514 -0.10359765
-0.23385574 -0.117318325 -0.10530276 -0.17820558 -0.2027546 -0.33437538 0.041645974 -0.06734374
0.12846066 -0.069475845 -0.18709545 -0.03290642 0.028622577 -0.0657733 -0.2154768 -0.064322196
0.16328019 -0.23451155 -0.1813545 -0.11275148 -0.121599436 -0.06492488 0.018555976 -0.17911391
-0.10949752 0.10753844 -0.065494746 0.011817414 0.098403655 -0.015630867 0.021497888 -0.010107988
-0.090220906 -0.052214812 0.041352328 0.014156644 -0.2549363 0.02469155 0.020137222 -0.06513377
-0.08449533 0.111516654 -0.064364344 0.11774899 -0.024079435 -0.029699963 -0.20122506 -0.4110557
0.17023315 -0.09032048 -0.26839486 -0.17457339 -0.020462502 -0.0014727603 0.11195305 -0.0727105
-0.14480601 0.15557678 -0.12523158 -0.107095405 -0.10780841 0.09189812 -0.029729117 -0.12339
0.05511463 -0.046635956 -0.013116926 -0.07926893 -0.036545236 0.10299824 -0.08824887 -0.045348547
-0.10267408 -0.30017614 0.0952189 -0.18129626 0.1881507 -0.11318165 0.07902066 -0.19216539
-0.011303967 -0.115041964 0.077292465 -0.13801122 0.0059956666 -0.058476884 -0.064597726 -0.101078205
-0.07941666 0.008067406 -0.11590348 -0.07846418 -0.01887734 0.059796747 0.10279929 0.056287635
-0.13751502 -0.10070336 0.06186717 0.010156458 -0.37164795 -0.11074014 0.06610243 -0.008315001
0.013781962 -0.076513514 -0.019892562 0.061474774 -0.018748434 -0.02568015 -0.09740201 -0.33391386
-0.24645591 -0.07901299 0.05072177 -0.21452491 -0.15037134 -0.30571705 -0.059796873 -0.07358452
-0.25663257 0.0069559235 -0.02742423 0.041354317 -0.010812764 -0.1214057 -0.06933562 0.03328338
0.041800074 -0.0063409596 0.14047167 -0.034299277 0.0072589503 -0.2069184 -0.23732808 -0.18286939
0.01722235 -0.24498822 -0.24053308 -0.1523704 0.053984806 0.069891065 -0.19452919 0.067326374
-0.06590044 -0.063206606 -0.023343261 -0.07373369 -0.29525676 -0.2675171 0.065970056 -0.08902428
0.03897451 -0.1258585 -0.024036862 -0.24420822 -0.15162234 -0.086220644 -0.19801752 -0.20471044
-0.010850285 0.054451197 0.08391722 0.010533609 -0.115982 -0.13624878 -0.1903941 0.10101698
-0.23409195 -0.09935816 -0.14292789 0.11717115 -0.03338058 -0.110567786 0.15967533 -0.006186999
0.13277587 -0.19722115 0.032483075 0.024656953 -0.15745449 0.10892813 -0.32643938 -0.10217106
-0.05613816 0.06424067 -0.05892032 -0.05285937 0.015445262 0.037210792 0.14602718 0.066129
-0.095028274 -0.06426626 -0.0034650785 -0.11440021 -0.081709005 -0.1066054 -0.23212439 -0.18731081
-0.3176344 -0.08253739 0.018444285 0.08656891 -0.0955927 0.03663384 -0.013931323 -0.1285336
-0.13207616 0.037047885 -0.045910437 -0.04059804 -0.15153281 -0.060226317 0.002298926 -0.20723931
-0.062036753 0.009629628 -0.007538839 -0.16076356 -0.17794335 0.018581683 -0.080233365 -0.10285269
