RollerAgent/Assets/Learn/RollerAgent_09.onnx (onnx, 81045 bytes, 9 tensors)

action_model._continuous_distribution.log_sigma f4 [1, 3]
00000000: c27b 77bf b941 75bf dfcb 60bf
-0.96673214 -0.9580341 -0.8781108

action_model._continuous_distribution.mu.bias f4 [3]
00000000: b17f a4bd 797a d4bd 6c39 d3bd
-0.08032168 -0.10374922 -0.10313687

action_model._continuous_distribution.mu.weight f4 [3, 128]
00000000: 618c 193c 5682 b73b 7227 e9bc 4278 e13a
00000010: 44cb c73c 6833 56bb 05b3 ba3b cad4 04bd
00000020: 6fb9 2abd dab9 88bc f775 ddbc f29e a0ba
00000030: 4bba a9bc cb45 debc dcd6 363c 8f5f c6bb
00000040: 296a 823b 0aa6 02bc 557c 6a3c cfef 4ebd
00000050: 98e3 863b 2e3d 623c 7556 e9bc 51e5 6f3c
00000060: 8aab 9e3c 7da3 40bc 53eb 7c3c 1495 e0bc
00000070: 9b08 febc 1b4c 213c 35af c0bc a5c1 68bc
00000080: 3885 9a3b 56ee ecbc 70ee 53bd 709d adbc
00000090: d218 333d 9368 083d 1f71 0fbd 6b2d 4abc
000000a0: 92fb b93c fdae e13c e6fa 13bd 12b3 463d
000000b0: 0624 0ebd 71c7 c53c 7b4d 68bc 8b51 a1bd
000000c0: b384 bdbc 6595 f7bc 0fb5 24bd d011 a93b
000000d0: 0538 27bd f23c d73c ba2d cdbc 5f5b 84bc
000000e0: 75fa 3bbc 63a2 20bd eadb 663d 8f58 6dbc
000000f0: ff15 b3bc db32 2abd 499c 75bc e386 0fbd
00000100: 3efa 2e3c 516e 81bc f058 873d 189e 093d
00000110: dda2 12bc 606a 6abc 9e58 02bd 8161 5abb
00000120: 7b4a 08bd e4e0 acbc 1bc9 5b3d 12dd 64bd
00000130: 40dd 92bb 861f 06bb cb99 873b 12f9 7a3d
00000140: f879 593b 20f0 fd3a 0abc 21bd 1730 67bd
00000150: 9c57 95bc cc43 02bd 170f 28bd 42e9 b6bc
00000160: c93b 5ebc f96b 543c e0cb 20bd 68b9 dabb
00000170: 268b 433c 4720 9a3b 08e0 dfbc 22d3 663a
00000180: 7c7e 843d 2b22 43bc 299e 2ebb f06f 59bd
00000190: 17b3 bb3c 92bf f93c ce99 8abc 8ce4 47bc
000001a0: a7af 0ebb f6d8 d63c dce8 d73c 6bee 12bd
000001b0: 1aa2 94bb bc7a 8abb 5d48 27bd 31ea 0b3d
000001c0: d8f4 56bd 5f46 22bd b69e a3bc 9321 d83b
000001d0: d3c5 e4bc be43 1fbd d319 633c 39cf 1bbd
000001e0: 9ff1 a73c bbf8 eebc 09a8 b6bc 91a3 343d
000001f0: 97ac 443c 4b72 42bc 500a 263c 4e84 8e3d
00000200: 42ff e2ba e15c 9ebb 73de 8b3d f392 643d
00000210: 26ed 303c 4aa2 683b 9d98 e0b9 3cbc 1e3d
00000220: fde8 523c 17f4 153d 2792 d63c 42df af3c
00000230: c1d1 f33c 71a7 613b d215 b93d f9f0 903c
00000240: 9485 5c3b 708e 683c e0ca fe3a 7e36 a83b
00000250: fa8c 013c 7d4d 663d 09a4 663c 135b 953c
00000260: a936 163b d419 103d 2e5a 833b 83e6 f13c
00000270: dc69 913b c470 8a3c 8fda 6f3d c0c3 df3b
00000280: 64df 9cbc d0ee d83c 08d7 813d c7b7 8e3c
00000290: fc54 b23d 95a7 2b3c d8e2 dbbb 835c 473d
000002a0: 4ec1 cb3c fecf 213d df29 ce3c d2d4 703d
000002b0: 0417 2e3d 7866 663d 507a 3a3d ee46 723d
000002c0: c5a4 5e3d f5ab 7e3c 1a3a 573d ab88 293d
000002d0: 1a17 853c b802 043c 2e12 b43b d3a8 1b3d
000002e0: d436 e23c e1fe 913b d52f 2cbb a80a b83c
000002f0: d3f9 4b3c c7cf 783c 476b 093d 4869 17bd
00000300: 812e 8bbc 1460 143b e61e 873d 16ba 953c
00000310: 6b98 a03d d924 d0bc ff01 583d 0564 bd3c
00000320: 0d1b 123d 26b0 5c3d 1fe5 8b3b 4e29 933d
00000330: 74ab 173d 354e 3a3d 7bfd 033c 76f8 433c
00000340: 26b5 293d cebb 5bbd 3707 bf3d ba99 163d
00000350: f999 80bd d07f 51bc 18fb fcbc 8312 883c
00000360: b990 9d3c 748a 8b3b 3f7d 583d 4ea8 263d
00000370: dfe1 8d3c 1491 bc3c f7f3 173d 8c18 833b
00000380: dc8a 833d 9ac5 743d 3955 343c addb a13c
00000390: 523e e03b 04b9 4ebb de16 7f3c 33a2 623d
000003a0: 334d ea3c 666f 14bc a428 563c dfa4 41bc
000003b0: 1f44 023d cf92 cbbc 52f3 a73d 1a3f 033e
000003c0: b991 cc3c e13a b83b dfcb f33c 605e 1c3d
000003d0: cdd3 013d 026b ab3b 8aba 443d 5a10 273d
000003e0: 923a 7fbc 2676 46bd 2a27 103b 9f70 af3c
000003f0: 0629 7ebb 11b0 163d 7c9e 2bbd 901e b6bd
0.009371848 0.005600254 -0.028461192 0.0017201977 0.024388917 -0.003268445 0.0056976103 -0.032429494
-0.04168075 -0.016690183 -0.02703379 -0.0012254401 -0.020718714 -0.02713289 0.011159625 -0.006053872
0.0039799404 -0.007974157 0.01431187 -0.050521668 0.0041164868 0.013808532 -0.028483609 0.014642076
0.019368906 -0.011757729 0.015436965 -0.027414836 -0.031009963 0.009844805 -0.023521045 -0.014206325
0.004715588 -0.028922241 -0.051741064 -0.021193236 0.043724842 0.033302855 -0.03501999 -0.01233993
0.022702966 0.027549261 -0.036127947 0.04851062 -0.034702323 0.024142953 -0.014178629 -0.07876881
-0.023134565 -0.030222604 -0.040211733 0.005159594 -0.04082491 0.026274178 -0.025046218 -0.01615685
-0.011473288 -0.039217364 0.05636207 -0.014486446 -0.021861074 -0.041552406 -0.014990875 -0.035040747
0.01067978 -0.015799673 0.0660876 0.033598036 -0.008949962 -0.014307588 -0.031822793 -0.0033322277
-0.033274155 -0.02110333 0.053658586 -0.05587489 -0.0044819415 -0.0020465567 0.0041382066 0.06127269
0.0033184271 0.0019373931 -0.03948597 -0.056442346 -0.018230252 -0.031802937 -0.041030016 -0.022328023
-0.013564059 0.012965196 -0.03925693 -0.006674934 0.011935031 0.004703555 -0.027328506 0.0008805265
0.064694375 -0.011910002 -0.0026644564 -0.053085268 0.022912545 0.030486856 -0.016919043 -0.012200486
-0.0021772177 0.026226502 0.026356153 -0.035871904 -0.0045359256 -0.004226057 -0.040840495 0.03415889
-0.052479595 -0.039617892 -0.01997314 0.0065957992 -0.027926361 -0.038882963 0.013861137 -0.03803942
0.020500956 -0.029171338 -0.022296922 0.0441013 0.012004039 -0.01186807 0.010134295 0.06958829
-0.0017318504 -0.0048328494 0.06829538 0.055804204 0.010798728 0.0035497122 -0.00042838315 0.038753733
0.012872932 0.036609735 0.026192738 0.021468762 0.029763104 0.0034432078 0.09037365 0.01769303
0.0033648955 0.014194116 0.0019439124 0.005133449 0.007907147 0.056226242 0.014077195 0.018231904
0.0022920764 0.03518088 0.004008553 0.029528862 0.0044376682 0.016899474 0.058558043 0.006828755
-0.01914949 0.026481062 0.06339842 0.017421616 0.08707616 0.010476966 -0.0067103915 0.04867221
0.024872448 0.039504997 0.02516645 0.05879671 0.04250242 0.056250066 0.045526803 0.059149675
0.054356355 0.015543927 0.052545644 0.041390102 0.016246367 0.008057289 0.0054953313 0.0380028
0.027614035 0.0044554328 -0.0026273627 0.022466019 0.012449699 0.015186257 0.033549573 -0.03696564
-0.016989948 0.0022640275 0.0659769 0.01827721 0.078415714 -0.025408195 0.05273628 0.023118982
0.03567033 0.053878926 0.0042692567 0.071856126 0.037028745 0.04548474 0.00805604 0.011961093
0.041432522 -0.0536459 0.09327548 0.0367677 -0.06279368 -0.0127868205 -0.03088145 0.01661039
0.019234048 0.0042584483 0.05285382 0.04068785 0.017319618 0.023018397 0.037097897 0.004000729
0.0642297 0.05975876 0.011006647 0.01975807 0.0068433667 -0.0031543383 0.015569417 0.055330466
0.028601265 -0.009059763 0.013071213 -0.0118190935 0.031803247 -0.024850277 0.082007065 0.1281704
0.02497183 0.0056222533 0.0297603 0.03817594 0.03169613 0.005231262 0.04802946 0.04078708
-0.015577929 -0.04845252 0.0021996 0.021416007 -0.0038781776 0.036789004 -0.04189919 -0.08892548

action_model._discrete_distribution.branches.0.bias f4 [2]
00000000: 0bab 7e3e 1dab 7ebe
0.24869935 -0.24869962

action_model._discrete_distribution.branches.0.weight f4 [2, 128]
00000000: a36a bc3c 1ada 493d bd5a 953d a82b abbd
00000010: dbbe cb3d 8005 e03a 60ab 0d3d 02b6 35be
00000020: 9cb5 c63c 27e4 9d3d 82c1 51bd 56d6 283c
00000030: 9e41 37bd 1f49 fc3b 7d45 71bd 565b e03c
00000040: 485c 413d b117 db3d 434c c53d 8bef 09bd
00000050: 9b58 73bc 4ee9 b4bd 4001 f73c 7b5d 163e
00000060: 278c ba3d 0be2 44bd fcf0 9ab9 1141 273b
00000070: ca6d e33d 018a 3e3d 55af 06be 6da4 ba3d
00000080: a98a d93d 2353 ef3d 4922 7abd 2fec 6fbd
00000090: 1dae 0d3d f378 eebb 9234 c43d 692b f9bd
000000a0: 9ad4 343d b894 b43c 65ea 093d bc22 bbbd
000000b0: 616c e73a 353c dd3d 2c97 163d 710b 31be
000000c0: c1cc b4bc 8764 893d 2a5a d7bd dc32 783d
000000d0: 3a96 df3d f246 d33d 25ad 103c 673f 953d
000000e0: fa70 23bd ad7b 4f3d 5201 8a3c 514e 0c3e
000000f0: 19a0 58bd 24c6 f1bd 6e8f 9f3d 2bc4 a6bd
00000100: f32b 713d 65d1 1abd 1a32 973d 4d4e d93d
00000110: 392d 0a3d a026 053d 2d6c 44be f887 40be
00000120: a23d b33c 9998 973d 33a0 313d 6940 203d
00000130: 785a 03be e73b b2bc 9d1b 403e 9b20 c43b
00000140: ffa8 d0bd 09d7 43bc 52a9 aebd 0aac 63bd
00000150: 8684 afb8 2ad2 26be 04f6 00be 2c43 dabd
00000160: bba9 22be 9718 7a3d 9226 39bd 76d0 c73d
00000170: f3e5 3f3d 1311 053e ea59 34bc fd3f 47be
00000180: bc99 2ebc ef16 63bd 0f12 91bd c59d 14bc
00000190: a41f 213d db00 423d 211d fa3b 5620 51bd
000001a0: 2583 e53d 2c1a 773d aa7f adbc 0693 2a3e
000001b0: cb60 18bc 85b2 e6bd 3b78 cdb9 b5c4 6dbd
000001c0: 37b5 99bd afa9 23bd acf7 ba3c cced c83d
000001d0: d897 c03c 3124 9a3d f9a3 013c 159b 263c
000001e0: fd2d 04be 95d9 073e 70a1 46bd ad27 99bd
000001f0: 884f 173d d463 063c 149e b5bc 5387 07be
00000200: eaa5 a1bc 1f36 86bd 85c7 5ebd 3b99 b43d
00000210: b49f d4bd e356 03bc 12d2 9abc d411 4c3e
00000220: 8c65 bfbc 5e16 b8bd 05ff 803d 8dfa 7c3c
00000230: 7683 613d 6d3a 75bc c91a 863d bb2d 2ebd
00000240: 9480 49bd 36f4 f0bd 7607 a5bd 3395 213d
00000250: 8ef0 c63c f578 b63d 09be 48bd b5e8 06be
00000260: f7b0 82bd f4ac 243d 27a9 8b3b d72d 9ebc
00000270: e436 c1bd 08a2 05bd 78c4 0f3e e142 b1bd
00000280: 3070 f0bd c4f8 febd c229 8e3d f045 313d
00000290: 966c 6dbd 9fd0 163d 3c04 ddbd 8fea 0a3e
000002a0: eb85 fbbc 97a7 d9bc 14a2 37bd 9603 e93d
000002b0: 7cf1 0fbc 2d3e cabd 373d 3abd 6dd9 3a3e
000002c0: 7f23 193d db2d 84bd 2faa cf3d 9d24 7ebd
000002d0: e70a efbd b6cd d6bd 6603 a5bc e969 aabd
000002e0: cb0e 1f3d abb3 d1bc 39d3 22bd 2e0f 12be
000002f0: 043e ca3c 44e7 c93d ad49 8abd d838 c53d
00000300: 1e9a 65bd 4206 533d b802 c7bd e9af e1bd
00000310: ede8 0cbd 7146 83bd 5571 4b3e 8210 573e
00000320: 40c0 f2bc 3982 90bd 9ec2 45bd a6d1 8bbd
00000330: 53b5 013e 7691 be3c a387 33be c53e c1bc
00000340: 95a1 d03d d3ce 043c 2fa0 a33d 5164 a23d
00000350: e435 0ebc 9a67 223e e9a3 f23d 377d c03d
00000360: 0ea6 2f3e fd05 84bd 3a6c 1a3d 90ff cfbd
00000370: 7c18 32bd 075c 0fbe a0dd 653b bdfc 3c3e
00000380: 2854 6cbc 9bc2 4c3d 54e6 8d3d dd14 aa3c
00000390: 1a84 46bd 6056 54bd 72b3 c93b 9054 113d
000003a0: 9468 fdbd 41d5 2cbd c763 cb3c 4e07 1dbe
000003b0: a734 3d3b cc6f c53d 8f0c b23c 37ab 173d
000003c0: d162 803d a0b9 033d 8a05 d8bc 3534 e6bd
000003d0: 40ff b6bc ec9e a0bd e05e fbbb b96b 54bc
000003e0: 8be6 c63d e6ab 00be 12ff 263d 8325 913d
000003f0: 8bc7 05bd 4436 a4bb ead7 273d 5264 023e
0.023000067 0.049280263 0.072926976 -0.08357936 0.09948512 0.0017091483 0.034587264 -0.17745212
0.02425652 0.07709532 -0.051209934 0.010305008 -0.04474031 0.0076991464 -0.05890416 0.027387302
0.047207147 0.10697878 0.096336864 -0.03367571 -0.014852668 -0.08833562 0.030151963 0.14684097
0.09108763 -0.048067134 -0.00029552716 0.002552096 0.11104925 0.04651833 -0.13152821 0.09113393
0.106221505 0.11685779 -0.061067853 -0.05857485 0.034589875 -0.007277602 0.095803395 -0.12166483
0.044148065 0.02204357 0.0336708 -0.091374844 0.0017656201 0.10802499 0.036765262 -0.17289521
-0.02207029 0.06708627 -0.10515244 0.06059538 0.10917325 0.10316266 0.008830343 0.07287484
-0.039902665 0.050655056 0.016846333 0.1370175 -0.052887056 -0.118053705 0.07791029 -0.08142885
0.058879804 -0.03779735 0.07382603 0.10610638 0.033734534 0.03250754 -0.19181891 -0.18801868
0.021879975 0.074021526 0.04336567 0.039123926 -0.1282748 -0.02175708 0.18760534 0.005985332
-0.101884834 -0.011953124 -0.08528389 -0.05558399 -8.369335e-05 -0.16291109 -0.12593848 -0.10657343
-0.1588506 0.061058607 -0.0452028 0.09756558 0.046850156 0.12994795 -0.011007765 -0.19458003
-0.01065677 -0.055441793 -0.070835225 -0.009070818 0.039336815 0.047364097 0.007632867 -0.05105623
0.112066545 0.060327694 -0.021179039 0.16657647 -0.009300421 -0.11264519 -0.00039190226 -0.058048923
-0.07505267 -0.039956745 0.022823177 0.09810981 0.023509905 0.07526434 0.007912629 0.01016881
-0.12908168 0.13266595 -0.048493803 -0.07478271 0.03694108 0.008202512 -0.022170104 -0.13235216
-0.019732434 -0.065532915 -0.054389495 0.08818289 -0.103820235 -0.008016321 -0.018898997 0.19928676
-0.023363851 -0.08988641 0.06298641 0.015440595 0.05505701 -0.014967543 0.065480776 -0.04252408
-0.049194887 -0.117653295 -0.08058064 0.039448928 0.024284627 0.089097895 -0.049009357 -0.13174708
-0.063814096 0.040204003 0.004262108 -0.019308968 -0.09434298 -0.03262523 0.1403979 -0.08655334
-0.11740148 -0.12449792 0.069415584 0.04327959 -0.057964884 0.03682005 -0.10791823 0.1356604
-0.030703506 -0.02656917 -0.044832304 0.11377637 -0.008785602 -0.0987514 -0.045468535 0.18247004
0.037387367 -0.06454059 0.10139882 -0.062046636 -0.11672001 -0.10488455 -0.020143222 -0.08320982
0.038832467 -0.025598368 -0.03975222 -0.14263603 0.024687774 0.098585635 -0.06752334 0.09629983
-0.05605518 0.05151964 -0.097173154 -0.1101988 -0.034401823 -0.0640992 0.19867451 0.21002391
-0.029632688 -0.07056088 -0.048281305 -0.06827097 0.12666826 0.02326272 -0.1753221 -0.023589501
0.10187069 0.008105951 0.07989537 0.0792929 -0.008679841 0.15859833 0.1184767 0.09398883
0.17153189 -0.06446455 0.03770087 -0.101561666 -0.04348038 -0.1399995 0.0035074726 0.18455787
-0.014424361 0.049990278 0.06928697 0.020761902 -0.048465826 -0.051840186 0.0061554248 0.035481036
-0.12373462 -0.042195562 0.024827851 -0.15334818 0.0028870495 0.09640464 0.021734504 0.037028518
0.06268848 0.032159448 -0.026369829 -0.112404265 -0.02233851 -0.07842812 -0.007671222 -0.012965136
0.09711941 -0.12565574 0.040770598 0.07087233 -0.032661002 -0.005011352 0.040977396 0.12733582

network_body._body_endoder.seq_layers.0.bias f4 [128]
00000000: 76bb f1bd 0adb c4bd 7b00 36bd 4e85 873d
00000010: a3e3 3ebd 97ae 463d 6cf7 3bbc 9658 a5bd
00000020: 4e7c 0ebd deb6 29be 2d14 ad3b 7f97 dfbd
00000030: 8297 60bd 7675 18be 9766 5cbd 7f5e 8abd
00000040: 9aaf dabd 63dd d9bd 3238 35be f3d6 73bd
00000050: fa5c 36be fc6a 823d 60ca 533d b03d 18be
00000060: c145 9ebc 097d 4dbe 1be2 8abc c21e 673d
00000070: 7add fcbd 95ce 90bd 8aba 40bd 2043 183c
00000080: d838 09bd fe37 84bd 97e7 87bc f796 773d
00000090: 0155 54bd f386 163e 538c 14be cea0 9ebd
000000a0: d9d7 9e3c 9228 893d a8ab fcbc f1b2 e13d
000000b0: 1abf a2bd f305 9bbc a316 233e 57ec 1a3c
000000c0: e818 eebd 135c 97bd 10e8 14be 5a6f f0bd
000000d0: 7730 64bd 9f3a 87bd c475 8cbc c6f3 623d
000000e0: a652 7b3d 0de2 70bd a29c 68bd 68e2 0abb
000000f0: 4e6b 7bbd 4022 76be 65e1 76bd 20a3 613d
00000100: fb94 3bbe 3373 03be 9b3b 5abe 932f 203c
00000110: 41b9 01be c3e6 42bd 90c7 9d3d 6e48 c33c
00000120: 9fe2 823d c0d5 2a3d 4c58 a0bc 2122 01bd
00000130: d6c4 84bd 8f99 5abd de1b 4abe 4ee0 0b3d
00000140: 064d f5bd bea5 86bd 8b3c 6fbd e754 22be
00000150: 2a97 883d bf58 8d3d 3fa1 2a3c 5c2a bcbd
00000160: 5229 29be f26b a8bd 935f 02bd 00da 0b3d
00000170: 44fa cdbd cc73 f93b 889f a4bd 1383 18bc
00000180: e533 973c fedd 513c e0e5 6dbd 6eac ce3d
00000190: bd6e dfbd 78c6 febd 4134 19bd 4d71 e6bc
000001a0: 209a 8d3d b910 6a3d bf9b 4a3c 3c96 04be
000001b0: 1e66 35bb 32ce 5abd 7ded 5bbd f1e0 093e
000001c0: 2866 d7bb 88f1 68bd 8633 0d3d 6271 91bc
000001d0: 512e 37be e75c 74bd 72e6 f5bd b6d4 15be
000001e0: 0a0f 76bd fe07 8ebd 3404 aebd 6da0 96bd
000001f0: 66e2 89bd b588 b2bc 7d31 19be b3b4 edbd
-0.118033335 -0.09612091 -0.044434052 0.06617223 -0.04660381 0.048506346 -0.011472564 -0.08073537
-0.034786515 -0.16573665 0.005281946 -0.109175675 -0.05483199 -0.14888558 -0.053808775 -0.06756305
-0.106780246 -0.10637929 -0.17697218 -0.059531163 -0.17808905 0.06368062 0.05170667 -0.14867282
-0.01932037 -0.20067228 -0.016953519 0.056425817 -0.12346931 -0.070706524 -0.047052898 0.009293348
-0.033501476 -0.06455992 -0.016589923 0.060446706 -0.05183888 0.14699917 -0.14506654 -0.07745515
0.019390034 0.06697191 -0.03084357 0.110204585 -0.07946606 -0.018923735 0.15926604 0.009455762
-0.11625844 -0.07390609 -0.1454165 -0.117399886 -0.055710282 -0.06602978 -0.017145999 0.05540826
0.061358117 -0.05880933 -0.05679 -0.0021192078 -0.06138163 -0.24036503 -0.060273547 0.05508721
-0.1831855 -0.12836914 -0.213118 0.009776968 -0.12668325 -0.047583353 0.07704079 0.023838248
0.06390881 0.041707754 -0.019573353 -0.03152669 -0.06482856 -0.0533691 -0.19737193 0.03414946
-0.11977582 -0.065745816 -0.058407348 -0.158527 0.06669457 0.069016926 0.010414421 -0.09187767
-0.16519669 -0.08223714 -0.031829428 0.034143448 -0.100575 0.007612681 -0.08038241 -0.009308594
0.018457362 0.012809275 -0.058080554 0.10091482 -0.109097935 -0.12440199 -0.03740335 -0.028130198
0.06914163 0.057144854 0.012366234 -0.12947935 -0.0027679275 -0.0534193 -0.053693283 0.13464715
-0.0065734573 -0.056870967 0.034472965 -0.01775426 -0.17888762 -0.05965891 -0.120068446 -0.14631924
-0.060072936 -0.06935118 -0.084968954 -0.073548175 -0.06732635 -0.021793703 -0.14960285 -0.11606731

network_body._body_endoder.seq_layers.0.weight f4 [128, 17]
00000000: 92c7 acbe 2447 83be d152 bb3e ca42 a3be
00000010: 6eac 03bf 507c a13d 5463 e13d 8061 053e
00000020: 42d5 a93d dfce 9dbd c66c a93e 1de2 a7bc
00000030: ad82 3e3d 4b70 74be 5fe9 7fbd a734 a2be
00000040: 1757 9abe ddeb 803e 8a01 51be 67e4 c4be
00000050: 1e70 95bd 3b53 01be 888a f43e c525 5a3e
00000060: 31a0 8fbc 778a 5c3e d60e 92bc 27c4 55be
00000070: 9e47 a9be 9b54 74bd d82c 3bbe 363b 1fbd
00000080: 5a45 483e c189 31bf cb64 a03d 9eb4 083e
00000090: 6fb0 513c 0b0c f33d b156 063e 4541 ab3e
000000a0: 3661 163d 3a6d a0bc 1bd3 90be e0bf 0a3d
000000b0: 6f2c 203e 0e56 51bd 26d3 0d3e b2d7 02be
000000c0: d075 ce3e 9f35 553f 90d0 e03e 5516 f7be
000000d0: c77a ea3b 87b9 39be 600a e1be 4a63 bcbe
000000e0: 7d82 ef3d 9a27 b2be 5f75 04be cbea 533e
000000f0: b0b1 e63d 1467 be3a 731f 453e fe70 443d
00000100: d8bd 903e 742d 7d3c 6733 acbd 45c5 87be
00000110: 03e8 5ebe 4f11 f6be aa21 a4bd 9dfc 12be
00000120: 3dbd bebd 805e b53e 201e 2b3e 2384 a8be
00000130: f525 fb3d 3ccc db3d 8ebd b63d 3983 ad3d
00000140: d420 83bd 8595 d23d a211 a23e 6d7b 91be
00000150: d8ab 85bd a39d 53be b78a 42bf 806a 07bf
00000160: e787 fcbe f4a8 14bd eadb 523e dcd1 3e3e
00000170: 1739 b8bd 60c8 5cbe 703e d53c 7737 2f3d
00000180: 7bbf 573e 7524 38bd 4d5a 7f3e ad2f 713d
00000190: c5f0 39be 7f34 a93d b909 2b3e b5be d0be
000001a0: f772 723e f8b7 49be 253c c43c 004e 91be
000001b0: 67a6 96be 03fb 05be f978 26be 4ae7 f33e
000001c0: 0822 f0bd 22b3 cc3d 872e 553e 7eac d53d
000001d0: e2b9 fe3d 2dc9 313e 9279 f43e 8a8d 2cbe
000001e0: 5e7e a13e 0baa 9fbc e372 82be 8895 2c3e
000001f0: 55d2 633e 7cb1 ddbe 3c60 a83d f2c5 883e
00000200: 94f0 4e3e 0024 adbd 29c8 ea3d 008d e73e
00000210: 1429 06be 5b0f 623e 8731 1e3c d4c8 633f
00000220: 7d4b 92be dc89 d4be 7d12 9abe 7341 193e
00000230: 5bd4 82be b85a 95be 2dd3 88be 8df0 123e
00000240: 7f0b 6c3d 07d6 97bc ea6e 85be 4cda 9eb8
00000250: 4ecc db3e 0598 b2be 1d90 7f3e a922 f63c
00000260: 060c 27bf d9b2 47bd 0c29 a43e 6b76 343d
00000270: d340 b4be 8425 e03c 9433 1f3d 0bb6 8dbd
00000280: 125d d6be 3528 423e d0bc 8ebe 7e1e f6be
00000290: 92a3 85bd b411 f7be 47d1 5d3e c01d dfbe
000002a0: 399c 9a3c 742d a43e 721b 78be b610 fcbd
000002b0: 2945 b33d 46f2 9abd 265f 19be 4ba1 cfbd
000002c0: ebff 963e 3ddb 41bd 04c3 d43e 0bae 893d
000002d0: c070 c2bd 768f d1bc 98a5 2f3d 1c41 34be
000002e0: 9295 b1bd a47a 663e 2f79 9d3e 11b9 67bd
000002f0: eedf 44be 34a3 763e 6908 fa3d 2ea6 7dbe
00000300: 7430 103e 1d1c b23d ee17 743e b0d0 a63e
00000310: 3b60 2c3e 8686 793e d635 be3d a126 b0be
00000320: 75f0 273d c4b7 06be e00d 53be 556f 093f
00000330: 9c01 3ebd 03ed 52bd e09b 3c3e f379 6ebd
00000340: b0f5 2bbe 2fa9 a23e 0ae2 ef3d 202b cd3e
00000350: 6731 9cbe 5cc1 4d3e 1333 70bd 6066 d73e
00000360: 6750 1c3e 6db8 ca3e 14dd 26be 2a7e 26be
00000370: 23d9 40be 46f0 72be 7f78 533b ef71 563e
00000380: 8108 9d3e 4ef1 803e f59c 53be 07d1 dbbd
00000390: fd0c 01bc 2660 303d 2004 6c3e df77 8ebe
000003a0: dfa7 b7bb b75b 0fbe d1f1 dcbe 74f1 6c3e
000003b0: 8da9 80be 67db 1bbf 4916 c9bd 0739 8ebe
000003c0: b283 11bf 3df9 123e fd33 a23e 2591 0fbc
000003d0: e52a 033d 0d83 ed3c 99c9 24be 80a9 443e
000003e0: c63c 5b3e c874 413d 9463 103e 43fa fb3e
000003f0: 951e ed3d b1b6 113f 2127 86bd 2b62 443e
-0.3374601 -0.25640213 0.3658662 -0.31886894 -0.5143498 0.07885039 0.110052735 0.13025475
0.08292629 -0.07705473 0.330908 -0.020493561 0.04651134 -0.23870961 -0.06247842 -0.31680796
-0.3014457 0.2517995 -0.20410743 -0.38455507 -0.07296775 -0.12629406 0.4776194 0.2130347
-0.01753244 0.21537195 -0.01782934 -0.20875607 -0.33062452 -0.059651 -0.18278825 -0.038874827
0.19557706 -0.6935082 0.07831725 0.1335015 0.012798413 0.118675314 0.13119008 0.33448234
0.0367138 -0.019583333 -0.2828606 0.033874393 0.1564195 -0.05110746 0.13850078 -0.12777594
0.4032426 0.83284944 0.4390912 -0.48259225 0.0071557495 -0.1813718 -0.43953228 -0.36794502
0.116948105 -0.3479584 -0.12935399 0.20695035 0.1126436 0.0014526569 0.19250278 0.04795932
0.2826984 0.015452731 -0.08408242 -0.26517692 -0.21768193 -0.4806008 -0.080142334 -0.14354177
-0.09313438 0.3542366 0.1671071 -0.32913312 0.12263099 0.10732314 0.089228734 0.08472294
-0.06402746 0.10282425 0.31654078 -0.2841448 -0.06526917 -0.20665602 -0.7599291 -0.5289688
-0.49322435 -0.03629394 0.20591703 0.18634742 -0.08995264 -0.21560812 0.02603075 0.042777505
0.21069138 -0.044956643 0.24936791 0.058883358 -0.18158253 0.08261966 0.16702928 -0.40770498
0.23676668 -0.19699085 0.02395446 -0.28379822 -0.2942383 -0.13084035 -0.16257085 0.47637397
-0.11725241 0.09995104 0.2081853 0.10433291 0.12437798 0.17361899 0.47749 -0.16850868
0.31541723 -0.019490262 -0.25478277 0.16853917 0.22248204 -0.43299472 0.0822148 0.2671352
0.20208961 -0.08454132 0.11463959 0.45224762 -0.13101608 0.2207617 0.009655363 0.88978314
-0.28573218 -0.41511428 -0.3009223 0.14966373 -0.2555264 -0.29170775 -0.26723614 0.14349575
0.05762815 -0.018534673 -0.26061183 -7.574688e-05 0.4292931 -0.34881607 0.24957319 0.030045824
-0.6525272 -0.048754547 0.32062566 0.044058245 -0.35205707 0.027361639 0.038867548 -0.069194876
-0.41867882 0.1896065 -0.27878428 -0.4807014 -0.06525339 -0.48255694 0.21661864 -0.43577385
0.01887332 0.32065928 -0.2422922 -0.12307875 0.08753426 -0.07565741 -0.14977702 -0.10138186
0.29492125 -0.047328223 0.41555035 0.06722649 -0.094941616 -0.025581103 0.042882532 -0.17602962
-0.086711064 0.22507721 0.30756518 -0.056572977 -0.19226047 0.24085695 0.12208635 -0.24770424
0.14080983 0.086967684 0.23837253 0.3258109 0.16833584 0.24367723 0.09287612 -0.34404472
0.041000802 -0.13156039 -0.20610762 0.53685504 -0.046388254 -0.051495563 0.18418837 -0.05822177
-0.16792941 0.31769702 0.117130354 0.40071964 -0.3050644 0.20093292 -0.05864246 0.42070293
0.15265046 0.3959383 -0.16295272 -0.16259065 -0.18832831 -0.2372447 0.0032267866 0.209419
0.3067055 0.251841 -0.20665343 -0.10733228 -0.007876632 0.043060444 0.23048449 -0.2782583
-0.0056047286 -0.1399983 -0.4315324 0.23138982 -0.25129357 -0.60881656 -0.09818704 -0.27777883
-0.56841576 0.1435289 0.3168029 -0.0087626325 0.03202333 0.028993154 -0.16092528 0.19205284
0.21409902 0.047230512 0.14100486 0.49214372 0.11578099 0.5691939 -0.06550432 0.19178073

network_body._body_endoder.seq_layers.2.bias f4 [128]
00000000: bda5 edbc 4bd1 3ebe 18aa 0bbe c3ab 9fbd
00000010: 4c13 a3bd 9493 65be cfec 4fbe 3d00 ddbd
00000020: 770f 2fbe 8a81 32be 8921 0fbe 396b 63be
00000030: ca37 6cbe ec22 7fbd fd73 b2bd ba0d 47be
00000040: 6c59 0fbe 94f7 82be fe7c 5dbe cb9d c3bd
00000050: f5d0 71be 7c6f cdbd a9a7 31be 01ea d0bd
00000060: 6e77 c2bd 46a3 eebd 3a58 6ebe 2424 1fbe
00000070: 79bd 89bd dfcc 5dbe 5be3 8abd 9d2a b4bd
00000080: b82a 72be d38d 04be 82da 1bbd e9f9 25be
00000090: a6a1 b1bd 9d61 15be 9527 963c 8274 eebd
000000a0: f09e 1ebe 2561 a2bd 2554 17be bf95 69bd
000000b0: f7a8 edbd ac09 2dbd 4946 fabd 86d6 85bd
000000c0: 16e2 15be f501 38be 1130 fabd 7cda 1fbe
000000d0: c590 16be bcc4 5dbe c497 4cbe 0eb3 05be
000000e0: 7c34 73be e327 2fbe d8ae edbd 6dda 36be
000000f0: 9285 3bbe d8b4 e1bd fc49 34be 4e90 68bd
00000100: a371 81bd 4f47 08be 63a3 cabd 977e 9abd
00000110: c852 80bd bf49 ccbd 7759 5cbd 88cb e3bd
00000120: 9c44 30be 96d3 dcbd 07f6 a4bd 155a c1bd
00000130: 5a3f f5bd 0a72 89bd d836 2cbe cf02 e2bd
00000140: 338b e9bd 4ced 81bd 4bda 96bd 3c71 01be
00000150: 659f 88bd 5247 1fbd ac52 83bc 707a 19be
00000160: 53cd 8cbd fbc7 66be c927 3bbe 065e 1dbe
00000170: 1e93 28be 0859 14be 34ee e5bd 2067 b8bd
00000180: 0e03 97bd 6ddc bbbd 08bd 1cbe 2807 13be
00000190: 46e2 33be 722a b3bd 5731 1fbe 37a8 c4bd
000001a0: 662a e2bd d132 b5bd d04d 7ebd d332 d93d
000001b0: e749 16be 6d43 f7bd e7a6 00be 6100 abbd
000001c0: 56e7 10be 714c 0bbe f3f1 83be 1e4e 21be
000001d0: 7747 ddbd 7723 2ebe 97ff 78bd 28a9 37be
000001e0: 0a0a 05be e9bd 983d 9658 a6bd 5426 afbd
000001f0: 434c 40be b92d 3bbe e4ab 6dbd 1b90 06be
-0.029009694 -0.18634526 -0.13639104 -0.07796433 -0.07962665 -0.22419578 -0.20305179 -0.10791061
-0.17095743 -0.17432228 -0.13977636 -0.22208871 -0.23068157 -0.062289163 -0.08713529 -0.1943883
-0.13998955 -0.25579512 -0.21629712 -0.09551581 -0.23614867 -0.100310296 -0.17349114 -0.10200883
-0.09495436 -0.11652236 -0.23275843 -0.1554113 -0.06725592 -0.21660183 -0.06781646 -0.0879719
-0.23649108 -0.12944727 -0.038050182 -0.16208614 -0.0867341 -0.14588018 0.018329421 -0.11643316
-0.15490317 -0.07928685 -0.14778192 -0.057027575 -0.11604493 -0.042245552 -0.12220437 -0.06535058
-0.14637026 -0.17969497 -0.12216199 -0.15610689 -0.14703663 -0.2165708 -0.19979769 -0.13056585
-0.2375049 -0.1710506 -0.116056144 -0.1785676 -0.18312672 -0.11020821 -0.17606348 -0.056778245
-0.063205026 -0.13308452 -0.09894445 -0.07543676 -0.06265789 -0.099750035 -0.053796258 -0.11122805
-0.17213672 -0.10782544 -0.080547385 -0.0944101 -0.11974974 -0.06711204 -0.16817796 -0.11035692
-0.11403503 -0.06344089 -0.07365855 -0.12640852 -0.06671027 -0.038886376 -0.016030632 -0.14988112
-0.068751 -0.22537224 -0.18276896 -0.15367898 -0.16462371 -0.14487088 -0.11227074 -0.090040445
-0.073736295 -0.09172902 -0.15306485 -0.14358199 -0.17566785 -0.0874833 -0.15546165 -0.09602397
-0.11043243 -0.08847583 -0.062085927 0.10605397 -0.14676629 -0.12073407 -0.12563668 -0.08349682
-0.14150748 -0.13603379 -0.2577053 -0.15752456 -0.108046465 -0.17005716 -0.060790624 -0.17935622
-0.12992111 0.074580975 -0.08122365 -0.085522324 -0.18779092 -0.1827916 -0.058025256 -0.1314091

network_body._body_endoder.seq_layers.2.weight f4 [128, 128]
00000000: 5ea0 1abe fc68 2cbd 19ee 333c 5068 593d
00000010: b052 8bbd de01 f23d 65ab c9bb 6ca3 3d3e
00000020: 8eb9 24bd 2da4 f63b 94c9 1a3d 86f1 6cbc
00000030: 4ac4 943d 3c61 173d c79a 44bd f390 a4bd
00000040: 3bda b03c 1215 b9bd cdf6 6b3d 347f b73d
00000050: dc9c 703e cd36 143e 0f1f 60be 2df3 51be
00000060: 5a0b 1fbe 6935 1dbd a47c f73c d835 e6bd
00000070: 57d8 d33d 501e 243d 99a3 06bc a7a7 13bd
00000080: ea78 16bd f040 933d 87f0 9ebd 8782 b3bd
00000090: c82a 90bd e052 023e 2eed 383d bc28 b8bc
000000a0: 2442 55bd c8f0 ccbd bb3b 543e 9d08 b53c
000000b0: 2c2b 113d e564 77bd abd6 933c 0583 b3bd
000000c0: 1029 dd3d 3c50 513e bfde 233c c502 e7bc
000000d0: dbed 9cbd ad25 543d 42df 29be 37aa 3fbd
000000e0: 9f2a 0f3d c06c 653d 4572 bebd adcc ca3d
000000f0: f7e6 fe3b 0765 3c3d e21a 173c 8963 093b
00000100: 8394 a33b 146b f83c 1274 87bd 84c5 29bd
00000110: 9ca2 10be a2cc 1f3d 3d0f e33d b622 09be
00000120: 936f 46bc a49b a03c 67ed c0bd 7e1d fcbd
00000130: 1b8b 8abd 62b2 cbbd 9f91 90bd 8ec1 13bd
00000140: f9af 5ebd 84d9 55b9 9f09 8f3d 78c5 c8bd
00000150: 7386 853c ed39 b03d 703c 753d 749e 8ebd
00000160: 0677 9fbd ddf7 0dbe 99e6 233d 172f 11be
00000170: e18e 15be 4711 9bbb 73a1 f73c 0185 1dbe
00000180: ca58 403d dfaf 2dbe c230 90bc 7b01 063c
00000190: 1552 f3bc e579 a5bd ec3c 103e ec2c 043e
000001a0: 51e9 bb3d dd09 19bd 536c 203d 21e1 7b3d
000001b0: 3efe 2e3e ff7d 8eb9 5038 44bd 885f ed3b
000001c0: 4bb9 363c 569a 083e b26d b03d e916 27bd
000001d0: ff8e 92bb 0c19 b33d 5f71 1e3d 0771 3e3e
000001e0: f7c2 96bd 3be0 043e 098c ccbd 0b65 c1bc
000001f0: 0449 e63c 28fe 0dbe a005 9abc eeaf 903d
00000200: 2c26 2dbd 22b4 b6bd 3530 4cbd 8950 8bbd
00000210: 30c4 b0bd e791 d0bd 4914 c9bd 1816 1fbe
00000220: c644 15be 3330 31be 20ac 8ebe 894b 6bbb
00000230: 0141 d2bd 0b0c c4bd ee5c 05be 1806 aebd
00000240: 5251 8f3b 6420 4c3b 7f92 f7bd beae 4bbd
00000250: 0c90 14be a81a 19bc 273d 0abe 8d23 463c
00000260: b4aa 4fbe 410d 5b3c 9df1 c3bd fa27 8cbc
00000270: 284f 84be 5c9d 243e ad0c 61bd 67a3 5e3c
00000280: 4585 9a3b efae dfbd a037 12be 323c 9abd
00000290: c7df 113d 9e07 243c 3db2 3ebe c17a 81be
000002a0: d18b e43c 75ea e7bd 4ce1 9f3c 5781 6abd
000002b0: 3c49 f8bd 070e 143d cc79 4dbd d6f0 7bbd
000002c0: 1674 a03c 5f9c 47be 672f f0bc 739d df3c
000002d0: ddf7 2c3b de0d 38be 8285 8f3c 5f2f 7ebe
000002e0: edd4 b93c 7690 883c 6234 273d bbc8 12be
000002f0: ec04 0dbe c796 6a3d 8751 adbd 7165 1fbd
00000300: ea4d 42be 0d9e 47be 4989 a9bd 966f dbbd
00000310: 008a 0ebe 6316 e8bd c2e3 58be 28ef 04be
00000320: b1e1 adbd 7402 f8bd 1e3f 1bbc 9f70 fa3d
00000330: 7e31 44be e098 11be b365 f9bd 6529 6cbe
00000340: 8302 253e c70a 49be 1808 a2bd ccdf 4cbe
00000350: a763 15be c049 83be 46ca 25bd 9461 353d
00000360: 88c1 07bc 2235 61bd 0ecf 8dbc c6fc c63b
00000370: 9faf 0bbe 618a 5cbe be48 48bd 2374 3abe
00000380: 123f 3f3e 5f23 7ebe 5d27 e6bd 73e6 91bd
00000390: dcc8 073e 154f 28bc 493d 12be 716f 3fbe
000003a0: 4f8d 3abe 52ca b5bc b040 cebd 62e6 b7bd
000003b0: 32eb 30be c0b6 15be f5a4 71be 4378 69bd
000003c0: 040f dfbd 4188 89bd 69d7 a6bd 7542 d9bd
000003d0: a2ee 96bd f060 573d 89f1 cfbc 853d 13bd
000003e0: 265c bcbd 7e5c bfbd d651 81be 5f2d f4bd
000003f0: ec68 d03d a1eb 86be 3b50 86be e89b cabe
-0.15100238 -0.04209231 0.01098206 0.053077996 -0.06802881 0.118167624 -0.006154465 0.18519372
-0.04021602 0.0075268955 0.037789896 -0.014461881 0.07264002 0.036957964 -0.04799917 -0.08035459
0.021588435 -0.09037222 0.057608414 0.08959809 0.23497337 0.1447403 -0.21886848 -0.2050292
-0.15531674 -0.038381014 0.0302108 -0.11240739 0.10343998 0.04006797 -0.008217716 -0.036048558
-0.036736406 0.0719012 -0.07760721 -0.087651305 -0.0703941 0.12726927 0.045148067 -0.022480361
-0.05206503 -0.10006863 0.2072591 0.022098834 0.035441563 -0.060398955 0.018046698 -0.08765224
0.10798848 0.20440763 0.010001837 -0.028199563 -0.07662555 0.051793743 -0.16589072 -0.04679319
0.034952756 0.056011915 -0.09299139 0.0990232 0.007778998 0.045994785 0.009222718 0.0020963869
0.004992069 0.030324496 -0.066139355 -0.04144813 -0.1412453 0.039013512 0.11086891 -0.13392147
-0.012111562 0.019605465 -0.09420281 -0.12310313 -0.067648135 -0.09946133 -0.07059025 -0.03607326
-0.05436704 -0.00020394294 0.06984257 -0.09803289 0.016299462 0.086047985 0.05987209 -0.06963816
-0.07786374 -0.13864084 0.040014837 -0.1417812 -0.14605285 -0.004732284 0.030228352 -0.15382768
0.046959676 -0.16961621 -0.017601375 0.008179064 -0.029702226 -0.0807989 0.1408574 0.12907761
0.09175361 -0.037362922 0.039165806 0.061493997 0.17089173 -0.00027178225 -0.047905266 0.007244054
0.011152576 0.13340124 0.08614673 -0.040793333 -0.004472613 0.08745012 0.038682338 0.18597804
-0.07361405 0.12976162 -0.09987647 -0.023607751 0.028110988 -0.13866484 -0.01880151 0.07064806
-0.04227273 -0.08921076 -0.04985066 -0.0680247 -0.0863117 -0.10184079 -0.09818322 -0.15535772
-0.14577016 -0.17303543 -0.27865696 -0.0035903177 -0.10266305 -0.095726095 -0.13023731 -0.08497256
0.004373708 0.0031147236 -0.12088489 -0.049727194 -0.14508075 -0.009344734 -0.1349989 0.012093437
-0.20279962 0.013369859 -0.095675685 -0.017108906 -0.2584164 0.16075653 -0.05494373 0.013588763
0.004715594 -0.10922038 -0.14279032 -0.075310126 0.0356138 0.010011582 -0.1862268 -0.25288966
0.0278987 -0.11324016 0.01951661 -0.057252254 -0.12123343 0.03614619 -0.050164983 -0.061508976
0.019586604 -0.19493245 -0.029319478 0.027296757 0.0026392855 -0.1797404 0.017519716 -0.24822758
0.022684539 0.016670447 0.04082144 -0.14334385 -0.13771409 0.0572727 -0.08462816 -0.0389151
-0.18975034 -0.19493885 -0.08278138 -0.10714643 -0.1391983 -0.11332395 -0.21180633 -0.12981856
-0.08490313 -0.12109843 -0.0094754975 0.12228512 -0.19159505 -0.14218473 -0.12177601 -0.23062666
0.1611424 -0.19633017 -0.079117 -0.20007247 -0.14588796 -0.25642204 -0.040476106 0.04428251
-0.008285888 -0.054982312 -0.017310645 0.0060726134 -0.13641213 -0.21537162 -0.048897497 -0.18208365
0.18676403 -0.2481818 -0.11237977 -0.07124033 0.13260216 -0.010272761 -0.14281191 -0.18694855
-0.18217967 -0.0221912 -0.10070932 -0.08979489 -0.1727722 -0.14620495 -0.23598082 -0.056999456
-0.10891536 -0.067154415 -0.08146555 -0.10608379 -0.07369734 0.05258268 -0.025383728 -0.03594734
-0.091972634 -0.09343813 -0.25257748 -0.11922716 0.10176262 -0.26351646 -0.26233086 -0.39572072
