RollerAgent/Assets/Learn/RollerAgent_02.onnx (onnx, 73663 bytes, 7 tensors)

action_model._continuous_distribution.log_sigma f4 [1, 2]
00000000: cda5 da3d 2c64 ebbe
0.10676155 -0.45974863

action_model._continuous_distribution.mu.bias f4 [2]
00000000: 1766 3cbc 4105 b1bd
-0.0114989495 -0.0864358

action_model._continuous_distribution.mu.weight f4 [2, 128]
00000000: ea83 843d 8892 cebc d574 55bd c3ba 2d3d
00000010: 54aa e43a b6f7 c43a 7605 a4bc e02c 60bd
00000020: 1f5d 38bd 973a 133d e573 a2bc 242f 383c
00000030: 3720 16bb a529 12bd 3cc8 913c 813c 8b3c
00000040: 9d9c 86bc 5bc3 923b a0ac 88bc dd28 1dbc
00000050: 6d1b de3c 8974 eebc 3ba5 873c 8561 71bc
00000060: 59d2 cb3c 92df 11bd 5819 133d 56db bf3c
00000070: 9045 edbc cc1e 063d 7e32 dbbb 7c6c 023c
00000080: 6e08 a33c 9366 663d 3f88 f23c fdb0 36bc
00000090: 6676 57bd 1a36 093c c919 25bc ef68 5abb
000000a0: 7be8 a7ba 4414 433d 7bb5 8a3c 96de 26bc
000000b0: f848 ebbc 642d ac3d 8c2a 003c 7e81 663d
000000c0: bdff 803a 6d8d e0bc fa27 22bc 827e 57bc
000000d0: 12e6 19bd 8683 53bd 7c8c b7bc 38ba e5bc
000000e0: 7fef 88bb def7 373d 893b 023d 6825 b9bb
000000f0: 880e d03c ee9d 4abd 998d ebba 761d 423d
00000100: d0c3 afbb a7f5 0a3d 0a63 21bd aac7 2abd
00000110: b3e1 113c 7eaf 1bbd 1225 253b fa49 383d
00000120: d215 7f3c d5ab 78bc 5f7d 0e3c 3214 d43c
00000130: f843 febc bd9f 8fbc 5ccf 7f3c ebee 69bc
00000140: 3b0b 313c b4a4 a4bc 99b1 863d eb8d 22bd
00000150: 5d40 f2bb d0d1 de3c 7015 32bc d750 843b
00000160: 5350 80bd f0b7 ff3c aa79 c5bb 1ab2 adbc
00000170: b5ec eb3a a47a 3b3d d39a a4bb e94c 88bc
00000180: 9148 d5bc 4157 a93c 4cc1 403c 7cd0 20bd
00000190: 8ceb 0bbc d162 26bc 76ef 173b 5eb2 0fbd
000001a0: ffd9 99bc ba5d 003d 77e3 6bbc b609 a2bc
000001b0: 2669 d23c f97b 3738 1986 c9bc d269 103d
000001c0: 48cf 813b ee8f 1a3c 5d1e e2bc 07af 903d
000001d0: 3f42 28bd 8fe6 f43a 25c9 7dbd 71e7 b5bc
000001e0: 3371 d1bc 0794 a43b 546a c53b fd88 a73c
000001f0: 4f3d 17bc d51c 0abd e28e 88bd c2b5 3bbc
00000200: 33be 09bb 3cac a73d a4a4 443b 4fff 693c
00000210: d9ad c13c 7f2f 03bd 9b76 303d 1390 9b3d
00000220: a3d1 83ba 8f46 b73c acef a33c a04f 1c3d
00000230: ffa2 d63c 15e5 023c e8a6 723d af62 443d
00000240: 31d5 0a3c 4c54 663d 2fbf 20bc cb04 b23c
00000250: aa92 0abc 1adf ca3c 6419 3e3d 93fe 853d
00000260: 09f6 28bc 732b 963c 9a24 373d 1b06 af3c
00000270: c7b1 923c 047e 2e3c 1635 8dbc bb2f 01bd
00000280: 1401 5e3b 8c0f f83b d6be 83bb 7925 af3c
00000290: 067a 023d 3f5d ae3c fd23 d53c dbf1 1e3d
000002a0: 7d9a 473d f01a 4fbb f57a 64ba 7ee1 983d
000002b0: 4029 183c 61a5 263d 0d62 c93c 6fad 273d
000002c0: b809 263d 3c89 2a3d a5a3 633d de13 4e3c
000002d0: 4249 3e3c 5a57 643d 99d7 823c ddc7 523d
000002e0: 5663 033d 62f7 f13c 4501 293d 901f 393d
000002f0: 8dbb 5cbd cd7c 0b3d e94c 003c 3f2a 583d
00000300: 1c11 0c3d 980c 84bc 9dd2 953d 1bf1 693d
00000310: bfff 8e3c 6afb 6dbc 290c c9bc 6ac7 613d
00000320: 7561 283c 5532 093d a801 ac3c 23c3 95ba
00000330: 0227 323c c52c 1e3d 04ec 593d efa2 da3c
00000340: fe65 c13c 16e5 403d 914b 5d3d c25f 953c
00000350: b365 bf3c 1bd8 11bd 4dde 14bc 886f adbc
00000360: b751 d73c 6312 3ebc c739 d9bb d65c 2d3c
00000370: a053 aebb 62bf 2c3c 3019 8f3d 54c5 273c
00000380: 3e7a f8ba cf0e c0bc b662 563d dc15 103d
00000390: 3812 64bd aa03 903c 91f9 c0bb 7f2d 8bbc
000003a0: 6d94 a03c 761f 01bd 1cff 333d 6725 9e3c
000003b0: e729 0d3d 858b 023d 0338 e23b 67a4 003d
000003c0: 7b6c 983c f8f8 5ebc 6a0a 8d3c 9a03 bebb
000003d0: 9f3a d23c a079 aa3c d2d9 233d 6907 5d3d
000003e0: 607f 90bc 1141 d63c 4795 e33b 7318 463d
000003f0: a03d 813d ac1b 9c3c 485d 703c bd15 2a3b
0.06470473 -0.025216356 -0.052113373 0.042414438 0.0017445781 0.0015027437 -0.020022135 -0.054730296
-0.045010682 0.035944548 -0.019830653 0.011241708 -0.0022907385 -0.035684247 0.017795675 0.016996624
-0.0164321 0.0044788546 -0.016683877 -0.009592262 0.027112687 -0.029108303 0.01655828 -0.014732723
0.024880575 -0.035613604 0.03591284 0.023420017 -0.028963834 0.032744214 -0.0066893687 0.007960435
0.01990148 0.056250166 0.029605983 -0.011150596 -0.052603148 0.008374715 -0.010076948 -0.0033326705
-0.0012810373 0.04762675 0.01693224 -0.010184905 -0.028721318 0.08407095 0.007822644 0.056275837
0.0009841841 -0.027411187 -0.0098972265 -0.01315272 -0.037572928 -0.051639102 -0.022405855 -0.028042898
-0.004178941 0.04491412 0.03179506 -0.005650211 0.025397554 -0.04946702 -0.0017971277 0.047391377
-0.005363919 0.03392568 -0.03940109 -0.04169432 0.008903909 -0.03800916 0.0025199098 0.044992425
0.015569167 -0.015177687 0.008696883 0.025888536 -0.03103827 -0.017532224 0.015613403 -0.014278154
0.0108059 -0.020098068 0.06576843 -0.039686125 -0.0073929266 0.027199656 -0.010869369 0.004037957
-0.06265321 0.031215638 -0.0060264664 -0.02120309 0.0017999621 0.045771256 -0.0050233393 -0.016638236
-0.026035579 0.020671489 0.011764836 -0.039261326 -0.0085400455 -0.010155396 0.0023183501 -0.035082214
-0.018780706 0.031339385 -0.014397494 -0.019780021 0.025684904 4.374606e-05 -0.024600076 0.035257168
0.0039614774 0.00943373 -0.027602369 0.07064634 -0.041078802 0.0018684434 -0.061959404 -0.022205086
-0.025566673 0.005022529 0.006024638 0.020451063 -0.009230926 -0.033718903 -0.06667878 -0.011456909
-0.0021017909 0.08187148 0.003000536 0.014282062 0.023642467 -0.032027718 0.04308186 0.07595839
-0.0010056983 0.022372512 0.020011745 0.038161874 0.02620077 0.007989188 0.059241205 0.047945675
0.00847368 0.056232736 -0.009811207 0.021730801 -0.008457819 0.024764586 0.046410933 0.06542697
-0.010312566 0.018331265 0.04471264 0.021365216 0.017907036 0.010650162 -0.017237227 -0.03153966
0.0033875154 0.0075702127 -0.004020552 0.021380173 0.031854652 0.021284698 0.026018137 0.03880487
0.048731316 -0.003160175 -0.0008715832 0.07464884 0.0092871785 0.04068506 0.024582887 0.040936884
0.040536612 0.041634783 0.055575985 0.012577979 0.011614146 0.055747367 0.015971946 0.051460136
0.032077156 0.029536907 0.041260976 0.045196116 -0.0538898 0.034054566 0.007830837 0.052774664
0.034196004 -0.016119286 0.07315562 0.0571147 0.017455934 -0.014525274 -0.024541931 0.055121817
0.010277142 0.033495266 0.020996884 -0.0011425953 0.010873558 0.038616914 0.053203598 0.02668902
0.023608204 0.047093473 0.054027144 0.018234137 0.023363924 -0.035606485 -0.009086204 -0.021171346
0.026284082 -0.011601063 -0.006629202 0.010581216 -0.0053200275 0.010543676 0.06987226 0.010239918
-0.001895733 -0.023444561 0.05234023 0.035177097 -0.055681437 0.017579872 -0.0058891256 -0.016989468
0.019602025 -0.031524144 0.043944463 0.019304944 0.03446379 0.031871337 0.00690365 0.031406786
0.018606415 -0.013609163 0.01721688 -0.005798769 0.025662718 0.020809948 0.04000265 0.053962145
-0.017638862 0.026154073 0.0069452855 0.04836316 0.06310582 0.019056164 0.0146706775 0.0025952898

network_body._body_endoder.seq_layers.0.bias f4 [128]
00000000: 05fa c8bb 138d cdbc a4d5 10be 071b 93bd
00000010: e376 84bd cebe 8a3a 0332 acbc 958d 82bb
00000020: f082 8e3d 1c18 d13d 73c6 1e3d 1b69 76bc
00000030: 9d6e 24bd cab8 59bd 4904 b7bd af4f 19be
00000040: 8fe2 f03d afaa a83d a9d4 53bc 3789 b8bd
00000050: 2daf 123c 29cb 2dbd 0a7d 10bd 7035 abbd
00000060: ac56 5f3b d8bd 43be fd6e d3bc d080 18bd
00000070: ec44 82bd ab10 45bd 5a67 503c 8580 c8bc
00000080: ae4b d6bd ad01 97bd 7d75 833d a977 a9bd
00000090: 2316 ddbd 133b 213c 1f44 9c3d 3fce 403c
000000a0: cd8a 4ebb c255 c83d 9926 aabb 65bb ebbd
000000b0: 45ff 87bd 4cc1 2bbe 056e 3bbc 8afd 1b3e
000000c0: 9ce8 cebc df95 2c3d 2eb3 f5bc 466f 18bd
000000d0: 5b66 823d 4d3e 48bd b0d7 0abe 1d1f 72bd
000000e0: 72a1 74bd 18dd 3b3d 8871 62bd db88 4d3d
000000f0: c6da 443c 72b8 86bd 6a4e 0dbe 3337 12bd
00000100: 2457 adbb 6a49 d6bd 1c0c 9cbd 8309 b8bc
00000110: 16dd 99bd 1ad1 9ebd fde7 233d d9f5 2e3b
00000120: dce6 fcbc a401 a63c 4482 d8bd 7abd adbc
00000130: 9042 49bc 5866 703d 53d8 bd3c f5d5 4cbd
00000140: 976e 2d3c 5f2b 9cbd ea0c fabd 734b 98bd
00000150: e0a3 3c3c 83a6 483d 37fe 8ebd d160 d53c
00000160: 268a 5fbd 3360 50bd 78a5 30bd 606c c53c
00000170: 37d0 2f3c d2c1 e2bc a449 be3d 16ee eabd
00000180: 31e2 67bd e720 b63d b33a dbbd 10b9 11be
00000190: bcae b3bc d74a acbd 53d0 8d3b 5ce8 98bd
000001a0: 952f eb3c 083b d5bc 19a8 44bd d4ba 8b3c
000001b0: d49e 04be bab8 c5bd 160b 703d 7e96 86bd
000001c0: 096b 87bd 0a4c 0dbc 9407 56bb 958e cabd
000001d0: 2c1a b43c 7700 7cbd 0de9 81bd ef39 ad3c
000001e0: 2153 abbd 8bf7 5d3d bc76 6ebd a301 7d3c
000001f0: 0166 cebd 7cab a5bd 9f36 0bbe fa36 11bc
-0.0061333203 -0.025091683 -0.14143997 -0.071828894 -0.06467988 0.0010585429 -0.021019941 -0.003984163
0.06958568 0.102096766 0.038763475 -0.0150397075 -0.04014455 -0.053154744 -0.08936364 -0.14971803
0.117619626 0.0823568 -0.01292912 -0.09010547 0.008952898 -0.042430077 -0.035275497 -0.08359802
0.003407876 -0.19115388 -0.02580976 -0.03723222 -0.06360802 -0.0481116 0.012719953 -0.024475345
-0.104636535 -0.073733665 0.064188935 -0.082747765 -0.10795238 0.009840745 0.076301806 0.011767923
-0.0031515837 0.09781982 -0.0051925895 -0.11510352 -0.06640486 -0.16772956 -0.011439805 0.15233436
-0.025257401 0.042135116 -0.029992666 -0.037215494 0.06367179 -0.04888754 -0.13558841 -0.059111703
-0.05972428 0.04586515 -0.055284053 0.050179344 0.01201505 -0.06578149 -0.13799444 -0.035697173
-0.005289929 -0.10463221 -0.07619497 -0.022465473 -0.07512872 -0.07754727 0.040016163 0.002669683
-0.030871801 0.020264454 -0.10571721 -0.021208514 -0.012283936 0.058691353 0.02317444 -0.050008733
0.010585449 -0.0762546 -0.122094944 -0.07436266 0.01151368 0.048986923 -0.069820814 0.026047142
-0.054575108 -0.050872993 -0.043126553 0.024099529 0.010730795 -0.027680311 0.092913896 -0.114711925
-0.056612197 0.088929944 -0.10704555 -0.14230752 -0.021933906 -0.08412712 0.0043278127 -0.07466194
0.028709212 -0.026029125 -0.048011873 0.01705686 -0.12951213 -0.096543744 0.058604322 -0.06571673
-0.06612212 -0.008624086 -0.0032658326 -0.098904766 0.021985136 -0.06152388 -0.06343279 0.021145789
-0.08365465 0.054191153 -0.058218703 0.015442285 -0.100780495 -0.08089349 -0.13595055 -0.008863205

network_body._body_endoder.seq_layers.0.weight f4 [128, 8]
00000000: 0e9d 28bc 3606 aabe ad18 94be b214 8bbe
00000010: de2d 033e 3cf2 ec3e efa8 11bd d180 6bbd
00000020: 2193 833e 1af0 813e 29db 783d 10b5 98be
00000030: 98af 023f 7a48 273f 036a a9bd 03e6 d7be
00000040: 80c3 493e 5bf8 e73e 85e5 e0be 8362 70bd
00000050: 23a9 c2bd f377 25be 7d3c b0be 8956 92bd
00000060: 331d a43e 2f3d 873e 0b6d bfbe d59a c23e
00000070: bdc3 d33d bcc7 443d bdc7 50be fb7a 1abe
00000080: 85a1 b13e b74d bcbe a3aa bd3e 0dab b43d
00000090: 6226 37be f77d aabe f857 a03e 25e6 50bf
000000a0: a80a 89be 01a3 02bf e708 23be 2099 f4be
000000b0: 52a0 b9be bb4f 333d 07e9 babc feb2 823e
000000c0: 4322 d4be b1ed a5bd e41b b9bd f2ee f3bc
000000d0: 5127 9b3e 96af 00bf 4032 7dbe 314b 0f3e
000000e0: 0979 0f3e 556e 083f a73d 023e d72c abbd
000000f0: aaa2 3d3f 7dd6 dbbe dba1 b43e b19d f23e
00000100: fc55 bc3e 013e 60be c00c 22be 7d45 62bf
00000110: 5a35 37bf 5bfe 7d3e a0f7 ea3c 0469 f2bd
00000120: 4236 50bd 82c5 333e 2afa 43bf 638c 113f
00000130: b36f e4bd f24e dfbd 84f9 3c3d 87c7 9b3e
00000140: 57e8 22be 300b 663e b661 63be a15f 01bf
00000150: a478 35bf e34f 7e3d 9ad2 b0be 1320 6e3e
00000160: bf0b 14be faf1 8a3e 7f6b dc3e 4407 ac3d
00000170: 1ff0 203e 5e7f 5bbd 3f39 10be c5e4 d9be
00000180: a7b0 693c 5a34 6abe 751b c8bd bc5d 9b3e
00000190: eff4 81be 4edf 5a3d aaa5 023d 02fe e53d
000001a0: 357b 2c3d 5650 363e 5608 05be e34b 103e
000001b0: b950 15be 156b 84be e96a 473f 7720 2fbe
000001c0: 4ee2 333e c0e6 cb3e 9bbb 7d3e f4e7 d9be
000001d0: bd43 c5be 5a7f fb3d 1314 8b3e 726e 123e
000001e0: 11c9 633f 9a03 ca3e 08f2 263e a84a debb
000001f0: 6cc3 5f3d e8ee 4b3d 82de 9c3d f66b 023d
00000200: 6078 f8be be24 10bf e672 9d3d 0bc0 1cbe
00000210: 921d 2e3f e0bc 923e ba83 0e3d 1a34 f03e
00000220: d639 213d 1787 ac3e 4f14 123e e7c4 ffbc
00000230: bb14 2bbd a164 bd3e 2a00 8bbe 529d 363f
00000240: 9142 033f ca17 033f c798 5d3e f21e 9c3e
00000250: ef27 7d3e e485 18be 30b6 d5bc 35bb 5fbe
00000260: db70 5cbd cfd1 95bb dcb3 82be 21b9 173e
00000270: 65a6 0fbe 6fb6 b93e 337b c13e 4e10 b6be
00000280: 22fa e3be a766 87bf 8028 d5bd 1eb1 56bc
00000290: 8ebe 343f c472 92be bcc4 f03e 7477 94bf
000002a0: 3e58 193f ccfc 56bb 6838 8c3e c2d2 33bf
000002b0: f9be 88be 778b 123c 78c3 db3e 1f57 9cbd
000002c0: 3868 9ebe 8704 7f3e faff a4bd fd57 203f
000002d0: f6b2 f4bd c044 8cbd 7904 41be 2cfd c53e
000002e0: 9560 323e 04e5 c53d 2740 c83e b769 83bd
000002f0: e9bf 92bc f2ad a3be 8cf8 493f 5efb b7bd
00000300: 91b0 573e 1aba 043d 7ad4 93be 7843 1e3e
00000310: 4698 0a3e 81a8 803e 6229 003e fcf7 27be
00000320: f5c4 473d f9a9 2abf d816 7dbf 817f 62bc
00000330: 789d 2e3e 729e 6abe 5944 3abd ae13 913e
00000340: a82b 0f3f 3a49 a4bd bfe6 97be 7e6e 043f
00000350: f61b 22be 9601 52be 6c8e 013d ce63 9d3e
00000360: 4939 863e efae 193f c13b dabe 1009 d73d
00000370: 8c12 a93e f679 97be 3f3e 1f3f 3818 97bd
00000380: 428d 683f 74e1 0dbf f6fb 66bd 7c85 a6be
00000390: 1833 39bf a51a bd3c a00f 573e c6e3 92be
000003a0: 7c7a cdbe 5f9d a7be d82b 87bc b55f c33e
000003b0: f38d d5be a855 12bf dfb2 093e dc4b 203b
000003c0: 3655 923d d943 4d3e d63f 7b3e 8735 0f3e
000003d0: 4001 94be 25f0 ecbe e806 243b 03fd 40bf
000003e0: 4267 00bd 4b4b 3c3e 0be6 d1be be40 cb3d
000003f0: 10d4 a23e a474 8abd c74a a23d 0816 b23d
-0.010291351 -0.33207864 -0.28925076 -0.27164227 0.12810466 0.4627856 -0.0355615 -0.057495896
0.25698188 0.25378495 0.060755882 -0.2982564 0.51049185 0.65344965 -0.08272173 -0.42167673
0.19703484 0.45306668 -0.4392511 -0.058687698 -0.095049165 -0.16159038 -0.3442115 -0.071454115
0.32053527 0.26413867 -0.3738788 0.38008752 0.103400685 0.048042044 -0.20388694 -0.15085976
0.34693542 -0.36778042 0.37044248 0.08821688 -0.17885736 -0.3329923 0.31317115 -0.8160117
-0.26765943 -0.51029974 -0.15921365 -0.47773075 -0.36255127 0.04377721 -0.022816194 0.25527185
-0.4143239 -0.08101977 -0.09038523 -0.029777024 0.30303434 -0.5026792 -0.247262 0.13993527
0.14011015 0.53293353 0.12718831 -0.08358162 0.7407633 -0.4293708 0.35279736 0.47385934
0.3678435 -0.21898653 -0.15825176 -0.8838728 -0.71565783 0.2480406 0.02868253 -0.118364364
-0.050832994 0.17555812 -0.76553595 0.5685484 -0.111541174 -0.109037295 0.046136394 0.30425665
-0.15908943 0.22465205 -0.22205243 -0.50536543 -0.7088721 0.062087905 -0.34535676 0.23254423
-0.14457606 0.27137738 0.43050763 0.08399823 0.15716599 -0.053588264 -0.14084338 -0.4255735
0.014263309 -0.22871533 -0.09770862 0.3034495 -0.25382182 0.053435616 0.03189627 0.11230089
0.042109687 0.17804083 -0.12991461 0.14091448 -0.14581574 -0.25862947 0.77897507 -0.17102228
0.17566797 0.39824486 0.24778597 -0.4255978 -0.38528243 0.1228015 0.27163753 0.14299944
0.8897868 0.39455873 0.16303265 -0.006783802 0.05462973 0.049788386 0.076596275 0.03184124
-0.4852934 -0.56306064 0.07687931 -0.15307634 0.6801387 0.28659725 0.034793593 0.4691475
0.039361797 0.33696815 0.1426556 -0.03122182 -0.041767817 0.36990836 -0.27148563 0.713338
0.5127345 0.51208174 0.21640311 0.3049236 0.24722265 -0.14894825 -0.02608785 -0.21848758
-0.053818565 -0.0045721303 -0.25527847 0.14816715 -0.14028318 0.36271998 0.37789306 -0.35559314
-0.44526774 -1.0578202 -0.104081154 -0.0131037515 0.70603263 -0.28603184 0.47025096 -1.1598954
0.5990027 -0.0032804487 0.27386785 -0.70243466 -0.267082 0.008944384 0.42922568 -0.076338045
-0.30938888 0.24904071 -0.08056636 0.6263426 -0.119481966 -0.068490505 -0.18849362 0.38669717
0.17419656 0.09662822 0.39111444 -0.06416648 -0.017913776 -0.31968647 0.7889488 -0.08983491
0.21063448 0.032404043 -0.28873044 0.15455425 0.1353465 0.25128558 0.12515786 -0.16403192
0.048771817 -0.6666561 -0.9886298 -0.013824345 0.17052257 -0.22912005 -0.045475338 0.28335327
0.5592599 -0.08021779 -0.29668233 0.517311 -0.15830979 -0.20508417 0.031629965 0.30740207
0.2621558 0.6003255 -0.42623714 0.104997754 0.33021963 -0.29585236 0.62204355 -0.07377666
0.9084054 -0.5542214 -0.056392632 -0.32523715 -0.7234359 0.023083994 0.21002054 -0.28689402
-0.4013251 -0.32737252 -0.016500399 0.38158956 -0.4170986 -0.5716195 0.1344714 0.0024459278
0.07145159 0.20045413 0.2453607 0.13985263 -0.28907204 -0.46276966 0.002502853 -0.75386065
-0.031348474 0.18388097 -0.4099582 0.09924458 0.31802416 -0.06760529 0.07924419 0.086956084

network_body._body_endoder.seq_layers.2.bias f4 [128]
00000000: ea00 83bd 7c46 81bd 4283 dfbc df0c a9bd
00000010: 4c79 d8bd c969 c3bd b0d8 72bc 119f b2bc
00000020: 2598 bcbd def5 b6bd f9b6 f0bd 030a 323b
00000030: ad85 fdbd ddfe 84bd 574f cfbc 1fb7 96bd
00000040: 6ab8 efbd 7339 a9bd 24b6 b7bc 3635 e4bd
00000050: 9671 49bd f5f4 00be 5149 dbbd 38da 1dbd
00000060: 347b 6cbd 4d03 c8bd a103 b63b 6e9d 38bd
00000070: 2e03 d1bd 9231 52bd edcf cdbd 5ffd e9bd
00000080: 81ac d6bd 9935 3bbc 6280 07be 2045 70bd
00000090: 0345 a0bd 0e12 06be e739 26bd 283f 0ebd
000000a0: 161a 9bbd 5441 ebbb 74d0 c0bd 9842 33bd
000000b0: 8921 02bd bdd9 79bd 2ae1 05be fca6 a43c
000000c0: 1cf7 a6bd cc28 eabd 6872 c3bd 74db 22be
000000d0: 1d7f 10bd 36fa febc aed3 bbbd 631c 94bc
000000e0: 699b a73c a88b 5abd 9243 87bd 6ae6 83bd
000000f0: 1080 b5bd 46a6 dbbd 86d7 e5bd b2f9 19bd
00000100: 9079 b1bc f34b e9bd 276b 7cbd 33b3 5bbd
00000110: c9e7 11be 596a e03c 5764 40bc b972 5bbd
00000120: f0f4 8abd 8e11 cebd 1dec 6bbd f011 01be
00000130: deb2 1dbc 6003 4ebd 6b20 98bb 7737 61bd
00000140: 111b c8bd 46aa b2bd 4512 f2b9 20a6 2bbd
00000150: 61bd 09be 0cdc c33b f8a0 00be d378 a8bd
00000160: 220e a0bd 951d 9fbd be8a 1bbe eeef e8bd
00000170: 3028 1dbe 3943 85bc 90fb adbd 78f5 bcbd
00000180: 0617 0cbe d342 02be a832 6abd 7d18 2cbd
00000190: 9772 7cbd 0f0b ccbd d2cd f1bd 5bd7 fc3c
000001a0: b684 9abd e8e7 d6bc e828 d7bd 4602 61bd
000001b0: 3c60 cbbd e60a bdbd d71d bbbd 2b62 b8bd
000001c0: 8849 01be 1dac fcbd b954 cdbd 06d4 cdbd
000001d0: 0b17 afbd 61e1 f5bd 1b74 91bd f9fa 51bd
000001e0: 6c76 22be 92fc 3cbd c763 b4bd d009 5bbd
000001f0: 9dfa e4bc 93e4 59bd 4f3f eebb 5545 1fbe
-0.06396659 -0.06312272 -0.027284268 -0.08254408 -0.105700105 -0.09541661 -0.01482217 -0.021804364
-0.09208707 -0.08933614 -0.11753649 0.0027166612 -0.12379012 -0.06493924 -0.025306387 -0.07359146
-0.11705096 -0.08262911 -0.022425719 -0.11142962 -0.04918059 -0.12593444 -0.10707343 -0.038538188
-0.057734683 -0.097662546 0.005554632 -0.04507201 -0.102056846 -0.051316805 -0.10049424 -0.1142528
-0.10482121 -0.011426353 -0.13232568 -0.058659673 -0.07825663 -0.13092825 -0.040582564 -0.0347282
-0.07573335 -0.0071794186 -0.09414759 -0.04376468 -0.031770263 -0.060998667 -0.13074175 0.020099156
-0.08152601 -0.11433563 -0.09543306 -0.15904027 -0.035277475 -0.03112517 -0.09171234 -0.018079942
0.020459848 -0.053355843 -0.06604685 -0.06440432 -0.088623166 -0.107250735 -0.112227485 -0.037591644
-0.02166441 -0.11391439 -0.061625626 -0.053637695 -0.14248575 0.02739446 -0.011742673 -0.053576205
-0.06784999 -0.10061942 -0.057598222 -0.12604499 -0.009625165 -0.050296187 -0.0046425364 -0.054984536
-0.097707875 -0.08723883 -0.0004617145 -0.041906476 -0.13451149 0.0059771594 -0.12561405 -0.082261704
-0.078151956 -0.07769314 -0.15189645 -0.11373888 -0.15347362 -0.016267406 -0.08495247 -0.09226507
-0.13680658 -0.12720804 -0.057177216 -0.04201554 -0.06163272 -0.09963047 -0.11806835 0.030864408
-0.07544844 -0.026233628 -0.10505849 -0.05493381 -0.099304646 -0.09230594 -0.09136551 -0.09003099
-0.12625706 -0.123375155 -0.10025925 -0.10050206 -0.08549317 -0.12005878 -0.071022235 -0.051264737
-0.15865487 -0.046139307 -0.088080935 -0.053476155 -0.027951533 -0.0531965 -0.0072707306 -0.15553792

network_body._body_endoder.seq_layers.2.weight f4 [128, 128]
00000000: ce92 cdb9 a9cb 18be 619e 4f3e e710 babd
00000010: 77fe f7bd d077 e03c 8fea 57bd dd65 4abc
00000020: e3d2 fbbd 2813 d3bd f870 b93c 2570 bcbc
00000030: 8233 6ebd 7f1a a8bd 5d64 d93d 41c2 4fbb
00000040: 4648 15be 9cfa 1ebe 017d 50bd d503 3abe
00000050: 72b6 b73b b656 8b3c 4ed6 63be 159c 813d
00000060: 7785 a0bd b9b0 7ebc 84be a8bc 5273 a83d
00000070: a2a2 91bd 04fc 04be 2dc2 023d df1e 00be
00000080: aa99 22be 326c 0cbe 856f ed3d f473 69bd
00000090: 3512 32be bcac 1abe 9fbe b1bd 54f3 e3bd
000000a0: 468a 6abe 60b1 4bbd c337 c1bd 85b2 d53d
000000b0: b822 c7bc dae1 c7bd 57b5 4fbc a7b0 dfbd
000000c0: d9f8 05be c963 60bc 1db3 c63d a130 e83d
000000d0: f325 1ebe b968 ae3d ec80 b8bd ae5f 0b3e
000000e0: 7169 e4bd a32e 03be a9f4 2ebe 1d9a 893c
000000f0: c253 7abd d7b9 603d ba55 e43d c057 f2bd
00000100: bb01 013d 2fc6 993c 4345 38be 3189 cdbd
00000110: 60ef 8b3d a699 63be 28d6 9f3d d971 d73a
00000120: 1564 04be 5d1c 0cbe 0800 14bd 0b29 143e
00000130: 3f38 683d 64ea 7c3d f853 82bd 072c be3d
00000140: fc44 523d 8030 aebd 7bb2 f2bc 1658 0bbd
00000150: 55b6 f8bd 6b9f bfbd 9328 3bbd e993 3c3d
00000160: d287 45be 44ba 98bd db3e 66bb 5210 2fbe
00000170: d382 923d 1a1a a13d 6c8e b8bd e1b8 11be
00000180: 22a1 16be 2ecd b0bc 1b70 27bd 0a61 113e
00000190: e1c7 08be 9cfb 1ebe 2d07 01bc 77ea c4bd
000001a0: dc72 043d 2f22 933c cb6a 24be 4c52 aabd
000001b0: 5636 f0bd 9086 9fbd 7285 dc3d 269e 17be
000001c0: 0d1d 06be da25 5cbc 06b1 67bd 207a 48bd
000001d0: 0aae 3ebd c4d3 eebc 270b acbe 9b8c fdbd
000001e0: 0e37 13bc 8418 0fbe 23c9 75be fc2d 5dbe
000001f0: 3ecc ffbd c641 343c 6cf6 1eba 5210 edbc
00000200: bdb9 0b3e f11d 253e 7787 54be ff2f f2bd
00000210: 64f8 3cbd 554f edbd 9f38 19be b622 ccbd
00000220: 0c52 4cbd 70e5 163d 167a 1abe ae84 d1bc
00000230: 3597 8cbd e742 4abe 5ac9 10be 65ad 73bd
00000240: 296a 07be 9f4e bfbc 6a54 c83d 5b7f 2e3e
00000250: 25ea 9cbd f423 95bd 352c 613c ff55 9abc
00000260: a15a ae3d 0fcb 8b3d 3b72 adbc 2c49 d6bd
00000270: 0412 94bd 0e46 d1bc e2b3 973d f5e4 0cbd
00000280: 53a6 9ebd 896d e1bb 1ffe 12bc 0228 50be
00000290: 3a61 f3bb f619 2ebe 4506 4d3d 68c9 81bd
000002a0: 506d 58bd ec1d 0fbe 0f8a 983d a78b 41be
000002b0: 1683 0bbd 8c0b 7f3d 217a 8abe 0083 1a3e
000002c0: db53 a3bd ef28 97bd 309f b13d e49d 03be
000002d0: 244b eebd 7adb a1bc f0f5 c8bc e1a6 e3bd
000002e0: cf2f c83d 8612 b3bd a3eb a0be 4850 b4bd
000002f0: 1979 babd 1867 0bbe 0474 063d 05be 6439
00000300: e5d7 17be 0124 48bd e9e6 c9bd e460 3f3d
00000310: fc15 13bd 86c5 c8bd 2a0f 34bd e2ca d7bd
00000320: e8cb d4ba 57f4 29be 5d31 47bd 7190 04be
00000330: e2f0 833d b81f 2cbd 1eb0 d8bc a464 96bd
00000340: a408 cf3d 1bc9 a93d 8895 b1bc 38d0 93bd
00000350: 6c96 9e3d 5c51 cabd b857 963d 99bc 84bc
00000360: fc47 0a3c 175b 79be 4c88 c23d 0251 a53d
00000370: 9b9a e3bd ac65 a43d ee3b d5bc 60b4 dfbc
00000380: 5d4f 22bd 8501 57bd aa85 053e 406f abbc
00000390: 7fcb d3bd a76c acbd 24d9 01bc 1dff 103d
000003a0: ba31 e63d 698c 6ebd 117f b7bd e3c6 a5bc
000003b0: cec4 1ebc e6da 82bd abcd 06be d61d 173e
000003c0: 218d 743d ea60 e93d d38c 313e d3e4 403e
000003d0: 857a 783d cdc8 51be ba87 cd3d 4844 883d
000003e0: c933 193e dcbf 7abd 962a fbbd 5eec 0ebc
000003f0: bfc8 ae3c 62e3 bcbd 3c27 f4bd 3d30 a8ba
-0.00039210025 -0.1492144 0.2027526 -0.09085255 -0.12109082 0.027400881 -0.052713927 -0.012353388
-0.12296083 -0.10306388 0.022636876 -0.023002693 -0.05815459 -0.08208179 0.10614846 -0.0031701478
-0.14578351 -0.15525287 -0.050900463 -0.18165524 0.005606466 0.01700912 -0.2224972 0.063285984
-0.078379564 -0.015545064 -0.020598657 0.082251206 -0.07111098 -0.12986761 0.03192346 -0.12511776
-0.1587893 -0.13713148 0.11593536 -0.056995347 -0.17389758 -0.15104955 -0.08678936 -0.111303955
-0.2290431 -0.049729705 -0.09434464 0.104344405 -0.024308547 -0.09759875 -0.012677512 -0.10922366
-0.13083209 -0.013695666 0.09702132 0.113374 -0.15444164 0.08516068 -0.09008965 0.13610718
-0.11152924 -0.12810759 -0.17085518 0.01679712 -0.061115034 0.05486473 0.111491635 -0.11833143
0.03149579 0.01877126 -0.17995171 -0.10035933 0.068327665 -0.22226581 0.07804519 0.0016437127
-0.12928803 -0.13682695 -0.036132842 0.14468782 0.056694265 0.06174697 -0.06363672 0.09285741
0.05133532 -0.085053444 -0.029626122 -0.034019552 -0.12144152 -0.093565784 -0.04569299 0.046039496
-0.19290093 -0.07457402 -0.003513268 -0.1709607 0.07153859 0.078663066 -0.0901154 -0.14230682
-0.14709905 -0.021582212 -0.040878396 0.14197174 -0.13357498 -0.15525669 -0.007875246 -0.09615033
0.0323361 0.017960636 -0.16056363 -0.08316478 -0.11729114 -0.07789338 0.1076764 -0.14806423
-0.1309702 -0.013436759 -0.056565307 -0.048944592 -0.046552695 -0.029153712 -0.3360226 -0.12380334
-0.008985294 -0.13974196 -0.24002509 -0.21599573 -0.12490128 0.01100201 -0.00060639414 -0.028938446
0.13645072 0.16124703 -0.207548 -0.11825561 -0.04613532 -0.11587397 -0.14963005 -0.09967558
-0.049882933 0.036839902 -0.15085635 -0.025575962 -0.06864778 -0.19752084 -0.1413931 -0.059491534
-0.1322409 -0.02335292 0.09781726 0.1704077 -0.07661847 -0.07282248 0.01374345 -0.018839834
0.0851338 0.0682584 -0.021172633 -0.10463175 -0.07229999 -0.0255461 0.07407357 -0.034398038
-0.077465676 -0.0068795127 -0.00897172 -0.20327762 -0.007427362 -0.17002091 0.050054807 -0.06337243
-0.052838624 -0.13976258 0.074482076 -0.1890093 -0.03406056 0.06226687 -0.27046302 0.15089035
-0.079749785 -0.07380854 0.08672941 -0.12853199 -0.11635426 -0.019757975 -0.024531335 -0.11115814
0.09774744 -0.087437674 -0.31429777 -0.08804375 -0.09105129 -0.13613546 0.032825485 0.00021814562
-0.14828451 -0.04886246 -0.09858496 0.04672326 -0.035909638 -0.098032996 -0.043959774 -0.10536744
-0.0016235085 -0.16597115 -0.04863106 -0.12945725 0.06442429 -0.042022437 -0.026451167 -0.073434144
0.1010907 0.08290311 -0.021677747 -0.07217449 0.077435344 -0.09878799 0.0734095 -0.016203212
0.008440014 -0.24351154 0.09498653 0.08072092 -0.11113473 0.08027205 -0.026029553 -0.02730769
-0.039626468 -0.052491684 0.1303927 -0.020927072 -0.10341548 -0.08419161 -0.0079253055 0.035399545
0.11239953 -0.058239374 -0.08959783 -0.020236438 -0.009690477 -0.06389408 -0.13164394 0.14757475
0.059704904 0.11395438 0.17338876 0.1883729 0.06066372 -0.20486756 0.100356534 0.066536486
0.1496116 -0.061218128 -0.12263982 -0.0087233465 0.021335958 -0.09223057 -0.11921546 -0.0012831759
