RollerAgent/Assets/Learn/RollerAgent_04.onnx (onnx, 78271 bytes, 7 tensors)

action_model._continuous_distribution.log_sigma f4 [1, 2]
0	0xbf0ff88c	-0.5623863
1	0xbe8e8ef3	-0.27843437

action_model._continuous_distribution.mu.bias f4 [2]
0	0xbe17cb51	-0.14823653
1	0xbceab524	-0.028650828

action_model._continuous_distribution.mu.weight f4 [2, 128]
0	0x3bf846a0	0.0075767785
1	0x3de22faa	0.110442474
2	0x3d830833	0.06398048
3	0x3dd9b6f5	0.106305994
4	0x3d4522d2	0.04812891
5	0x3e078869	0.1323563
6	0xbd50e8ca	-0.051003255
7	0xbc9dc9c2	-0.019261245
8	0xbcfdd630	-0.030985922
9	0x3d783d7d	0.060605515
10	0x3cf4bac8	0.02987422
11	0xbd8b48c4	-0.06800988
12	0x3da08948	0.07838684
13	0x3e062fe6	0.1310421
14	0x3d580c0c	0.052745864
15	0x3da97baa	0.0827554
16	0x3d052959	0.032510135
17	0x3d2a77a0	0.04161799
18	0x3dbd1f2a	0.0923446
19	0x3e1dd410	0.15412927
20	0x3d3e8164	0.046510115
21	0xbc7b74df	-0.015347688
22	0xbbb7791e	-0.005599155
23	0x3d55a0f0	0.052155435
24	0x3db11bcc	0.0864788
25	0xbd4d7865	-0.050163645
26	0x3ceb4a00	0.02872181
27	0x3d9a10ff	0.07522773
28	0x3c2127d8	0.00983616
29	0x3d1002df	0.035158988
30	0x3dacd5f4	0.08439246
31	0x3df0e3a6	0.117621705
32	0x3da62248	0.081120074
33	0x3ce9171e	0.028453406
34	0x3dcaba8f	0.098988645
35	0x3da60409	0.081062384
36	0x3b914923	0.0044337674
37	0x3d3d7bde	0.046260707
38	0xbc853aa4	-0.016263314
39	0x3dd2af69	0.10287363
40	0x3d2e50dd	0.042557586
41	0xbb51775f	-0.003196202
42	0x3dd008b3	0.10157909
43	0x3d37e4f9	0.0448961
44	0x3e04cfc1	0.12969877
45	0x3b456a70	0.0030123256
46	0x3d9b48ef	0.0758227
47	0x3c9d4f8a	0.019202966
48	0x3cd9f60d	0.026606584
49	0x3cba0a07	0.02270986
50	0x3d63fbbe	0.055660002
51	0x3d82ce3b	0.063869916
52	0xbbf19bcb	-0.0073733083
53	0xbd06d4ed	-0.032917906
54	0x3cae53d7	0.021280212
55	0x3dba0e20	0.090847254
56	0x3dde2a16	0.10847871
57	0x3d2fb723	0.042899262
58	0x3d0d6b38	0.03452608
59	0x3b828156	0.003982703
60	0x3dd5df43	0.104429744
61	0x3d979e7c	0.07403275
62	0xbdbc825c	-0.092045516
63	0x3d5a481d	0.05329143
64	0x3c06408f	0.008194103
65	0x3ca1db5e	0.019757923
66	0xbd04e438	-0.03244421
67	0x3d98311f	0.07431244
68	0x3c3e3971	0.011610375
69	0xbd6474c9	-0.055775438
70	0x3d4d0436	0.050052844
71	0x3d968bff	0.07350921
72	0x3e008bde	0.12553355
73	0x3e3e0763	0.18557505
74	0x3da5c1be	0.08093594
75	0x3c8647ab	0.016391596
76	0xbc606eb7	-0.0136982715
77	0x3cd9ba61	0.02657813
78	0x3c784dc9	0.015155264
79	0x3d3609ca	0.04444293
80	0x3dac4221	0.084110506
81	0xbd870441	-0.06592608
82	0x3ced2261	0.028947057
83	0x3d919695	0.07108799
84	0xbd379787	-0.044822242
85	0xbcdb75a3	-0.026789492
86	0x3e48f164	0.19623333
87	0x3d5a361a	0.05327425
88	0x3dd226d7	0.10261314
89	0x3c8187c3	0.015811807
90	0x3e173ab6	0.1476849
91	0x3dd06bf1	0.10176838
92	0x3d3fca95	0.046824057
93	0x3d3555c8	0.04427126
94	0x3d999f5f	0.07501101
95	0x3d56c1b0	0.05243081
96	0x3c140172	0.009033548
97	0x3caeb863	0.021328157
98	0x3deb8695	0.11500279
99	0x3c64e4cd	0.013970566
100	0xbc94e547	-0.018175734
101	0x396c633d	0.00022543683
102	0xbcb4534a	-0.022012372
103	0xbd6a259c	-0.057164773
104	0x3d86977d	0.06571863
105	0x3ced255c	0.028948478
106	0x3c0f4bd3	0.008746105
107	0x3cfdbed5	0.030974785
108	0x3dace10a	0.0844136
109	0x3dfb57df	0.122726195
110	0x3d11c499	0.03558788
111	0xbc8a9d23	-0.016920632
112	0x3d5af4b4	0.053456023
113	0x3d642186	0.055696033
114	0x3d98c831	0.074600585
115	0x3d5855a3	0.052816045
116	0x3d362aa3	0.044474255
117	0xbcd92f78	-0.026511893
118	0xbd8c75bb	-0.06858393
119	0x3d08704c	0.03331022
120	0x3d074b04	0.033030525
121	0x3ddb00bc	0.106934994
122	0xbc8d13a3	-0.017221278
123	0x3d242018	0.04006967
124	0xbd2e489e	-0.042549722
125	0x3db9ced9	0.09072656
126	0x3d611a82	0.05495692
127	0x3cf530ec	0.029930554
128	0xbb2d7cbe	-0.0026472057
129	0x3df98fb4	0.12185612
130	0xbd8c9c20	-0.06865716
131	0xbdb2eacb	-0.087361895
132	0x3de696b4	0.11259213
133	0xbbf696d7	-0.0075253057
134	0xbc3610e5	-0.011112426
135	0xb99d49ab	-0.0003000026
136	0x3dd7e918	0.10542506
137	0xbb699467	-0.0035641433
138	0xbcb8c598	-0.022555158
139	0xbda165c2	-0.07880737
140	0xbcafdf22	-0.021468703
141	0xbd8a84a0	-0.067635775
142	0xbd3ac3b5	-0.045596797
143	0x3c7b7ffe	0.01535034
144	0xbb43b085	-0.0029859853
145	0x3cce4e99	0.025183963
146	0x3b5c1c24	0.003358611
147	0x3d218621	0.039434556
148	0x3c6f8ee0	0.014621466
149	0xbdeefbbf	-0.116691105
150	0xbc5942e2	-0.013260575
151	0x3db5b36c	0.08872113
152	0x3d0ec7b3	0.034858417
153	0xbdba46ad	-0.090955116
154	0x3c4e2a7b	0.01258337
155	0x3b3b72eb	0.0028602432
156	0xbe31b21e	-0.17353103
157	0x3daf82fa	0.08569904
158	0xbcdf1ce6	-0.02723546
159	0x3c5db6dc	0.013532367
160	0xbdbd031c	-0.09229109
161	0x3e0f81db	0.1401438
162	0xbe00b747	-0.12569915
163	0x3c85363a	0.016261209
164	0x3d2c30ac	0.042038605
165	0xbcb964a8	-0.022631004
166	0x3d41bfaa	0.047301926
167	0x3d31aa54	0.04337533
168	0xbdcfab64	-0.10140112
169	0xbd7767a8	-0.06040159
170	0x3cb6c778	0.022311911
171	0x3d0587f7	0.03260037
172	0x3d97366d	0.07383428
173	0x3d56fb3a	0.052485682
174	0xbd35cb84	-0.04438354
175	0x3daf5c93	0.08562579
176	0xbda133c4	-0.07871202
177	0x3d730bd4	0.059337452
178	0x3d412468	0.04715386
179	0xbde6a8f8	-0.11262697
180	0xbd92a690	-0.071606755
181	0xbda76353	-0.081732415
182	0x3d9f879e	0.07789539
183	0xbda9021e	-0.08252357
184	0x3b944a64	0.0045254696
185	0x3c489fe8	0.012245156
186	0x3c5937f1	0.013257966
187	0xbe08b9b8	-0.13352096
188	0xbd4f4b0a	-0.050608672
189	0x3d8ac2f9	0.06775469
190	0x3cfc6973	0.030812
191	0x3c3f267d	0.011666891
192	0xbe0fbb25	-0.14036234
193	0x3beecdae	0.0072877025
194	0x3d14e28f	0.036348876
195	0xbdc270a5	-0.094941415
196	0x3d84c6f4	0.0648326
197	0x3d47ca41	0.04877687
198	0xbe144946	-0.14481077
199	0xbd010a7f	-0.03150415
200	0xbcc86cf0	-0.024466008
201	0x3d7e8cca	0.062145986
202	0x3dca2c6e	0.098717555
203	0x3d1cd708	0.038291007
204	0x3d109826	0.03530135
205	0xbb39e83e	-0.0028367187
206	0xbd445a85	-0.04793789
207	0x3b44728c	0.0029975502
208	0x3bff760d	0.007796055
209	0x3ddd6fc7	0.108123355
210	0x3d90456b	0.070444904
211	0xbe1025e7	-0.14076959
212	0xbe6383ba	-0.22218218
213	0xbd845c7f	-0.06462955
214	0xbd91b37a	-0.071143106
215	0x3d9384dd	0.07203076
216	0xbdc5ca4b	-0.09657725
217	0xbd6b1327	-0.057391312
218	0x3cb52664	0.022113033
219	0x3db4f4ce	0.08835755
220	0x3c30a799	0.010782146
221	0xbda039a3	-0.07823493
222	0xbdc3e3e1	-0.09564949
223	0x3ca2df8e	0.01988199
224	0x3caf851c	0.021425776
225	0x3e005b5b	0.1253485
226	0x3d4a52d5	0.0493954
227	0x3d82ed0c	0.06392869
228	0xbd7846e3	-0.060614478
229	0x3d4e7592	0.050405093
230	0x3d1bbc10	0.038021147
231	0xbd1c8782	-0.038215168
232	0x3ce1301b	0.027488759
233	0xbd1269e2	-0.03574551
234	0xbd3f2d61	-0.046674136
235	0x3dab10b9	0.08352799
236	0x3c01fafa	0.007933373
237	0xbd5d2afc	-0.05399607
238	0xbc3aaa38	-0.011393122
239	0xbd6cd1b4	-0.057817176
240	0x3dca386f	0.09874045
241	0xbd987687	-0.07444482
242	0xbd2e4684	-0.042547718
243	0xbcfb6be4	-0.030691095
244	0xbd07d5b0	-0.033162773
245	0xbd522de7	-0.051313307
246	0xbd110929	-0.035409126
247	0xbcfa14b5	-0.030527452
248	0x3d83ed4e	0.06441747
249	0x3e188446	0.14894208
250	0xbd4c0cce	-0.0498169
251	0x3dd1918f	0.10232841
252	0x3d297f67	0.041381266
253	0xbc79f93d	-0.015257177
254	0xbd1b9568	-0.03798428
255	0xbd2e4e4c	-0.04255514

network_body._body_endoder.seq_layers.0.bias f4 [128]
0	0xbd601bf9	-0.054714177
1	0xbd3a49c4	-0.045480505
2	0xbdb6df48	-0.08929306
3	0x39b55393	0.00034585278
4	0xbe4a8422	-0.19776967
5	0xbdcdd885	-0.100510634
6	0xbe23cbeb	-0.15995757
7	0x3d662602	0.05618859
8	0x3dbc9705	0.09208492
9	0xbdf9f177	-0.12204259
10	0xbd3e76f0	-0.046500146
11	0xbe3e76f5	-0.18600066
12	0xbe59420f	-0.21216606
13	0xbe13f753	-0.14449815
14	0xbde0f0c2	-0.10983421
15	0xbcb8dff3	-0.022567725
16	0xbbf26c10	-0.007398136
17	0xbe50423b	-0.20337765
18	0xbdfd0084	-0.12353614
19	0xbdec147a	-0.11527343
20	0xbd9fd6a8	-0.07804614
21	0xbc77006f	-0.015075787
22	0xbc5c4667	-0.01344452
23	0x3c0bf14f	0.008541419
24	0xbe00e594	-0.12587577
25	0xbccea98c	-0.02522733
26	0x3cd84e9c	0.026404671
27	0xbde356ab	-0.11100515
28	0xbd954e1c	-0.07290289
29	0xbdb33e41	-0.08752108
30	0xbe203ec0	-0.15648937
31	0x3d34e27b	0.0441613
32	0xbcd24532	-0.02566776
33	0xbcde7c81	-0.027158977
34	0xbdfa4d37	-0.12221759
35	0xbe084c32	-0.13310316
36	0xbdd17b0c	-0.102285475
37	0xbe5554d7	-0.20833145
38	0xbe09a089	-0.13440146
39	0xbdfe9438	-0.12430614
40	0x3d00d44f	0.031452473
41	0xbe0490a9	-0.12945808
42	0xbd07ed34	-0.0331852
43	0xbdfba9fc	-0.12288281
44	0x3e031ea1	0.12804653
45	0x3d1ba435	0.037998397
46	0xbca09399	-0.01960163
47	0x3d8f5b8e	0.069998845
48	0xbdc77fc6	-0.09741168
49	0xbd0f35a7	-0.034963276
50	0xbe47e105	-0.19519432
51	0xbe55c20d	-0.20874806
52	0xbdcfaa1b	-0.10139867
53	0xbd478f81	-0.04872084
54	0xbbf20d73	-0.007386857
55	0xbe0c689b	-0.13711779
56	0xbd7a9a37	-0.061182227
57	0x3d347aec	0.04406254
58	0xbcff86fa	-0.031192292
59	0xbd6a3f74	-0.05718942
60	0xbd8f5ede	-0.07000516
61	0xbdd5c93c	-0.10438773
62	0xbe1b8335	-0.1518677
63	0x3d363485	0.04448368
64	0xbd571995	-0.05251463
65	0xbd890ea6	-0.06692247
66	0xbe1a7dee	-0.15087101
67	0xbddc1341	-0.1074586
68	0xbddfa3ad	-0.109198906
69	0xbbdcea3f	-0.0067417915
70	0xbd2ed9d9	-0.042688224
71	0xbe0d0f44	-0.13775355
72	0xbd8aef5a	-0.06783934
73	0x3dabc25b	0.0838668
74	0xbe05bcc0	-0.13060284
75	0xbca6286f	-0.020282952
76	0xbd9224a2	-0.071358934
77	0x3d2dce08	0.042432815
78	0xbe22a83d	-0.1588449
79	0xbd277e14	-0.04089172
80	0xbcf19b7b	-0.029493084
81	0xbdce3680	-0.10068989
82	0xba6e9765	-0.0009101539
83	0xbd41771b	-0.04723273
84	0xbde2850e	-0.110605344
85	0xbd19627e	-0.037447445
86	0xbdcc23aa	-0.0996774
87	0xbe26b0d0	-0.16278386
88	0xbd20e372	-0.03927941
89	0x3d82449c	0.063607424
90	0xbd175681	-0.03694773
91	0xbcdd881a	-0.027042437
92	0xbddabd35	-0.106806196
93	0xbbddd36e	-0.006769589
94	0xbc3c01eb	-0.011475067
95	0xbe27fd00	-0.16405106
96	0xbdc0d5d8	-0.094157875
97	0xbe0768b2	-0.13223532
98	0xbce9d540	-0.028544068
99	0xbde658b8	-0.112473905
100	0xbde29f7c	-0.110655755
101	0xbdc036e2	-0.09385468
102	0xbe50012c	-0.20312947
103	0x3ce2e468	0.027696803
104	0xbe0479c2	-0.12937072
105	0xbdaed508	-0.08536726
106	0xbd4e551b	-0.05037413
107	0xbe4d64c9	-0.20057978
108	0xbd0d3d34	-0.034482196
109	0xbe0ac398	-0.13551176
110	0x3dda28d9	0.10652322
111	0xbe79e94a	-0.24405399
112	0xbd64496a	-0.055734076
113	0xbdce6b0b	-0.100790106
114	0x3c50b873	0.012739289
115	0xbde1f1a1	-0.11032415
116	0xbcf5ddaf	-0.030012934
117	0xbe0514f4	-0.12996274
118	0xbcbf7873	-0.023372864
119	0xbcb974c2	-0.022638682
120	0xbe186ade	-0.14884517
121	0xbe1b89f2	-0.1518934
122	0xbb7d0c59	-0.0038612096
123	0xbe3df066	-0.18548736
124	0xbc571143	-0.013126674
125	0x3ba1ded0	0.0049398914
126	0xbe398e59	-0.18120708
127	0x3dd2cf95	0.102934994

network_body._body_endoder.seq_layers.0.weight f4 [128, 17]
0	0xbed5a5d9	-0.41728094
1	0x3da27df6	0.079341814
2	0xbc9eea94	-0.019398965
3	0xbe891ed7	-0.2678134
4	0x3e40d3ef	0.18830846
5	0x3f1cd6c4	0.61265206
6	0x3dc0c692	0.09412874
7	0xbeb05fe5	-0.34448162
8	0xbe89c175	-0.26905409
9	0x3d0732af	0.03300732
10	0xbd5b5c1f	-0.05355465
11	0xbe2c9439	-0.16853417
12	0x3eada2bb	0.33913216
13	0xbe1a3269	-0.15058292
14	0xbe5af482	-0.21382335
15	0x3e543044	0.20721537
16	0x3e6a9c8b	0.22911279
17	0x3d9ed504	0.07755473
18	0x3d5f4ff9	0.054519627
19	0x3e9f88fa	0.31159192
20	0xbe2804f8	-0.16408145
21	0x3e0a1769	0.13485493
22	0x3e39d82a	0.18148866
23	0x3e27d05d	0.16388078
24	0xbee7a1a6	-0.45240515
25	0xbc09a2b0	-0.008400604
26	0x3d8409de	0.064471945
27	0xbd39aa2d	-0.045328308
28	0x3f0831fd	0.53201276
29	0x3e5cceae	0.21563217
30	0x3d08aa2d	0.033365417
31	0x3d8d8a7a	0.06911178
32	0xbe203a1e	-0.1564717
33	0x3eecfd75	0.46287122
34	0x3e92f0a2	0.28699213
35	0x398e5f87	0.00027155524
36	0x3e594fb9	0.21221818
37	0x3eb871dc	0.36024368
38	0x3e1ab776	0.15109047
39	0x3ef43772	0.4769855
40	0xbe3fb925	-0.18722971
41	0xbd7407f3	-0.059577893
42	0xbdb69800	-0.089157104
43	0xbd20bdaf	-0.039243396
44	0x3eee9563	0.46598348
45	0x3e16e2e3	0.14734988
46	0xbc5db590	-0.013532057
47	0xbea17957	-0.31537887
48	0xbdea322f	-0.11435353
49	0xbbce7876	-0.006300981
50	0x3de7e0b0	0.113221526
51	0x3dd5c639	0.104381986
52	0x3be0f974	0.0068656746
53	0x3e197829	0.14987244
54	0xbe4403a6	-0.19142017
55	0x3e865a35	0.26240698
56	0x3c202c26	0.009776151
57	0x3e59d12b	0.21271197
58	0x3e92dafc	0.28682697
59	0x3d933cb4	0.071893126
60	0xbc1bd0e2	-0.009510251
61	0x3d22eef7	0.039778676
62	0xbd093789	-0.033500228
63	0xbeb4e79c	-0.35332954
64	0xbe060b20	-0.13090181
65	0xbd494c22	-0.04914487
66	0xbe44ad35	-0.19206698
67	0x3d957a39	0.07298703
68	0x3e4589c8	0.1929084
69	0xbec920ce	-0.3928284
70	0xbdb467d9	-0.0880887
71	0x3e67c490	0.22633576
72	0x3d57298a	0.05252985
73	0x3e86b93a	0.26313192
74	0xbcebdeec	-0.02879282
75	0xbd5389da	-0.051645137
76	0x3d25f5ed	0.040517736
77	0xbc4558a0	-0.012045056
78	0xbe4fd7b9	-0.20297135
79	0x3e61ebeb	0.22062652
80	0x3de3e766	0.1112812
81	0xbe9249f7	-0.28572056
82	0x3e3785d9	0.17922153
83	0xbd2ad7c3	-0.041709673
84	0x3ce864d4	0.028368391
85	0xbd0bde5c	-0.034147605
86	0x3c79b7f0	0.015241608
87	0x3dddaaee	0.10823618
88	0xbe02ba39	-0.12766351
89	0x3e742b56	0.23844656
90	0x3dff094b	0.12452944
91	0xbe5bf150	-0.21478772
92	0xbcdc6880	-0.026905298
93	0xbe0a991d	-0.1353497
94	0xbe5eb67e	-0.21749303
95	0x3c8bbd07	0.017057909
96	0xbda19098	-0.07888907
97	0x3e983d62	0.2973433
98	0xbe99fdac	-0.3007635
99	0xbd9d91f3	-0.07693853
100	0x3add99dc	0.0016906816
101	0x3e9bccd6	0.30429715
102	0xbf08a42d	-0.5337551
103	0xbd7ab2f0	-0.061205804
104	0xbda02463	-0.0781944
105	0x3e650ab0	0.22367358
106	0x3e17e343	0.14832787
107	0xbe2dd09e	-0.16974112
108	0xbe5592e6	-0.20856819
109	0xbedbc438	-0.4292314
110	0x3dcae8ac	0.0990766
111	0xbda02e54	-0.078213364
112	0xbe29db96	-0.16587672
113	0x3e1c8faf	0.15289186
114	0xbe379961	-0.17929603
115	0x3dc7763a	0.09739347
116	0x3db3e203	0.08783343
117	0x3e33fe70	0.17577529
118	0xbc7b7bdf	-0.015349357
119	0x3d00fff1	0.031494085
120	0x3e60863a	0.21926203
121	0x3c8e0381	0.017335655
122	0x3c784de3	0.015155288
123	0x3e09dd88	0.13463414
124	0x3d8e96dd	0.06962369
125	0xbeb8406a	-0.35986644
126	0x3e9e4a2c	0.30915964
127	0x3d049a7c	0.03237389
128	0xbd98a99a	-0.07454224
129	0x3ed16679	0.40898493
130	0xbd0f1bfb	-0.034938794
131	0xbe2ba72a	-0.16762987
132	0xbda69d72	-0.08135499
133	0x3e86f7a7	0.2636082
134	0xbea2bd31	-0.31784967
135	0x3edd9490	0.43277407
136	0x3e9b242f	0.30301043
137	0x3e325272	0.17414263
138	0x3e7da3d7	0.24769531
139	0xbebb8715	-0.36626497
140	0xbe0fa8f2	-0.14029291
141	0x3e2bb9f4	0.16770154
142	0xbda80c15	-0.082054295
143	0xbde22cf7	-0.110437326
144	0x3df6813c	0.12036368
145	0xbed6f98a	-0.41987258
146	0x3eac36ec	0.33635652
147	0x3ea12cfe	0.3147964
148	0xbe7d8ab4	-0.24759942
149	0xbec0221a	-0.37526017
150	0x3df75060	0.12075877
151	0xbe114544	-0.14186579
152	0x3e95d2f5	0.2926251
153	0xbe851172	-0.25989872
154	0xbe9a7d26	-0.30173606
155	0xbc029d35	-0.007972051
156	0x3c13507f	0.00899136
157	0xbe262a27	-0.16227017
158	0xbe414b42	-0.18876365
159	0xbe4d70b3	-0.20062523
160	0x3e0d7786	0.13815126
161	0x3dba0022	0.090820566
162	0x3e0ee32e	0.1395385
163	0xbdaa5732	-0.083174124
164	0x3e58deac	0.21178693
165	0x3d79c80a	0.060981788
166	0xbe025a42	-0.12729743
167	0x3e12f050	0.14349484
168	0x3e1d6ccb	0.15373532
169	0xbe907f0f	-0.28221938
170	0x3ebf1edb	0.37328228
171	0x3e8f837f	0.2803001
172	0xbd27823e	-0.040895693
173	0x3d6239db	0.055230957
174	0xbdbb1e4e	-0.091366395
175	0xbcd87d4f	-0.02642694
176	0x3e7aa337	0.24476324
177	0x3daa7371	0.083228
178	0xbc8d59e8	-0.017254785
179	0xbe0af68d	-0.13570614
180	0xbe56c022	-0.2097173
181	0xbdad0dc9	-0.08449895
182	0x3e32e0f0	0.1746862
183	0xbe24af52	-0.16082504
184	0x3ebd40cc	0.369635
185	0xbe80d49c	-0.25162208
186	0xbe67e40c	-0.22645587
187	0x3e8edee8	0.2790444
188	0xbebd3e9b	-0.36961827
189	0x3e06358e	0.13106367
190	0x3cc70ad6	0.02429716
191	0xbe1e8375	-0.15479834
192	0xbc987564	-0.018610664
193	0xbe805a80	-0.25069046
194	0xbd4299ac	-0.047509834
195	0xbe9822ef	-0.29714152
196	0x3d6d7755	0.057975132
197	0xbec414fe	-0.38297266
198	0xbd2a87de	-0.04163348
199	0x3e734153	0.23755388
200	0xbe2d0663	-0.16896968
201	0x3d924a62	0.07143094
202	0xbe998734	-0.29985964
203	0x3c223a96	0.009901663
204	0xbe1a1f85	-0.15051086
205	0xbe88ca7e	-0.2671699
206	0x3e00736d	0.12544031
207	0xbe306eff	-0.17229842
208	0x3c9de081	0.01927209
209	0x3e1fee76	0.1561831
210	0x3eb94a8e	0.36189693
211	0xbeb0628c	-0.34450185
212	0x3e364711	0.17800547
213	0x3e34b230	0.17646098
214	0xbe8aead0	-0.27132273
215	0x3eaf7d49	0.34275272
216	0xbd9b90ef	-0.07596003
217	0x3c93d4ae	0.01804575
218	0x3ef02981	0.46906665
219	0x3e83ccca	0.2574218
220	0x3e60e80d	0.2196352
221	0x3e878963	0.26472005
222	0xbed4496c	-0.41462266
223	0x3e8f9cc9	0.28049305
224	0xbf11dda3	-0.56978816
225	0xbed558db	-0.41669354
226	0x3e114267	0.14185487
227	0xbe434b89	-0.19071783
228	0xbe5d5b06	-0.21616754
229	0xbcaebafa	-0.021329392
230	0xbea0a9cf	-0.31379554
231	0x3e50e4a3	0.20399718
232	0x3e601445	0.21882732
233	0xbe4f7f84	-0.20263487
234	0xbe632cc9	-0.22185053
235	0x3daa6e62	0.08321835
236	0x3f15604d	0.5835007
237	0xbebadcc7	-0.36496565
238	0x3cb65dee	0.022261586
239	0xbeda8e24	-0.4268657
240	0xbd73ba79	-0.059504006
241	0xbe4a1031	-0.19732739
242	0x3d1dbfe4	0.03851308
243	0xbe776fb7	-0.2416371
244	0xbe396fbe	-0.18109033
245	0x3e8071a2	0.25086695
246	0xbe38faf2	-0.18064478
247	0x3e2acf66	0.16680679
248	0xbe0fbdba	-0.14037219
249	0x3e6a7ed8	0.2289995
250	0x3ea98d6d	0.33115712
251	0xbee9a8b8	-0.45636535
252	0x3eab8aa8	0.33504224
253	0x3e789c98	0.24278486
254	0x3e827e61	0.25487044
255	0xbe2d736d	-0.16938563

network_body._body_endoder.seq_layers.2.bias f4 [128]
0	0xbe3825e6	-0.17983207
1	0xbd1ebdd0	-0.038755238
2	0xbca88f21	-0.020576062
3	0x3b7e4910	0.0038800873
4	0xbd95ba58	-0.07310933
5	0xbce4cca9	-0.02792962
6	0x3da668de	0.081254706
7	0x3d830de6	0.06399135
8	0x3cf3740c	0.029718421
9	0xbe251b02	-0.16123584
10	0xbdba4ab5	-0.090962805
11	0xbd6f09e8	-0.058359057
12	0xbce70d74	-0.028204657
13	0xbd220e2b	-0.039564293
14	0x3beda8e2	0.0072527984
15	0xbdfdabb2	-0.12386264
16	0xbdeadb80	-0.114676476
17	0xbda3f0fc	-0.080049485
18	0xbde19bbb	-0.11016031
19	0xbd9ec448	-0.077522814
20	0xbcc14b3b	-0.023595443
21	0x3bea83af	0.007156811
22	0xbdaee8a3	-0.08540466
23	0xbc676c40	-0.01412493
24	0xbd17ef39	-0.037093375
25	0x3ddb0e3f	0.106960766
26	0xbe1d98df	-0.15390347
27	0xbe224628	-0.15847075
28	0xbc795c70	-0.015219793
29	0xbb2935b2	-0.0025819358
30	0xbdbb1b53	-0.09136071
31	0xbd85cd32	-0.065332785
32	0xbd152a2c	-0.03641717
33	0xbc773963	-0.015089366
34	0xbd7bb052	-0.06144745
35	0xbd5e092b	-0.054207962
36	0xbd8dbd10	-0.069208264
37	0xbd353669	-0.044241343
38	0xbcfff79a	-0.031245995
39	0xbd8c0f18	-0.068388164
40	0xbc742f92	-0.01490392
41	0xbdbaf469	-0.09128649
42	0xbddda24b	-0.108219706
43	0xbe0c79b7	-0.13718306
44	0xbd96b763	-0.07359197
45	0xbd5deae7	-0.0541791
46	0xbd922192	-0.07135309
47	0x3d22056a	0.039555945
48	0xbd9c2e3e	-0.076260075
49	0xbddad884	-0.10685828
50	0x3a5423a7	0.0008092471
51	0xbcdd17d6	-0.026988905
52	0xbe2c3c4c	-0.16819876
53	0xbd8a0d6f	-0.067408435
54	0xbd959a29	-0.07304794
55	0xbd96ac0c	-0.07357034
56	0xbdb9c3c1	-0.0907054
57	0xbc9408ce	-0.018070605
58	0xbd5088b4	-0.05091162
59	0xbca70f41	-0.020393016
60	0xbd507836	-0.050895892
61	0xbd5d17eb	-0.053977888
62	0x3db0d931	0.08635176
63	0xbd41214e	-0.047150902
64	0xbdddba9b	-0.10826608
65	0xbd269a16	-0.04067429
66	0xbe05e3e2	-0.13075212
67	0xbd90cc71	-0.07070244
68	0xbdd900a3	-0.105958246
69	0xbd80b517	-0.0628454
70	0x3be546cc	0.006996965
71	0xbd2080b3	-0.039185237
72	0xbd140e7a	-0.03614662
73	0x3cb0de70	0.021590441
74	0xbd035971	-0.03206772
75	0xbd5d9df0	-0.0541057
76	0xbd41779c	-0.04723321
77	0xbde2f421	-0.1108172
78	0xbd8080f9	-0.062745996
79	0xbd15cefc	-0.03657435
80	0xbdb02bb2	-0.08602084
81	0xbb1e217d	-0.0024128847
82	0xbdf50b16	-0.11965005
83	0xbd1baa9d	-0.038004506
84	0x3c63e852	0.01391037
85	0xbd0d72f2	-0.03453345
86	0xbc67eff0	-0.014156327
87	0xbd9c71e4	-0.076389104
88	0xbd284b91	-0.04108769
89	0xbc147e8a	-0.009063372
90	0xbd44588e	-0.047936015
91	0xbd24eb4f	-0.04026347
92	0xbe0a53a5	-0.1350847
93	0xbd7469ca	-0.0596712
94	0xbd0f4579	-0.034978364
95	0xbd3f6667	-0.046728518
96	0xbda8addb	-0.08236285
97	0xbcbe3619	-0.023219155
98	0xbcc7ebbe	-0.024404403
99	0xbc9a1097	-0.018806739
100	0xbd1f775c	-0.03893219
101	0xbdaf9d83	-0.08574965
102	0x3c83ae0c	0.016074203
103	0x3d5d03c3	0.053958666
104	0xbc274cee	-0.010211213
105	0xbe427078	-0.18988216
106	0x3c709cec	0.014685851
107	0xbcc501ce	-0.024048712
108	0x3b825219	0.003977072
109	0xbca8a11d	-0.020584637
110	0xbd165768	-0.03670445
111	0xbd195810	-0.0374375
112	0xbd45db9a	-0.04830513
113	0xbd203f5f	-0.039122935
114	0xbcc9a999	-0.024617003
115	0xbd8e40c5	-0.069459476
116	0xbdec6b62	-0.11543919
117	0xbcfcde01	-0.030867578
118	0x3c9709ea	0.018437345
119	0xbc488196	-0.012237927
120	0xbdfedf4e	-0.12444936
121	0x3bed5898	0.007243227
122	0x3d0c9d70	0.03432983
123	0xbcb44425	-0.02200515
124	0xbd2af42d	-0.04173677
125	0xbd85b6bd	-0.06528995
126	0xbd9879af	-0.07445084
127	0xbbfc969d	-0.007708384

network_body._body_endoder.seq_layers.2.weight f4 [128, 128]
0	0xbe80a465	-0.25125423
1	0x3d975a20	0.07390237
2	0xbe78c76d	-0.24294825
3	0x3d01afe5	0.031661887
4	0x3da13d60	0.078730345
5	0x3c1a2dc8	0.009410329
6	0xbdcabf1a	-0.09899731
7	0xbdcb7438	-0.09934276
8	0xbc8fee6a	-0.01756974
9	0xbe825988	-0.25458932
10	0xbe8ebdd9	-0.27879217
11	0xbe199dfa	-0.1500167
12	0xbe8b43b4	-0.2720009
13	0xbe26a27e	-0.16272923
14	0xbdd40e57	-0.103542976
15	0xbd59709e	-0.053085916
16	0x3da42abd	0.08015964
17	0xbdcc6b13	-0.0998136
18	0x3bddb20b	0.006765609
19	0xbdf0b166	-0.11752586
20	0xbe10afd4	-0.14129573
21	0xbda41b2d	-0.08012996
22	0x3cd3ae94	0.025840081
23	0xbe08cc91	-0.13359286
24	0xbd35405b	-0.044250827
25	0x3daa7f20	0.083250284
26	0xbe055572	-0.13020876
27	0xbe2c7212	-0.1684039
28	0x3d1c4b60	0.03815782
29	0x3d6150ef	0.055008825
30	0xbe0fcbe6	-0.14042625
31	0xbdc3febb	-0.0957007
32	0xbdba9fb1	-0.0911249
33	0xbdc22c14	-0.094810635
34	0x3d244498	0.04010448
35	0x3d98f275	0.0746812
36	0xbe3c55b0	-0.18392062
37	0x3b6b1805	0.003587247
38	0xbe12632d	-0.14295645
39	0xbdf26d97	-0.11837309
40	0xbd3d8a1a	-0.046274282
41	0xbdd5dbe1	-0.10442329
42	0xbe014357	-0.12623344
43	0xbc2bc330	-0.010483548
44	0xbe228d06	-0.15874109
45	0xbe49cd67	-0.19707261
46	0x3d94b9bd	0.07261989
47	0xbdbb3541	-0.09141017
48	0xbe5f5e60	-0.21813345
49	0xbe2abd9b	-0.16673891
50	0xbdce9d7c	-0.100886315
51	0xbe4ff914	-0.2030986
52	0xbd85c8dd	-0.06532452
53	0xbcbacefd	-0.022803778
54	0xbe2ec146	-0.17065915
55	0xbe501fbb	-0.20324604
56	0xbe88b233	-0.26698455
57	0xbc83160c	-0.016001724
58	0xbdc37106	-0.09543042
59	0x3cf2ba7e	0.029629942
60	0xbe5ca269	-0.2154633
61	0xbda284cd	-0.07935486
62	0x3e22c52e	0.1589553
63	0xbdf1cec8	-0.118070185
64	0x3d6374aa	0.05553118
65	0xbe8a1216	-0.26966923
66	0xbd0a9c8d	-0.033840705
67	0xbd33ee51	-0.043928448
68	0x3d268e52	0.04066307
69	0x3cce5813	0.025188481
70	0xbde97ffc	-0.11401364
71	0xbdd26f7b	-0.102751695
72	0x3e01b812	0.12667874
73	0xbdc3f8cd	-0.09568939
74	0xbd4434a8	-0.04790178
75	0x3d91c936	0.07118456
76	0xbe272052	-0.16320923
77	0xbdbb619a	-0.091494754
78	0xbde2f2fd	-0.110815026
79	0x3dd8bd25	0.105829515
80	0xbe24860b	-0.16066758
81	0xbe01cc46	-0.1267558
82	0xbdd2c60c	-0.10291681
83	0xbc270319	-0.01019361
84	0xbd5bc302	-0.05365277
85	0xbe919391	-0.28432897
86	0x3d6d826b	0.057985704
87	0xbc73ab05	-0.014872317
88	0x3c4995c1	0.0123037705
89	0x3b22be2a	0.0024832585
90	0xbdfb45f1	-0.122692
91	0xbd0fa5af	-0.035070118
92	0xbd1d94ec	-0.0384721
93	0x3ca965a9	0.020678358
94	0x3d717321	0.058947686
95	0x3e341090	0.17584443
96	0xbd1f6acc	-0.03892021
97	0x3cc83af9	0.024442183
98	0x3d74a413	0.059726786
99	0x3d8a4194	0.06750789
100	0x3db3b60d	0.08774958
101	0xbcbda8c4	-0.023151763
102	0xbe27e2cd	-0.16395111
103	0x3cc176da	0.023616243
104	0xbcc45fb9	-0.023971425
105	0xbbbad9d1	-0.0057022353
106	0x3ca6685a	0.02031343
107	0x3deb0089	0.114747114
108	0xbdb5dfee	-0.08880602
109	0x3c4b8582	0.012421967
110	0xbe5b3dc4	-0.2141028
111	0xbd73b9a0	-0.059503198
112	0xbd89e6fa	-0.067335084
113	0xbc111258	-0.008854471
114	0xbe634177	-0.22192942
115	0xbd1a6cec	-0.037701532
116	0xbd89039d	-0.06690142
117	0xbdf36327	-0.11884146
118	0xbe70893c	-0.23489851
119	0xbddf8fcb	-0.10916098
120	0xbd0615a5	-0.032735486
121	0xbe0ce0ac	-0.1375758
122	0xbe1b8e8b	-0.15191095
123	0xbd8667ac	-0.065627426
124	0xbe39fff4	-0.18164045
125	0xbe44b9b0	-0.19211459
126	0xbd85978b	-0.06523045
127	0xbde583d0	-0.11206782
128	0x3c86a0a3	0.01643402
129	0xbe172806	-0.14761361
130	0xbd8f0316	-0.069830105
131	0x396df616	0.00022693755
132	0xbc188549	-0.009309121
133	0x3e21cc8d	0.15800686
134	0x3def9aee	0.11699472
135	0xbe0f7902	-0.14011005
136	0xbe07d769	-0.13265766
137	0xbdc8f6ea	-0.0981272
138	0xbd901b40	-0.070364475
139	0xbe02cece	-0.12774202
140	0xbd2137cf	-0.039359864
141	0xbe279a97	-0.16367565
142	0x3dad24a5	0.08454255
143	0xbe612082	-0.21985057
144	0xbdfc5368	-0.12320596
145	0x3e2829ed	0.16422243
146	0x3d977571	0.07395447
147	0x3d4d5bfc	0.05013655
148	0x3ce099e4	0.02741713
149	0xbd85beb6	-0.06530516
150	0x3da3b393	0.079932354
151	0xbe3b2ed8	-0.18279588
152	0xbd5bc86b	-0.05365793
153	0xbeaf9326	-0.34291953
154	0xbaaa8c57	-0.0013011795
155	0xbdc34042	-0.095337406
156	0xbda2a1cc	-0.079410166
157	0x3d83e5dc	0.064403266
158	0xbd022281	-0.031771187
159	0x3cb607fd	0.022220606
160	0xbd43c55b	-0.047795635
161	0xbd62db09	-0.05538467
162	0x3cb5db04	0.022199161
163	0xbdb0fe00	-0.08642197
164	0xbd9a4596	-0.07532804
165	0x3cfaa9c0	0.030598521
166	0x3da9b0f0	0.08285701
167	0xbd7ff95c	-0.062493667
168	0xbe24bbeb	-0.1608731
169	0x3b02f3a5	0.001998165
170	0x3d466986	0.04844048
171	0xbd2ce936	-0.042214595
172	0xbe590d0b	-0.21196382
173	0x3d467838	0.048454493
174	0xbe17b5dd	-0.14815469
175	0x3d6eac17	0.058269586
176	0x3babf376	0.0052475287
177	0xbdc47ccb	-0.09594115
178	0xbe0f83d6	-0.14015135
179	0x3dee809d	0.11645625
180	0x3d5620aa	0.052277245
181	0x3b96916e	0.0045949733
182	0x3dc19b74	0.094534785
183	0x3d809847	0.062790446
184	0xbc479ead	-0.012183827
185	0xbd97423a	-0.073856786
186	0xbe8992c7	-0.26869795
187	0x3e158556	0.14601645
188	0x3dc8797c	0.09788796
189	0xbe2aeae5	-0.16691168
190	0xbd78e842	-0.060768373
191	0xbdb42348	-0.08795792
192	0xbda6a6e8	-0.081373036
193	0x3db78375	0.0896062
194	0xbe03f28d	-0.12885495
195	0x3cf6fa60	0.030148685
196	0xbda28efe	-0.0793743
197	0xbbcb221b	-0.006199134
198	0xbd8b1af4	-0.0679225
199	0x3d06b753	0.032889675
200	0xbcb526f2	-0.022113297
201	0xbce99aaa	-0.028516132
202	0x3e0a43c7	0.13502418
203	0xbd7b261c	-0.06131564
204	0xbe360c82	-0.17778209
205	0xbe58faf6	-0.21189484
206	0x3d4808c9	0.048836503
207	0xbdb30201	-0.087406166
208	0xbc94dc13	-0.018171346
209	0x3d2b764a	0.041860856
210	0xbe42d942	-0.1902819
211	0xbd20ebc5	-0.039287347
212	0x3de72dac	0.11288008
213	0xbd3e915f	-0.046525355
214	0xbd0b1962	-0.033959754
215	0xbce8787c	-0.028377764
216	0x3da78355	0.081793465
217	0xbdc9111a	-0.09817715
218	0x3e10b132	0.14130095
219	0x3dc68728	0.09693748
220	0xbc4b3377	-0.012402407
221	0xbebef225	-0.37294117
222	0xbd963367	-0.07334023
223	0x3e2cc81f	0.16873215
224	0x3cf8e50f	0.030382661
225	0xbe0e3d50	-0.13890576
226	0x3e1b42b6	0.15162167
227	0x3e215721	0.15755893
228	0xbdc8e3c0	-0.09809065
229	0xbde5764b	-0.11204203
230	0xbd268122	-0.040650494
231	0xbe975306	-0.2955553
232	0xbe3e74ad	-0.18599196
233	0xbe57ce7f	-0.21074866
234	0xbe133f82	-0.14379695
235	0xbc55e6f0	-0.013055548
236	0xbe78f1f4	-0.24311048
237	0xbebfb2e1	-0.3744116
238	0xbeb3675c	-0.35039794
239	0xbd9ae130	-0.07562482
240	0xbc4fccf6	-0.012683144
241	0x3cc8db5f	0.024518667
242	0x3c1460c5	0.009056275
243	0x3dae3526	0.08506231
244	0xbdefb501	-0.11704446
245	0xbdf4bac7	-0.119496875
246	0xbb901ea6	-0.004398185
247	0xbcfd08e3	-0.030888027
248	0xbd958a28	-0.07301742
249	0xbd3fa4b1	-0.04678792
250	0xbd389f89	-0.04507402
251	0xbdad58de	-0.08464216
252	0xbe2792b7	-0.16364561
253	0xbdc1216f	-0.09430205
254	0xbb49430a	-0.0030710124
255	0xbe1b688f	-0.15176605
