RollerAgent/Assets/Learn/RollerAgent14.onnx (onnx, 81045 bytes, 9 tensors)

action_model._continuous_distribution.log_sigma f4 [1, 3]
000000 33 d3 06 bd d3 f6 8d be c2 b4 51 be
       -0.03291626 -0.27727374 -0.2047911

action_model._continuous_distribution.mu.bias f4 [3]
000000 da 99 d8 3c 23 9a ff 3b 60 7f 52 bd
       0.02644055 0.007800357 -0.051391006

action_model._continuous_distribution.mu.weight f4 [3, 128]
000000 e7 da 23 bd 00 4f ee 3b 3c 2b c9 3d 92 9e 72 3d
       -0.040003683 0.007272601 0.098226994 0.059233256
000010 f2 78 a1 bd 85 dc 90 3d ae 3e ff bd d2 de 23 3c
       -0.078843966 0.07073311 -0.12463127 0.010001855
000020 d3 72 6e bd 26 51 a6 3c ab 5c 3b b9 12 e5 ad bc
       -0.058214974 0.020302366 -0.00017868231 -0.021227393
000030 5a 1b 81 bd 7a 86 c4 3d 88 c1 2b 3c 92 27 e0 3c
       -0.06304045 0.09595962 0.010483153 0.027362619
000040 7f a9 c6 3d e7 05 c9 3c 14 ce 92 3b 23 d6 c4 3c
       0.097002976 0.024538947 0.004480133 0.02402789
000050 75 69 e5 3c d7 47 a0 3d 61 8f 5d 3c 5a 4d d7 3d
       0.028004387 0.07826202 0.013522954 0.105128005
000060 d9 2d 69 3d 95 ab 33 3c 14 36 4c bc 62 76 92 3d
       0.05692849 0.010966201 -0.012464065 0.07151486
000070 a1 15 9c bd 78 3f 07 bd e1 9c aa 3d be 45 af 3d
       -0.07621313 -0.033019513 0.083307035 0.08558224
000080 3a 38 55 3d 7b e4 3c bd 52 b9 f2 bc c7 d4 29 3d
       0.052055575 -0.046116333 -0.029629383 0.041462686
000090 ff 8c 54 3d 79 f8 ce bc f7 46 3a bc d1 5e b6 bd
       0.051892277 -0.025264965 -0.011369458 -0.089048035
0000a0 cd 4d 97 3d 15 d3 35 3d 7a da cf bc 35 ca fb 3d
       0.07387886 0.044390757 -0.025372732 0.12294427
0000b0 35 76 70 3d f7 ff dc 3c 82 3b 37 bd f8 db 6f 3d
       0.05870648 0.026977522 -0.044734485 0.058559388
0000c0 35 b5 90 bd 55 a1 db bd 78 cf e5 bc 90 fc 41 bd
       -0.070658125 -0.10724131 -0.02805303 -0.047360003
0000d0 9c b0 ef 3c af f3 a4 bb 02 92 05 bd 06 c3 a2 3d
       0.029259019 -0.005033932 -0.032609947 0.07947354
0000e0 ac e9 53 bd 54 e5 94 bd 78 b1 bf 3d 05 3b 1e 3d
       -0.05173652 -0.07270303 0.09360021 0.038630504
0000f0 d0 44 81 3d 2f e8 a3 bd a8 c0 3b bd 16 ee 16 bb
       0.06311953 -0.0800327 -0.04583803 -0.0023030094
000100 62 88 92 bc ed b6 f2 3c 3f c1 3b bd 3d 38 48 bd
       -0.017887298 0.029628241 -0.04583859 -0.048881758
000110 04 f1 0b bd 28 03 53 3b ae 5a 8c bb 42 d4 91 3c
       -0.034165397 0.0032197926 -0.004283271 0.017801408
000120 14 f4 b9 3b 86 23 9c bd 8f f3 c5 bd 7f b3 7a bd
       0.0056748483 -0.07623963 -0.09665596 -0.061206337
000130 5a 78 a6 3a bf 40 59 3d 44 5f bc bd 34 ff d0 3b
       0.0012700662 0.053040262 -0.09197858 0.006378079
000140 dd d1 f9 bc 9b cb 7d bd c9 a6 6a 3d 1b ff 94 3c
       -0.030495578 -0.06196175 0.057287965 0.01818805
000150 7c f9 d5 bc b0 38 41 bd 58 3d ef 38 0b 47 e2 bc
       -0.02611994 -0.047173202 0.00011407834 -0.027621767
000160 40 00 2e bd b4 9b 7b bd 2c 35 59 3d 34 ee b9 bc
       -0.042480707 -0.061427787 0.053029224 -0.022696592
000170 cb ec 90 bc 0b 71 95 3d f9 b2 14 3d c9 2f 43 bd
       -0.017691037 0.07296952 0.036303494 -0.047652993
000180 6e 22 f1 3d af 13 c3 3d f2 f3 a1 3d e1 ba 66 bd
       0.11774145 0.09525239 0.07907857 -0.056330565
000190 73 94 10 3c 11 e8 e8 3d 84 61 9f 3c 7d 31 03 bc
       0.008824456 0.11372388 0.019455679 -0.008007404
0001a0 2c 07 15 bd 90 25 c9 3c c5 8c 2d 3d fb d9 ca 3d
       -0.036383793 0.024554044 0.042370576 0.09904858
0001b0 df d6 17 bd 3e 81 fd bd 2a ed af 3d 61 36 7d 3c
       -0.03707015 -0.123781666 0.08590157 0.0154548595
0001c0 bf 06 ab bc 49 f4 02 3d a8 b1 15 be 24 a3 22 bd
       -0.02087724 0.03197125 -0.14618552 -0.039706364
0001d0 08 fd 42 3d a6 4c 0e 3d a8 ff 3f 3d 3c 9d 8c 3b
       0.04760459 0.034741066 0.046874672 0.0042912047
0001e0 64 aa c5 3c ef 90 f2 bd 7f 61 99 3d 8b 9b e6 3c
       0.0241291 -0.1184405 0.07489299 0.02815034
0001f0 ce 44 f3 3c a4 cd 18 3d 1b b6 d5 3d b7 d1 7a bd
       0.029695895 0.03730549 0.104351245 -0.061235156
000200 11 ea dc bd b5 a1 e5 b9 6c a4 5f bd 16 d8 6a bd
       -0.10786832 -0.00043798765 -0.054600164 -0.05733498
000210 c2 8a aa bd 18 15 8e bd 0d ab f0 bd 31 de a3 bd
       -0.08327247 -0.06937617 -0.11751375 -0.08001364
000220 4d cd 00 bd 4b 8a aa 3b 8a 2c 3f bd 83 f9 77 bd
       -0.03144579 0.005204474 -0.046673335 -0.060540687
000230 3d 98 13 3d aa 33 8e 3c 73 4c a7 3d b3 34 6c bd
       0.036033858 0.01735862 0.081688784 -0.057667445
000240 9f 12 72 bc 16 48 3e bc e1 42 f1 bd 90 1c b3 3c
       -0.014774947 -0.011613866 -0.11780334 0.021864206
000250 a7 3a 77 3d 98 d0 c1 3d 20 5f 26 bd 8b f8 30 3c
       0.06035867 0.09463614 -0.040618062 0.010801445
000260 91 69 46 3d 92 6f 27 3d 1a a9 8c bc 58 31 4e 3c
       0.04844052 0.040877886 -0.017170478 0.012585007
000270 2b f1 fb 3b fa d7 aa bc cd e2 8f bc 30 83 b2 bb
       0.0076886616 -0.020854939 -0.017564202 -0.0054477677
000280 68 2b 29 3b cd b4 ea 3c 92 83 23 3d c7 34 96 3d
       0.0025813226 0.028650666 0.039920397 0.07334285
000290 f4 0a 64 bc 15 3d f9 3c 12 81 7f bd 87 53 1e 3c
       -0.013918627 0.030424634 -0.06237895 0.009663469
0002a0 b2 be a1 bb 92 6a 01 bd 13 42 2d bd 6a f5 37 3d
       -0.0049360627 -0.031595774 -0.04229934 0.04491178
0002b0 b8 a3 38 bd 98 d5 97 bc 5f 62 c6 bd f9 45 e1 bc
       -0.04507801 -0.018534467 -0.096867315 -0.027499186
0002c0 a7 6c b5 bb 06 bf b9 3d c6 44 05 3d 89 ce 8e 3d
       -0.005536634 0.09069638 0.03253629 0.06972987
0002d0 d3 b9 5d bd 71 9e ad bc 76 33 e2 3c 91 13 e7 3c
       -0.054132294 -0.021193715 0.02761243 0.028207572
0002e0 71 07 44 3d ae 79 d0 3d fd ce 90 3d dc 32 79 bd
       0.04785866 0.101794586 0.0707073 -0.06083952
0002f0 a7 93 87 3b 9b 31 99 3d 56 22 d1 3d 17 78 cd 3d
       0.0041374746 0.074801646 0.10211627 0.10032671
000300 5c 06 80 bc 36 e2 ba 3d b0 20 da 3c a1 74 9f 3c
       -0.015628032 0.091251776 0.026626915 0.019464793
000310 53 5c 82 3d 54 33 4c 3d 0c 8e b6 bd 22 04 de 3d
       0.06365266 0.049853638 -0.08913812 0.10840632
000320 64 12 39 3d 5d 30 bf 3d d6 b3 1f 3e 92 07 ff 3c
       0.045183554 0.093353964 0.15595946 0.03113154
000330 56 f3 e5 bd 39 5c 84 3d 46 53 34 bc d5 a9 7e bc
       -0.11228053 0.064629026 -0.011006182 -0.015543421
000340 a6 b6 9c bd ec 97 2b bc 08 1b 2d bc c1 d3 c9 39
       -0.07652025 -0.010473233 -0.010565527 0.00038495476
000350 6b ae e5 bc f1 cb b9 bc 9d f0 87 bc 8f e1 d9 bd
       -0.02803727 -0.022680255 -0.016594226 -0.10638725
000360 5f 94 22 3d 18 b7 85 bd 02 b9 71 3c df c5 cb 3c
       0.03969228 -0.06529063 0.014753582 0.024874626
000370 4f a0 65 bd 3d 6e 67 3d b9 d1 84 3d 33 a8 88 3d
       -0.056061085 0.056501616 0.06485314 0.066727065
000380 44 4c 9c bc 9c 34 72 3d 20 43 cc bc e2 89 83 3c
       -0.019079335 0.059132203 -0.024934351 0.016056959
000390 7e ab bf bd 95 27 bf 3d a5 36 b0 bb ef aa 10 3d
       -0.093588814 0.093337215 -0.005377608 0.035319265
0003a0 81 ef b7 3d ae 1f 79 3d 8d 84 4b bd 2c 4c b7 bc
       0.089812286 0.060821228 -0.049686957 -0.022375189
0003b0 cd 48 11 3d b2 78 83 bd 47 5d b3 bc c5 ee b8 bc
       0.03546982 -0.06419505 -0.021895064 -0.022574792
0003c0 63 27 5f 3d c5 35 d9 bc 3e 8f ee bc 1b 57 f6 3c
       0.05448092 -0.026514897 -0.029121038 0.030070832
0003d0 40 6d 97 3d 13 9a 7d bd 67 3a 36 bd 99 c4 9b bd
       0.07393885 -0.061914515 -0.04448929 -0.076058574
0003e0 2a 44 f5 bc ca df 63 bd c0 b8 61 3d 78 c3 93 3c
       -0.02993973 -0.055633344 0.055107832 0.018037543
0003f0 be 77 b1 3d b0 13 b8 bd 61 ca 2b 3d ac 59 e5 bc
       0.08665417 -0.0898813 0.04194105 -0.02799686

action_model._discrete_distribution.branches.0.bias f4 [2]
000000 ea 3d 02 bd f7 3d 02 3d
       -0.031797327 0.031797376

action_model._discrete_distribution.branches.0.weight f4 [2, 128]
000000 0f c4 e5 bc 1b 33 a4 bc 3b bc fe 3d 00 10 e2 3c
       -0.02804759 -0.0200439 0.12438246 0.02759552
000010 14 f0 1f 3c 4d 47 43 3e 30 d3 5b bc e5 06 ae bc
       0.009761829 0.19070168 -0.01341705 -0.021243522
000020 4a a3 83 3c 1f 29 96 3d 42 39 6c bd c6 74 21 3c
       0.016069073 0.07332062 -0.057671793 0.009854501
000030 f2 aa 84 bc e7 39 76 3d 6f aa 84 3d 4d f6 a4 bd
       -0.016194794 0.060113814 0.0647782 -0.08054791
000040 f5 29 9c bd 56 08 7a 3c c7 94 a0 3d ed e8 b2 3d
       -0.0762519 0.0152607765 0.07840877 0.08735833
000050 1f 60 38 bc 35 52 90 bc 76 3b f9 3a 19 b2 be 3d
       -0.011253386 -0.017617324 0.0019014913 0.09311313
000060 f4 6b 19 bd c6 10 c4 3c 31 ad ca 3d 8d e4 c7 3d
       -0.037456468 0.02393378 0.09896315 0.097603895
000070 39 0d 89 bc 52 95 82 3d 94 db 73 bd 17 6a b3 bc
       -0.016729938 0.06376137 -0.059535578 -0.021901174
000080 99 f2 e9 bc 22 7c 86 ba 66 0c 9a ba 82 3f bc 3b
       -0.028558062 -0.0010260383 -0.0011752963 0.0057448754
000090 a3 66 0c bc 7c 76 8d 3d 88 39 1d bb 8b 20 a0 b9
       -0.008569392 0.06907365 -0.002399059 -0.00030541825
0000a0 56 db f4 3d ea 12 38 bd 47 fd 8f 3d 3b fd 94 3c
       0.119558975 -0.044939913 0.07030731 0.018187156
0000b0 48 18 b6 3d 2c cd 2b 3e 02 90 ba 3c 6c 34 01 bd
       0.0889135 0.16777486 0.022773746 -0.031544134
0000c0 23 4a b5 bc 60 25 e7 bc 59 1e 90 3c 64 63 4c bd
       -0.022130078 -0.028216064 0.017592596 -0.049899474
0000d0 02 82 62 bc 68 42 8b bd 88 33 09 3e 25 86 76 bd
       -0.013824942 -0.06799775 0.13398564 -0.060186524
0000e0 51 cb 54 bd 43 e1 ec bb ea 77 73 3c ac 9d a0 3d
       -0.05195171 -0.0072290017 0.014860133 0.078425735
0000f0 be 0c be 3b c3 ff cf bc ad 13 37 3b 3a 3d 1c 3e
       0.005799859 -0.025390511 0.0027935312 0.15257731
000100 ab 82 13 be 5c 4c 65 bd a7 b4 4b bc 39 a9 bc 3d
       -0.14405315 -0.055981025 -0.012433208 0.09211964
000110 70 24 e8 3a 63 00 d1 bb 00 1c b5 3d 9a ca 90 3d
       0.0017711055 -0.00637822 0.08843231 0.07069893
000120 27 a9 a4 3d fa c7 d3 3d a5 59 e2 3d 02 bc 4d bc
       0.08040076 0.10340877 0.110522546 -0.012557032
000130 f6 bc e5 3d 1a 46 08 3c 11 8f 15 be 06 76 b8 bd
       0.11217682 0.008317495 -0.14605357 -0.09006886
000140 c3 9d 14 bd 23 ba a5 3c 03 21 6c 3d d3 08 3e b8
       -0.036283266 0.020230358 0.05764867 -4.530775e-05
000150 06 7a ab 3c 5f a8 a7 3d 26 af 8b 3d 7f 78 0c bd
       0.020932209 0.08186411 0.06820516 -0.0342946
000160 70 6c db bd 4d 5a 0a 3e 2a 8e 1b 3b 24 95 d5 3d
       -0.10714042 0.1351101 0.002373586 0.10428837
000170 39 5c b0 3d 90 30 38 bc 28 42 21 bb 91 ce b5 bc
       0.0861134 -0.011242047 -0.0024606083 -0.022193225
000180 d6 e7 ed bb 03 38 93 3d 47 bc 1b bd 18 e7 fe bd
       -0.007260303 0.07188418 -0.038021352 -0.124464214
000190 bc d1 5e 3c 9f b9 1f bd 31 d9 f6 bd 35 70 20 3d
       0.013599809 -0.03899538 -0.12053145 0.03916951
0001a0 f5 4c 78 3d 02 a1 53 bd 02 9d e2 3d 32 63 89 3c
       0.060620267 -0.05166722 0.11065103 0.016770933
0001b0 d3 d3 83 bd 91 33 c9 3c 4b 45 e0 bb 05 0a b6 bd
       -0.06436887 0.024560722 -0.006844198 -0.0888863
0001c0 63 a9 82 bd 63 25 45 be 60 c5 c1 3d 47 41 74 3d
       -0.06379964 -0.19252543 0.094614744 0.059632566
0001d0 d7 5b ae 3d 6d c1 47 3d 8b 3e 08 3d 0d 69 02 3c
       0.08513611 0.04876845 0.03326277 0.007959616
0001e0 bf 3f a7 3d a1 a1 72 3c 3f 94 11 bc 11 e3 89 3d
       0.081664555 0.014809043 -0.008885442 0.067327626
0001f0 d2 aa 4d 3d 83 12 32 3d 92 38 fb bc 9f 07 53 bd
       0.050211735 0.043474685 -0.030666623 -0.05152094
000200 97 44 32 3c 0a 8a 23 3d e9 26 da bd 7d d1 fd bb
       0.010880611 0.039926566 -0.10651953 -0.00774592
000210 f2 37 35 bc fc db 3a be 7a 62 75 bb 26 95 a7 3c
       -0.011060702 -0.1824798 -0.003744273 0.020456862
000220 e6 77 b1 ba 6f 0e 9d bd 2a dd 89 3d d5 84 71 bc
       -0.0013539761 -0.076687686 0.06731637 -0.014741142
000230 01 e4 5f 3b d4 b3 7e bd 42 5d a1 bd bc 01 b4 3d
       0.0034163 -0.062183216 -0.07879116 0.08789393
000240 03 07 79 3d a1 a4 72 bc fb 6e bf bd c2 ca b5 bd
       0.060797703 -0.014809758 -0.0934734 -0.088765636
000250 b3 d6 47 bc 8d d5 b5 3c 66 22 18 bd c9 b7 cd bd
       -0.012197184 0.022196556 -0.03714218 -0.1004482
000260 42 ce 48 3d 4b 2b 85 bc f9 58 c0 bd 8e 10 b8 bd
       0.049024828 -0.016255995 -0.0939197 -0.089875326
000270 cd a9 49 3c f2 ff 4c bd f1 96 77 3d 42 8e 36 3d
       0.01230855 -0.050048776 0.060446683 0.04456926
000280 63 ae 62 3c 43 44 a5 bb ae 67 54 bc d9 ae 19 3c
       0.013835522 -0.005043538 -0.012964172 0.009380066
000290 a8 db 0c 3c df 60 ab bd 0f 91 41 bc e2 f9 f6 39
       0.008597292 -0.08368086 -0.01181437 0.00047106954
0002a0 24 3f e6 bd 3a a3 09 3d f4 56 80 bd 64 c5 10 bd
       -0.11242512 0.03360293 -0.06266585 -0.035344496
0002b0 45 04 d4 bd 5f 2f 0d be 7d f7 0d bd d8 42 65 3d
       -0.10352377 -0.13787602 -0.03465985 0.05597195
0002c0 6c b8 29 3d ff 67 11 3d ba 84 b2 bc f1 6f 47 3d
       0.041435644 0.03549957 -0.021791805 0.04869074
0002d0 e5 09 49 3c bf 9b 86 3d 8d 1c 14 be ee 5f 64 3d
       0.012270425 0.06572675 -0.14464016 0.05575555
0002e0 88 0e 5d 3d 4d 4c 87 3b 11 de 88 bb a3 90 88 bd
       0.053968936 0.004128969 -0.004176863 -0.06668212
0002f0 7e 74 d8 3b 8f 2d 04 3c e4 0d 5c bc 48 32 25 be
       0.006605684 0.008067503 -0.013431046 -0.16132462
000300 b5 cb f7 3d 1f 77 3d 3d 87 07 08 3d 17 61 a8 bd
       0.12099401 0.04625618 0.033210304 -0.082216434
000310 27 ab 8a b8 cf 3c 3e 3c bb 24 93 bd db 9b 8f bd
       -6.6122324e-05 0.011611178 -0.0718474 -0.07012149
000320 1f 6f 89 bd f4 22 d7 bd 72 05 d3 bd 07 d1 f0 3c
       -0.06710648 -0.10504714 -0.10303773 0.029396547
000330 32 0c f2 bd 2d c1 1f 3c 2d 72 1a 3e 82 fb af 3d
       -0.11818732 0.009750647 0.15082617 0.08592893
000340 27 38 4a 3d ec 9d 2d bc 75 23 87 bd 09 73 ab bc
       0.049369957 -0.010596734 -0.0659856 -0.020928876
000350 d1 08 d0 bc a0 0c 92 bd cc 53 87 bd 93 39 17 3d
       -0.025394829 -0.07131314 -0.0660778 0.03692014
000360 6c d2 ac 3d 1d a2 09 be c2 e4 38 3c 34 c5 d9 bd
       0.08438572 -0.13440748 0.011285009 -0.10633317
000370 f7 2e 8d bd 6f ac 01 3d 15 3a fc 3b 2d 8e a0 3c
       -0.068937235 0.031658586 0.0076973536 0.019599045
000380 14 f7 97 3c c1 0b 8c bd 4c cc 7d 3c fe 75 f9 3d
       0.018550433 -0.068381794 0.015490603 0.12180708
000390 1b e3 fa 3b 48 b8 af 3c 38 f2 e5 3d 33 6b 37 bd
       0.0076564676 0.021450177 0.1122784 -0.044779968
0003a0 13 a4 9a bd f6 a8 1c 3d 18 2b df bd fc 1e 41 bc
       -0.07550826 0.03824707 -0.10896891 -0.011787172
0003b0 ab 5c 66 3d 9b ea 1c bd 06 c7 53 3c ed cd 9d 3d
       0.05624072 -0.038309675 0.012925869 0.07705293
0003c0 ba 3b 96 3d 64 21 43 3e c0 e8 a3 bd 4b 6d 1c bd
       0.07335611 0.19055706 -0.08003378 -0.038190167
0003d0 07 f9 95 bd 72 77 07 bd d0 fb dd bc 93 bd 55 3c
       -0.07322889 -0.033072896 -0.027097613 0.013045686
0003e0 3b ed c2 bd df 62 5d bc b1 1d 1c b9 51 91 09 bd
       -0.09517904 -0.013512342 -0.0001488838 -0.03358585
0003f0 9e 00 47 bd 84 4e 87 bd ca 72 9a 3c c2 d8 6f 3d
       -0.048584573 -0.066067725 0.018853564 0.058556326

network_body._body_endoder.seq_layers.0.bias f4 [128]
000000 82 d6 ef bd 09 79 1f bd 02 72 cc bd 64 16 fd 3c
       -0.11710836 -0.038933787 -0.09982683 0.030894466
000010 06 0b 30 3c 47 c2 97 3c a5 7a fd 3c 6c 1e 3a bd
       0.010744816 0.018525256 0.03094227 -0.04543917
000020 6a 85 7b bd d7 c2 24 3d f4 d2 7a 3a ba 87 b3 bd
       -0.06140653 0.040224876 0.00095681776 -0.08766122
000030 cc 9f 85 bd e8 83 82 3c 82 75 00 3d 22 bc 43 3c
       -0.065246195 0.015932038 0.031362064 0.01194671
000040 73 52 52 bd c7 19 9a bd a7 bf ca bd 77 27 f3 bd
       -0.05134816 -0.07524448 -0.09899836 -0.11872762
000050 0b fc c9 bd 39 8a 5b bd e9 64 3d bd 47 53 9f bd
       -0.098625265 -0.053598616 -0.046238814 -0.07779556
000060 ec 8d 47 3d ed ff b2 bd ed 8a 28 3d 93 a7 ca bd
       0.04871933 -0.0874022 0.041148115 -0.098952435
000070 ab c1 7a bd de f6 b9 bd 3d ea bf bc 06 94 fd bc
       -0.061219852 -0.09080289 -0.023427123 -0.030954372
000080 16 e6 c2 bd 56 a2 d3 bc 43 51 84 bd 42 e2 b5 3c
       -0.09516542 -0.025834244 -0.06460812 0.022202615
000090 e6 e3 a9 3b b6 b2 29 bc c6 96 e1 bc e4 fe a9 bd
       0.0051846383 -0.010357549 -0.027537715 -0.0830057
0000a0 98 71 50 bd b3 21 90 bd d4 39 5c bd 84 52 6b 3c
       -0.05088958 -0.070376776 -0.053766087 0.014362935
0000b0 d7 f6 69 39 ef 75 6d bd a7 bd a5 3c aa 94 a6 bd
       0.00022312567 -0.0579738 0.020232035 -0.08133824
0000c0 6d 27 31 bd cb 1a e8 bb 94 7e 1d bd 4a 0f 2b bb
       -0.04325049 -0.007083272 -0.038450792 -0.0026101642
0000d0 e9 40 d5 bc 51 17 60 bd 62 0a 72 bd 7f 1b 6d bc
       -0.026031928 -0.054709736 -0.059091933 -0.014471888
0000e0 af 7e 70 bd a4 76 72 bd 2e 46 fc bd 5c ea 4e be
       -0.058714565 -0.059195176 -0.12318073 -0.20206589
0000f0 f0 24 85 bc 13 98 49 3e 33 b9 e7 bd a3 d5 ce 3b
       -0.016252965 0.19686918 -0.11314621 0.0063120886
000100 e3 3e 3e bd d1 0b b0 bd c7 14 9b bc 5f f5 d2 3c
       -0.046446692 -0.08596004 -0.018930806 0.025751768
000110 97 a8 12 bc 50 85 99 bc 8b 94 a4 3c 1e 6c 28 3d
       -0.008951328 -0.018740326 0.020090362 0.041118734
000120 94 dd 3f 3d a0 35 3b bd 8b ec c7 bd 4d d1 87 bd
       0.046842173 -0.045705438 -0.09761914 -0.06631718
000130 5f 37 bc bd 36 33 9b bd 97 d6 17 bd 25 95 cc bb
       -0.09190249 -0.07578127 -0.037069883 -0.0062433654
000140 bf 4c 17 3c 33 43 67 bd 00 38 66 bd 69 e6 92 bc
       0.009234606 -0.05646057 -0.05620575 -0.017932134
000150 2b 29 97 bc a6 6f 66 bc d3 cc 7c bc e7 26 a0 bc
       -0.018452248 -0.014064705 -0.015429693 -0.0195498
000160 b7 58 af bd 3d a5 aa bc 1e 90 10 bd 3a 10 c3 bd
       -0.08561843 -0.020830745 -0.03529369 -0.09524579
000170 21 92 0e 3d af 78 23 bc 8a a7 ee bd 64 85 71 bd
       0.034807328 -0.009977504 -0.11653049 -0.0589651
000180 77 5f c3 bb b9 a5 4d bd a0 79 28 be 85 61 b9 3c
       -0.005962308 -0.050206874 -0.16452646 0.022629509
000190 ab 96 34 be fb 8e 1d bd 9e a2 d1 bd c8 22 4c bd
       -0.176356 -0.038466435 -0.10236095 -0.049837857
0001a0 59 5a 5a bd 6e 59 dc ba dc 63 00 3d 0e eb ce bd
       -0.05330882 -0.001681132 0.031345233 -0.10103427
0001b0 e5 1e 89 bc be 86 6a bc 0c 3e af bd 28 b4 33 bd
       -0.016738364 -0.014314352 -0.085567564 -0.043872982
0001c0 d1 a0 19 3c 41 d2 62 3c 04 10 6a bc 7b 84 aa bd
       0.0093767205 0.013844074 -0.014286045 -0.0832605
0001d0 16 c7 10 bd 0b 96 b1 bd d8 b8 d9 3b e6 63 04 be
       -0.035346113 -0.086711966 0.0066443495 -0.12928733
0001e0 3e 41 26 3d 87 f7 94 bd 3e 47 40 bd f8 1a a8 bd
       0.040589564 -0.072737746 -0.04694294 -0.08208269
0001f0 01 f7 28 bd 5d 25 4a bc 16 56 f7 3c e8 64 09 bd
       -0.041251186 -0.01233801 0.030192416 -0.033543497

network_body._body_endoder.seq_layers.0.weight f4 [128, 17]
000000 bb a3 10 3e 5a a0 bd 3e ce 6d fe 3d af e5 04 bf
       0.14124958 0.370364 0.12423287 -0.5191297
000010 2c 75 13 3e 3e 52 29 3e 0f e6 90 3e 6d cd 9a be
       0.14400166 0.16535279 0.2830052 -0.30234852
000020 a5 e7 c9 3e cc b6 d5 be b3 9d e8 bd 2a 2d f0 bb
       0.39434543 -0.41741025 -0.11358204 -0.0073296027
000030 e3 e8 68 be 0f e7 14 bf 1a 5a 28 bc ad a3 00 be
       -0.22745089 -0.5816507 -0.010275388 -0.12562437
000040 a0 91 87 bd 66 c8 5d be f6 69 17 3e d2 a3 b9 3e
       -0.06619573 -0.21658477 0.14786515 0.36257797
000050 43 38 44 3e 9d ec e3 be d7 48 05 3e e2 f5 0d be
       0.19162087 -0.4451646 0.13016067 -0.13863328
000060 bc dc 72 3e 65 ec 32 3f bd 86 f3 bd 86 03 2c 3d
       0.23717016 0.6989196 -0.11890934 0.041995548
000070 c8 d6 0a 3e 5b 9b 21 3e 33 b0 3f 3e a8 2f 6f be
       0.13558495 0.1578192 0.18719558 -0.23358023
000080 ca 09 b2 3e cd ee 89 3e a4 db e9 bd aa bb 73 3e
       0.34773093 0.26940003 -0.11418846 0.23802057
000090 89 c2 5f 3e fa 97 d4 3c e0 37 dd be 16 a2 fd bc
       0.21851553 0.025951374 -0.43206692 -0.030961078
0000a0 8b f6 52 bd 8a 41 6c be ea d1 95 be 59 6f e7 3d
       -0.051504653 -0.23071876 -0.29261714 0.11300535
0000b0 87 4f b4 bd 50 60 3d be 84 bc 06 be 55 e3 52 be
       -0.08804231 -0.18493772 -0.1315785 -0.20594533
0000c0 9c 55 ce be bb 8a d2 3c aa ce 3a be 35 0a 78 3e
       -0.4029969 0.025700917 -0.18242899 0.24222644
0000d0 1f b9 91 3e 33 ce 8d 3e 6a a6 66 be ff 22 15 be
       0.2846155 0.2769638 -0.2252442 -0.14564131
0000e0 42 19 85 be 70 53 61 3e b3 25 d5 be ff b9 6a 3e
       -0.25995833 0.22004485 -0.41630325 0.22922514
0000f0 aa 0a 18 3d 31 eb 39 3c 08 71 7f 3e 0f 04 8c 3e
       0.037119545 0.011347578 0.24945462 0.27346846
000100 06 ad 0c 3b 15 96 c9 3d 14 ba e2 3e 9c da b5 be
       0.0021465435 0.09843079 0.4428259 -0.35518348
000110 20 05 6b be ff 90 ab 3e 24 41 29 3e 64 9b 18 3e
       -0.22951174 0.3350906 0.16528755 0.14903027
000120 57 16 da bd 73 2a 02 bf d3 b4 43 be ed 12 df bd
       -0.10648792 -0.5084602 -0.19111948 -0.10892282
000130 98 5e de 3d 9d 5b 9a be de 71 19 3d bc dd 09 3e
       0.10857886 -0.3014802 0.037462108 0.13463491
000140 b7 f7 21 3f 1a 96 87 3e 42 b3 64 3e 9f a2 13 be
       0.6326861 0.26481706 0.22334006 -0.14417504
000150 c6 fe 02 3f 3c 5f 12 3f 28 46 f0 bd 58 76 08 3d
       0.51170003 0.57176566 -0.11732131 0.033315986
000160 90 7e 24 3e 65 a6 4d 3e 73 34 3c be d2 3f b3 be
       0.16063905 0.20083006 -0.18379383 -0.3500963
000170 f8 2d b1 3e af f8 ab 3c e7 ca a1 3e 27 eb 0d 3e
       0.34605384 0.020992605 0.31600115 0.13859235
000180 02 c0 ab 3e 67 57 00 be d9 19 89 3e 72 a2 0c be
       0.33544928 -0.12533341 0.26777533 -0.13733843
000190 3d 88 39 3e a5 06 85 3e 21 0a a7 3b 34 e3 b8 be
       0.18118377 0.25981632 0.005097643 -0.36110842
0001a0 e3 6d 30 3e d8 a8 a5 3d f1 91 ad ba a0 28 4a be
       0.17229418 0.08088845 -0.0013242346 -0.1974206
0001b0 29 bb b5 bd c6 41 b9 be 7d f0 90 bd 32 fa 11 3e
       -0.088735886 -0.36182994 -0.070771195 0.14255598
0001c0 37 86 f7 3d 19 df 58 be 48 e0 cc bd e9 f2 5d 3e
       0.12086146 -0.21178855 -0.10003716 0.21674694
0001d0 94 18 76 3c 2d 75 8e be 28 95 cb be 9c 0b 01 3e
       0.015020508 -0.27823773 -0.39762235 0.12602085
0001e0 11 c0 d6 3b 66 04 2f be c7 b4 2c 3f 54 50 bb bd
       0.006553658 -0.17091522 0.67463344 -0.09146181
0001f0 92 14 5b be d6 cc d1 bd af e7 76 3c 78 3e 79 3d
       -0.21394566 -0.102441475 0.015069886 0.06085059
000200 65 15 24 3e 58 bc 83 3e 84 47 81 be d2 1f 99 bd
       0.16023786 0.25729632 -0.25249875 -0.07476772
000210 3b 3e 9f 3d 09 63 b6 3e 8a b8 f8 3d 9f 15 ce be
       0.077755414 0.35622433 0.12144573 -0.4025087
000220 4e 2e 30 be 46 41 91 bd a7 d7 30 be a7 14 f7 bd
       -0.17205164 -0.07092528 -0.17269765 -0.12064486
000230 e5 28 e0 3c 02 a2 59 3d dc 2c e0 3d 68 02 b3 bd
       0.02736325 0.05313302 0.10946056 -0.08740693
000240 04 28 ed bc ac 8f 68 be 2f 54 5b bd a6 74 30 bd
       -0.028949745 -0.22711056 -0.05354708 -0.043079995
000250 54 d3 0d 3e 80 5b a0 be bb 30 01 bf 63 6e a9 3d
       0.13850147 -0.3131981 -0.5046498 0.08273008
000260 45 c5 c5 3e 2d db ad be d8 37 82 3c 53 ed c1 bd
       0.38627067 -0.3395628 0.015895769 -0.09469094
000270 a3 d9 6f be 18 fe 94 3d 5a 56 04 be e2 7b ec be
       -0.23422866 0.07275027 -0.12923566 -0.46188265
000280 d1 b7 0a be 39 ab c8 3d 6e fa 33 3e 8d 2b 33 3e
       -0.13546683 0.09798283 0.17576 0.17497082
000290 5e 48 b7 bd e5 c5 4c bd 57 d0 82 be f8 52 5b 3e
       -0.0894935 -0.049993414 -0.25549576 0.21418369
0002a0 87 61 41 3d 39 d6 1a be 1b 25 4f 3e 5a e7 c9 3e
       0.04721215 -0.15120782 0.20228998 0.3943432
0002b0 f5 5f c8 3e 4e 3c 94 be 2a 42 12 be 02 32 ad bd
       0.3913571 -0.2895226 -0.14283052 -0.08456804
0002c0 56 7f e5 bd ed 6a 61 3e 34 65 29 3e d0 a6 14 3f
       -0.11205928 0.22013445 0.16542512 0.58067036
0002d0 b5 f4 4b 3e 55 a1 cf be 8c 1a 24 bd 97 7f 58 be
       0.19917567 -0.40552774 -0.04006438 -0.21142422
0002e0 e6 db 3a bd 52 46 7b 3e bc b9 5d 3e fc ee f2 3e
       -0.045619868 0.24538544 0.21652883 0.47447956
0002f0 92 11 be bd cf 10 ca 3e a0 f6 bc be 22 5e 0a 3e
       -0.09280695 0.3946595 -0.3690691 0.13512471
000300 25 a2 98 be 4f c2 45 be d3 0f 66 3d 03 4e 5d 3d
       -0.29811206 -0.19312404 0.056167435 0.054029476
000310 17 b1 fe 3e 5e fc 60 3d e8 4a 64 bd 6e 60 60 bd
       0.49744484 0.054928176 -0.0557355 -0.054779463
000320 72 80 69 3e 3f 62 19 be ab 91 ca bd d4 13 07 be
       0.22802904 -0.14978884 -0.09891065 -0.13191158
000330 04 e2 ac bd a3 31 d7 be b9 c1 b3 bd e0 ee 29 3e
       -0.084415466 -0.42030057 -0.08777184 0.1659503
000340 5a 33 cc 3c 82 8f 2b bf e7 9a 0c 3d 9f 5c 3f be
       0.02492683 -0.6701585 0.034327414 -0.18687676
000350 98 26 3e bd a9 79 ec 3d 54 7e f9 be f7 36 95 3d
       -0.046423525 0.11546642 -0.48729193 0.07285874
000360 7a 3b a6 3e 65 3a 02 bf d1 31 06 bf 1c 91 95 3e
       0.32467252 -0.50870353 -0.52419764 0.29212272
000370 ab c3 b7 3a 77 13 97 be 7f 6d 96 3e e7 3e 85 bd
       0.0014020106 -0.29507038 0.29380414 -0.06506138
000380 f2 b8 fc 3e 91 3c c6 be 66 5b 16 bf e5 dc 3a be
       0.49359852 -0.38718084 -0.5873321 -0.18248327
000390 d0 5f 00 3d 47 df 44 be ee 87 e6 3e 6a da 54 3e
       0.031341374 -0.19225799 0.4502558 0.20786443
0003a0 98 f6 a5 3e 8a 1c 16 3e d7 b0 4d 3e 7b 0f ca bd
       0.324147 0.14659324 0.2008699 -0.09866234
0003b0 2f 43 54 be af 22 07 be 31 9b a2 3c 35 e2 ef bc
       -0.20728754 -0.13196824 0.019849392 -0.029282669
0003c0 58 04 81 bd bc 88 95 be 31 81 b9 3e a3 66 8e 3b
       -0.06299657 -0.29205883 0.36231378 0.0043457313
0003d0 0f 83 45 3e f6 15 e3 be 43 d2 02 3e 33 bc 30 3e
       0.19288276 -0.44352692 0.12775521 0.17259292
0003e0 73 58 10 bf 9f b4 21 be a7 08 f5 3e a5 b9 1f bf
       -0.5638496 -0.15791558 0.47858164 -0.62392646
0003f0 11 1e f9 bc af 19 63 3e 82 c9 6a bd af af 05 be
       -0.030409845 0.22177766 -0.05732108 -0.13055299

network_body._body_endoder.seq_layers.2.bias f4 [128]
000000 4a 0f 9c bd ea 01 28 bd 7c 7c 85 bb ef bf 17 bd
       -0.07620104 -0.04101745 -0.0040736776 -0.037048277
000010 2d 48 69 bd 92 84 6b 3c 63 0a 29 bd 31 77 53 bd
       -0.056953598 0.014374869 -0.04126967 -0.05162734
000020 06 49 e0 3c 15 5a 3a bc 90 27 f4 bc d9 6f c0 bc
       0.02737857 -0.011374016 -0.029804021 -0.023490833
000030 71 4a 94 bc 46 f6 a4 bd 95 ae 5d bc a5 f6 01 bc
       -0.018101903 -0.080547854 -0.013530393 -0.00793234
000040 93 75 33 bd 96 8d aa bd 06 c7 21 bd cb 3b 19 bd
       -0.0438133 -0.083277866 -0.039496444 -0.03741054
000050 6a 7b 77 bd 42 85 38 3c 9e c3 c2 bb cb e7 d3 3c
       -0.06042043 0.01126224 -0.0059437295 0.025867363
000060 ad b6 d3 3c 0a 54 12 bd 5e 37 11 bd ef 36 8a bd
       0.025843943 -0.035724677 -0.035453193 -0.06748759
000070 b1 ab f1 bc d5 d7 27 bd ad 7d 22 3c 4c 06 1e 3d
       -0.029500814 -0.040977318 0.009917659 0.038580224
000080 a1 79 30 bd a3 42 d6 bd d3 cc a3 39 5f 60 4a bd
       -0.043084744 -0.10461929 0.0003124239 -0.049408313
000090 99 be 82 bd 48 f4 2a bd 88 c2 47 bc b8 f5 84 bb
       -0.0638401 -0.04173687 -0.012192376 -0.0040576123
0000a0 fc 56 81 3c bf 46 8b bd 8e f4 b2 bc bc 64 b8 bc
       0.015788548 -0.06800603 -0.021845128 -0.022508971
0000b0 1d 4c a9 bb c0 4b fa bc eb ba 42 3b f1 da bf bc
       -0.005166544 -0.030553699 0.0029713463 -0.02341983
0000c0 1a f6 11 3d 28 ac 6a bd 96 39 bb bc e3 7b 9c bd
       0.03563509 -0.057293087 -0.022854608 -0.07640817
0000d0 b1 07 00 bd 5d 4f ff bc 86 e8 5c bc 1d a0 a8 bd
       -0.031257335 -0.031165773 -0.013483172 -0.08233664
0000e0 30 7a 0d bc 56 70 a5 bd f2 e3 48 3c 0f 3d a4 bd
       -0.008635089 -0.08078067 0.012261378 -0.080194585
0000f0 e5 12 3c bd c2 e7 8f bc 1e 2f db bc bb a2 b4 bd
       -0.045916457 -0.017566565 -0.026755866 -0.08820101
000100 2c ac aa 3c e3 16 48 bd 5e ae 20 bd ef d0 15 bd
       0.020834051 -0.04884995 -0.03922879 -0.036576208
000110 55 ea 83 bd 97 bb dc bc 72 a7 0f bd 78 f2 3c bd
       -0.0644118 -0.026944919 -0.035071798 -0.046129674
000120 94 09 c4 bc 04 23 80 3c 48 cd 5f bd f3 ef 09 3b
       -0.023930348 0.015641697 -0.05463913 0.0021047562
000130 57 20 71 bd f6 be 72 bd bf 65 a9 bc 13 d1 da bc
       -0.058868732 -0.059264146 -0.0206784 -0.026711022
000140 10 17 28 bc 77 2a 1b bd 06 b5 3e bd 10 db 67 bd
       -0.010259405 -0.037882295 -0.046559356 -0.0566054
000150 e4 99 25 bd 18 d5 dd bd c9 0c a7 bd 20 57 1a bc
       -0.040429965 -0.1083166 -0.081567355 -0.009420186
000160 42 52 7c bd 8d 91 1e 3c c3 56 75 3b 47 51 77 bd
       -0.061601885 0.009678257 0.0037435747 -0.060380246
000170 f8 af d7 bc c1 02 5d bd 22 9b 82 bd 97 48 78 bd
       -0.026329026 -0.053957704 -0.063772455 -0.060616102
000180 ce 2c 36 bc c2 96 37 bd 8e ba 0d bb 4b 0d 33 bd
       -0.011119081 -0.04482151 -0.0021626088 -0.04371385
000190 41 11 46 bc 75 e1 b8 3c 78 2d 01 3c 16 76 ca bd
       -0.012089075 0.022568444 0.007884376 -0.09885804
0001a0 53 b4 a4 bd 72 50 90 bd 3f 45 7e bb 07 cb 0d bd
       -0.080422066 -0.07046594 -0.0038798598 -0.03461745
0001b0 3f 69 5b bd 15 c9 76 bd df 15 06 bd ab 93 01 bd
       -0.053567167 -0.06025036 -0.0327357 -0.031634968
0001c0 1c d2 83 bd 96 b7 90 3d 0c b3 99 bc 3c a2 57 bd
       -0.064365596 0.07066266 -0.018762134 -0.052644953
0001d0 2b 7d d0 bc 56 6f a1 bd 40 c5 b3 3c 88 06 1b bd
       -0.02545031 -0.07882564 0.021944642 -0.037848026
0001e0 f2 90 1b bc 56 04 43 3c ef cc dd bc af bc 2b bd
       -0.009495007 0.011902889 -0.027075259 -0.04192799
0001f0 b8 46 89 bd 96 dc bd 3c 80 94 78 bd 52 46 57 bd
       -0.06702942 0.023176473 -0.060688496 -0.052557297

network_body._body_endoder.seq_layers.2.weight f4 [128, 128]
000000 bd e1 a1 3d 3d a9 cf bd a0 eb 3c bd ff d2 10 3d
       0.07904384 -0.101397015 -0.046123147 0.03535747
000010 aa 0b fb bc 73 44 a8 bd 43 87 f3 bc 57 20 0b be
       -0.03064521 -0.08216181 -0.029727584 -0.13586555
000020 4d 11 f5 bd 98 e8 3a be 72 3a 02 bb 07 3c 4b be
       -0.119661905 -0.1825279 -0.0019871262 -0.19847117
000030 45 07 f3 bd 3b 78 89 bd 38 88 09 be 83 32 0b bd
       -0.11866621 -0.06712385 -0.1343087 -0.03398372
000040 68 d3 fd bc bb 60 b1 3c 9b b6 ab bd 7a 8f a0 3c
       -0.030984595 0.02165257 -0.083844386 0.019599665
000050 71 37 3d bd 9d 38 46 be 08 55 a4 3d e5 97 27 3d
       -0.04619545 -0.19357534 0.08024031 0.040916342
000060 72 00 f8 bd 2a 21 03 3e 90 17 65 bc b8 1a 4d be
       -0.1210946 0.1280562 -0.0139826685 -0.20029724
000070 ab d8 a3 3c 01 c0 57 3b 0c 7c fd bd d8 96 da 3d
       0.020000776 0.003292084 -0.12377176 0.106733024
000080 21 02 34 3d 7a 87 7b be d6 fa 19 3d 6c bb ae bb
       0.043947343 -0.24563399 0.03759273 -0.005332401
000090 57 01 45 bc f5 4b b6 bd 39 84 0f be fc 59 33 3d
       -0.012024245 -0.089012064 -0.14015283 0.043786988
0000a0 9d 76 20 bc ed 1d 38 bc 1e a4 25 bd 78 32 81 3d
       -0.009793905 -0.011237604 -0.040439717 0.06308454
0000b0 4a 48 2d 3c 17 d9 1d be ba 2b 27 3e bf ba 11 be
       0.010576317 -0.15414844 0.16325274 -0.14231394
0000c0 ad 04 f0 3d 35 2e f1 bd 2c 9f 09 3d 6a 52 b6 3c
       0.11719642 -0.117763914 0.033599064 0.022256095
0000d0 3c c1 53 bd a2 2e 10 bd 1b a0 64 be a4 03 c6 bd
       -0.051697955 -0.035200723 -0.223267 -0.09668663
0000e0 f6 c9 1a be bc af e1 3d 3f f1 51 bd 7f 25 50 3c
       -0.15116104 0.11019847 -0.05125546 0.012704252
0000f0 c1 72 91 bc 06 c8 ff bd 0a fb 16 3e 2f 8c 82 ba
       -0.017754914 -0.12489323 0.14744201 -0.0009959991
000100 62 f9 1d be 73 fa be 3c ad 6a 65 be bf fe 0f 3d
       -0.15427163 0.023312783 -0.22403975 0.035155054
000110 7b 17 41 bd 8a 1d 08 3e 6f 09 ec 3d de 20 4d 3c
       -0.047141533 0.13292518 0.11525237 0.012520043
000120 98 49 60 be c7 d6 b9 3c e2 8c f0 bd 6f 88 e6 3c
       -0.21903074 0.022685422 -0.11745621 0.028141228
000130 dd e4 73 3d 3d 01 c2 3c 34 f6 c3 bc 41 0d fc bd
       0.059544433 0.023682231 -0.02392111 -0.123072155
000140 d1 2c 89 bd dd 95 8b be 5b 10 01 3c f7 7b f1 bc
       -0.06698001 -0.27262774 0.007877435 -0.029478056
000150 10 0e 3e bd 6e 93 06 3e 75 3e b6 be d7 d6 32 be
       -0.04640013 0.13142177 -0.35594526 -0.17464767
000160 cc 78 22 3e 76 1d 8f bc c0 b3 1a 3c b0 d1 11 3d
       0.15866393 -0.017470103 0.00944227 0.035600364
000170 8a 2e 73 be 36 58 96 3d 4f a7 08 be ae 70 f5 bd
       -0.23748222 0.07341044 -0.13345073 -0.119843826
000180 16 6d 2b be ff 2d a2 bd cb 66 36 be de 6c dc bc
       -0.16740832 -0.07918929 -0.1781265 -0.02690738
000190 05 65 0a be 4d 11 5a 3c b9 88 06 be eb 58 35 be
       -0.13515098 0.013309789 -0.13138093 -0.17709701
0001a0 8c d6 ea 3d 94 c8 c5 bd d0 7b 41 bc f1 3c 86 bc
       0.11466703 -0.09657398 -0.011809304 -0.016386481
0001b0 f0 00 95 3d bc c7 26 3e 1a 7d d4 bd 54 ae c2 3c
       0.072755694 0.1628713 -0.10375424 0.023764767
0001c0 36 a8 8c bd 88 49 36 bd bd fb c2 3c c5 9e 86 be
       -0.06868021 -0.04450372 0.023801679 -0.26293007
0001d0 bc d1 db bc 0c 02 d7 3d 0f ff ea 3a cd e3 1b be
       -0.026833408 0.10498437 0.0017928797 -0.15223618
0001e0 8d 4c 96 bb 88 f9 6f bd f4 a6 3c 3d 29 f2 8e bd
       -0.0045867623 -0.05858758 0.046057656 -0.06979782
0001f0 7f 9b 24 3c dc 83 2a be ff c0 a0 bc 76 8d b4 bd
       0.010046839 -0.16651863 -0.019623278 -0.08816044
000200 87 72 70 bd 70 44 21 be 5d 18 3d 3c 70 3e 45 bd
       -0.05870297 -0.15748763 0.011541453 -0.04815525
000210 10 fb e1 bd af c6 37 3c 99 c1 83 bc 02 a7 3b 3e
       -0.110342145 0.011216803 -0.016083525 0.18325427
000220 93 05 94 bd 93 38 92 3d 22 a7 44 bd f6 69 05 be
       -0.07227626 0.07139697 -0.048010953 -0.13028702
000230 7a 1c 58 bc 10 cb 71 bc 1c f4 ec 3c a5 b2 36 bd
       -0.013190383 -0.0147578865 0.028924994 -0.044603962
000240 8c 05 3b 3d e9 65 82 3b 63 a9 d0 3d 43 ef e2 bd
       0.045659587 0.003979434 0.10188558 -0.11080792
000250 b0 f8 44 be e8 8d ce bd 91 d4 b0 bd 44 42 41 bb
       -0.19235492 -0.1008566 -0.08634294 -0.002948896
000260 84 cf 36 3d 5c ac b6 3d 57 c5 94 bd 6c 86 06 be
       0.044631496 0.08919594 -0.07264202 -0.13137215
000270 6f 54 fd bd d0 72 bf bc 5e 3f 30 be d5 f4 d2 bd
       -0.1236962 -0.023370177 -0.17211673 -0.10300604
000280 24 75 ba 3c 85 72 47 3c 29 74 b7 bd 22 1f 32 3d
       0.022760935 0.0121733 -0.08957703 0.04348672
000290 02 9e 97 3d 7f 6d 18 bc 8e 15 26 be a7 ea 37 be
       0.074031845 -0.00930345 -0.1621916 -0.17960607
0002a0 b4 d3 b4 bc 31 a5 06 3e 24 c0 79 3d 73 68 e0 bd
       -0.022073604 0.13148953 0.060974255 -0.10957422
0002b0 da 8e 62 be 4f c6 4e bd 06 44 7c bd 5a a6 ba 3b
       -0.22124806 -0.05048209 -0.06158831 0.0056961
0002c0 bd 01 9a 3d 70 8c 8c bc a9 78 b8 3d 5e 64 f3 3c
       0.07519863 -0.01715681 0.09007389 0.029710945
0002d0 fa 92 5c bc 06 5f 20 3e 84 46 b7 bc 4b 97 22 be
       -0.013462776 0.15661249 -0.022372492 -0.15878026
0002e0 9c ec 51 be 8c 73 6c bd c4 f3 8e 3c fb 17 34 3d
       -0.20500416 -0.05772738 0.01745022 0.043968182
0002f0 8d 28 7a be 12 bf 4e be 50 2d ef ba d1 39 0d bc
       -0.24429531 -0.20190075 -0.0018247757 -0.008619742
000300 ad 38 dc 3c fa 04 04 3e c9 e9 8f be 42 87 bc 3c
       0.026882494 0.12892523 -0.2810805 0.023013715
000310 48 82 3f be 45 15 1a be 90 92 e7 bd 21 67 5a bd
       -0.18702042 -0.15047176 -0.113072515 -0.053321008
000320 b0 82 5a 3d 83 1a f9 3c a0 2e ff bd e4 82 f5 3d
       0.05334729 0.03040815 -0.12460065 0.11987856
000330 d6 6e 2f bd 7a d8 1a be 9b 74 b4 bd 82 b9 e4 3d
       -0.04283031 -0.15121642 -0.08811303 0.11168195
000340 c7 8c 18 bd 6a 65 86 bd 37 d2 e3 3d 38 13 63 3d
       -0.03724363 -0.06562312 0.1112408 0.05543825
000350 65 65 b4 bc ec 5a 50 be 0b e5 08 be b3 af 6f 3d
       -0.022021005 -0.20347184 -0.13368623 0.05851717
000360 81 75 ce bd 69 fd cf 3d af 5e c4 3d bc 15 ee bd
       -0.10081006 0.10155756 0.09588372 -0.11625239
000370 ca b0 76 bd 46 0f 98 be 6f d8 34 3c e7 ce b8 3c
       -0.060227193 -0.29699153 0.01103793 0.022559596
000380 c0 db 26 3e 7a e0 ee 3c d8 5e 42 be 5d c7 b1 3c
       0.16294765 0.029159773 -0.18981493 0.02170151
000390 56 03 29 bd b6 22 02 bc 92 dd cf 3d 5b 48 46 3c
       -0.041262947 -0.007942846 0.10149683 0.012102212
0003a0 40 b6 87 bd ab 5e 66 3e 9c cd 9d bc 5f 2e 83 be
       -0.06626558 0.2249705 -0.019263081 -0.25621316
0003b0 c9 c9 ac bd 1c 69 91 bd 1e 36 97 bd 54 63 60 bc
       -0.08436925 -0.07100126 -0.07383369 -0.013695557
0003c0 36 a1 f7 bd 33 50 ae bd d1 71 28 bc d2 1e 82 3d
       -0.120912954 -0.085113905 -0.010281042 0.06353535
0003d0 87 06 90 3d 29 8f 53 be 67 2f 7d 3d b7 1e 81 bd
       0.07032495 -0.2066008 0.061812785 -0.063046865
0003e0 c2 06 f6 bd 63 68 66 bc 04 27 98 bd 57 4a bb 3d
       -0.12013008 -0.014062974 -0.07429317 0.091450386
0003f0 12 46 b5 bd 0b 23 b5 bd 15 41 96 3d 90 e3 3f 3d
       -0.088512555 -0.088445745 0.07336632 0.04684788
