RollerAgent/Assets/Learn/RollerAgent_15.onnx (onnx, 81045 bytes, 9 tensors)

action_model._continuous_distribution.log_sigma f4 [1, 3]
0	0xbf075b91	-0.52874094
1	0xbefa05cf	-0.48832557
2	0xbf2d57c4	-0.67712045

action_model._continuous_distribution.mu.bias f4 [3]
0	0xbd58dda0	-0.052945733
1	0x3d67c7c0	0.05658698
2	0xbd7937f9	-0.060844395

action_model._continuous_distribution.mu.weight f4 [3, 128]
0	0xbd088a28	-0.03333488
1	0x3cc2d380	0.023782492
2	0xbd3c1970	-0.045922697
3	0x3d2b7b0c	0.041865394
4	0x3d9080ea	0.070558384
5	0xbd38107f	-0.044937607
6	0x3c435f05	0.01192451
7	0xbda5e279	-0.08099837
8	0x3ce34381	0.02774215
9	0x3d32bc40	0.04363656
10	0x3ddb090a	0.106950834
11	0xbd48418d	-0.04889064
12	0x3dc9b2e7	0.09848576
13	0xbd2cfa87	-0.04223111
14	0xbcc7826a	-0.024354178
15	0x3d4f65aa	0.050634064
16	0x3d79a1c3	0.060945284
17	0xbda5ed21	-0.081018694
18	0xbcd8bd16	-0.02645735
19	0x3cdb725e	0.026787933
20	0xbd13a457	-0.0360454
21	0x3d7dd95f	0.06197488
22	0xbbbc2970	-0.0057422444
23	0x3da29f55	0.079405464
24	0x3d92dc42	0.07170917
25	0xbc93bd7a	-0.018034685
26	0xbb14dc86	-0.002271445
27	0xbe2b0b28	-0.16703475
28	0x3d92f386	0.07175355
29	0xbcb798e0	-0.022411764
30	0x3df10333	0.11768188
31	0xbd3bdebd	-0.045866717
32	0x3d95a907	0.0730763
33	0xbcfd3123	-0.03090722
34	0x3cfeb6fa	0.03109311
35	0x3df04a58	0.1173293
36	0xbd777a4f	-0.060419377
37	0xbd531a7c	-0.05153893
38	0xbc4bd197	-0.012440107
39	0x3d5931fb	0.05302618
40	0xbc3ccfef	-0.011524185
41	0xbdcdc3e0	-0.10047126
42	0xbd6ae7cc	-0.057349965
43	0x3be97db4	0.0071255807
44	0x3e1c9ccf	0.15294193
45	0xbd05f011	-0.03269965
46	0xbc82ae6a	-0.015952308
47	0xbdb8cc85	-0.09023384
48	0x3bc38943	0.0059672906
49	0x3d591489	0.0529981
50	0x3d8d9205	0.06912617
51	0x3da9affe	0.08285521
52	0x3dbd734b	0.09250506
53	0x3d19e0c4	0.03756787
54	0xba8faf7d	-0.0010962334
55	0xbc1142de	-0.00886604
56	0x3d0cb179	0.03434894
57	0x3d23d4a5	0.039997716
58	0x3b5b007c	0.0033417037
59	0x3dcfbe85	0.101437606
60	0x3e0a53c5	0.13508518
61	0x3c44691a	0.011987949
62	0xbd23fb18	-0.040034384
63	0xbc5b7105	-0.013393645
64	0x3d993d79	0.07482428
65	0xbdc7771c	-0.09739515
66	0xbbe5cf70	-0.007013254
67	0x3c934513	0.017977273
68	0xbd86f539	-0.06589741
69	0xbc716a1e	-0.014734773
70	0xbd0d41a2	-0.03448642
71	0x3ddf6320	0.109075785
72	0xbcbfc14e	-0.023407605
73	0xbccec135	-0.025238613
74	0xbcad7f9e	-0.021179017
75	0xbdc5e117	-0.09662073
76	0x3c9e0442	0.01928914
77	0xbd6893d0	-0.05678159
78	0xbd3656a7	-0.044516232
79	0xbd80bffe	-0.062866196
80	0x3da24955	0.07924143
81	0xbd8a5feb	-0.06756576
82	0x3c6fe0d7	0.014641008
83	0xbd3ed460	-0.046589255
84	0x3cf038f8	0.02932404
85	0xbd5ddb15	-0.05416401
86	0x3c91df1b	0.01780658
87	0x3c622a75	0.013804068
88	0xbdd18bfc	-0.10231778
89	0x39ca309a	0.00038564653
90	0x3c3d4514	0.011552114
91	0xbe1f2026	-0.15539607
92	0x3cc07e21	0.023497643
93	0x3c3d7bb5	0.011565139
94	0xbd1a506c	-0.037674353
95	0x3dc2fa75	0.09520427
96	0xbd38cdb3	-0.045118045
97	0xbcb1fd5d	-0.021727258
98	0x3cf955ed	0.03043648
99	0x3c5a5298	0.013325356
100	0x3c2373d8	0.00997635
101	0x3c7a85be	0.015290676
102	0xbd7a084f	-0.06104308
103	0xbbb0cf72	-0.005395823
104	0x3ce87e49	0.02838053
105	0x3d8a189e	0.067429766
106	0xbc620303	-0.013794663
107	0x3e400012	0.18750027
108	0xba038b5b	-0.0005018019
109	0x3d9a1f6f	0.07525527
110	0x3d12c918	0.03583631
111	0x3d1f6c4c	0.03892164
112	0x3db5342a	0.0884784
113	0xbc983149	-0.018578188
114	0xbdafacc5	-0.08577875
115	0x3ca7e4e6	0.02049489
116	0x3c56d548	0.013112374
117	0x3dd31173	0.103060625
118	0x3d7f2ab4	0.062296584
119	0x3d751a28	0.059839398
120	0x3d5cbe1b	0.053892236
121	0xbdd299a1	-0.10283209
122	0x3b8fbf70	0.004386835
123	0x3d531f57	0.05154356
124	0x3dc3dd19	0.095636554
125	0xbc8ee8a7	-0.017444922
126	0x3d01e5ce	0.0317133
127	0xbdb3a89e	-0.087723956
128	0xbd81ad21	-0.0633185
129	0x3c801d1a	0.015638877
130	0x3cc7f4dd	0.024408752
131	0xbd497060	-0.049179435
132	0xbbc614cd	-0.00604496
133	0x3d0cd11e	0.034379117
134	0x3dd6d0d3	0.10489049
135	0x3ca7cbbe	0.020482894
136	0xbd8d40dc	-0.068971366
137	0xbdfd6d4d	-0.12374363
138	0x3dbd99ba	0.09257837
139	0x3c97875c	0.018497162
140	0x3d6f6a33	0.05845089
141	0xbcf1ec56	-0.02953164
142	0xbe292efa	-0.16521826
143	0x3bc1a791	0.005909868
144	0xbd19823d	-0.03747772
145	0x3d083923	0.033257615
146	0x3d8c9947	0.06865173
147	0xbd04a20b	-0.0323811
148	0xbce21f4a	-0.02760281
149	0x3c5f2a10	0.013620868
150	0x3d2eac3b	0.04264472
151	0x3b37aff9	0.0028028472
152	0xbda909fe	-0.08253859
153	0x3d432bd4	0.04764922
154	0xbc6c1d57	-0.014411292
155	0xbdf659e7	-0.12028866
156	0xbca4c115	-0.0201116
157	0xbd331c08	-0.043727905
158	0x3c017a93	0.007902759
159	0x3d3006c6	0.04297521
160	0x3d37f028	0.044906765
161	0xbd9a0785	-0.075209655
162	0x3d356e93	0.044294905
163	0xbbd1ac71	-0.0063987304
164	0x3d11692d	0.035500694
165	0xbd59cf10	-0.053175986
166	0x3d95126e	0.07278906
167	0x3d47f3de	0.048816554
168	0x3d2a0b15	0.041514475
169	0x3d34ede8	0.044172198
170	0xbc9c8dea	-0.019110639
171	0xbd88c506	-0.06678204
172	0xbc8ed566	-0.01743574
173	0x3ded7214	0.11594024
174	0x3c2627dd	0.01014134
175	0x3d7554f9	0.05989549
176	0xbc0ccb3b	-0.008593376
177	0x3da36ef2	0.079801455
178	0xbd7cb56b	-0.06169645
179	0x3d4481fb	0.04797552
180	0x3c2901de	0.010315387
181	0x3da79632	0.08182944
182	0xbc58027a	-0.013184184
183	0x3d7a266d	0.061071802
184	0xbc929039	-0.017891036
185	0xbd1ab04e	-0.037765794
186	0x3c72a21a	0.014809156
187	0x3dcfe3d3	0.10150876
188	0xbbf060d1	-0.00733576
189	0xbb4fe612	-0.0031722826
190	0xbc9ce397	-0.019151492
191	0x3e036139	0.12830056
192	0x3a8072a4	0.000979979
193	0x3dac67ea	0.084182575
194	0x3d87210b	0.06598099
195	0xbc125b25	-0.008932863
196	0x3d090dce	0.03346043
197	0x3d7cc21c	0.061708555
198	0x3d7ba26e	0.061434202
199	0x3b786723	0.003790327
200	0x3b8c9868	0.004290629
201	0xbd049de2	-0.03237713
202	0x3d1be07d	0.038055886
203	0xbc02361f	-0.007947474
204	0x3db2dbf8	0.08733362
205	0x3d851428	0.06497985
206	0xbd933838	-0.07188457
207	0x3c612a0d	0.013742936
208	0xba6019da	-0.0008548774
209	0x3d873398	0.066016376
210	0x3db187d0	0.08668482
211	0xbc4641a6	-0.012100613
212	0xbe0c562a	-0.13704744
213	0xbe238722	-0.15969518
214	0xbd829b95	-0.06377331
215	0xbcbc2f95	-0.022971908
216	0xbc58dff7	-0.013236991
217	0x3d8a8c24	0.06765011
218	0xbd98897c	-0.07448098
219	0xbc32353c	-0.01087695
220	0xbbc6cddd	-0.0060670213
221	0x3bbe3a95	0.0058053234
222	0x3d009a61	0.031397227
223	0xbd1f6535	-0.038914878
224	0x3d564cbe	0.05231928
225	0x3d427d2b	0.04748265
226	0x3bcec21e	0.0063097617
227	0x3d1a2900	0.037636757
228	0x3c6dd288	0.014515527
229	0x3d3ad951	0.045617405
230	0x3d4b6b55	0.049662907
231	0xbcf7b2a3	-0.030236548
232	0x3da94954	0.08265939
233	0xbdc2d1e0	-0.09512687
234	0x3d38234d	0.04495554
235	0x3d563028	0.05229202
236	0x3dde6100	0.10858345
237	0xbd9ce5c8	-0.07661015
238	0xbda8118d	-0.082064725
239	0x3d56d6d1	0.05245096
240	0xbda25bbd	-0.07927654
241	0x3db922ce	0.090398416
242	0xba498cef	-0.0007688542
243	0xbbb3b437	-0.00548413
244	0x3d63e934	0.05564232
245	0xbdb21381	-0.08695126
246	0x3d123e1d	0.035703767
247	0x3d152b92	0.036418505
248	0x3d8e973d	0.0696244
249	0x3cff02f5	0.03112934
250	0x3de4cd67	0.1117199
251	0x3d07c96f	0.033151086
252	0x3dcdf83c	0.100571126
253	0x3d4ff3c6	0.05076959
254	0x3df20c93	0.118188046
255	0xbbcb0866	-0.0061960695

action_model._discrete_distribution.branches.0.bias f4 [2]
0	0xbd23d442	-0.039997347
1	0x3d23d473	0.03999753

action_model._discrete_distribution.branches.0.weight f4 [2, 128]
0	0x3d3d51b8	0.04622051
1	0xbcd2d63d	-0.025736922
2	0xbd6e0108	-0.058106452
3	0x3e0c3cf9	0.13695134
4	0x3b59383f	0.0033145098
5	0xbd628219	-0.055299852
6	0x3dffc2d8	0.12488335
7	0xbdc2e001	-0.095153816
8	0xbd3e6fae	-0.046493225
9	0x3c5c6e66	0.013454055
10	0xbbf5bf2a	-0.007499595
11	0x3ddfebf1	0.10933674
12	0xbdcdc13c	-0.10046622
13	0xbdb7ff50	-0.08984244
14	0x3d80ac23	0.062828325
15	0x3cd04ed0	0.025428206
16	0xbd0d282e	-0.034462146
17	0x3d011b98	0.031520456
18	0xbcb8f5d2	-0.022578154
19	0xbab0ebb2	-0.0013497977
20	0x3d19cc4c	0.03754835
21	0xbd8d6c39	-0.069054075
22	0x3df2b79b	0.11851426
23	0xbdb1a950	-0.08674872
24	0x3da10990	0.07863152
25	0x3c249b10	0.010046735
26	0x3c8e7b32	0.017392728
27	0x3da0f564	0.078593045
28	0x3bbf18aa	0.0058317976
29	0xbdbaf578	-0.09128851
30	0xbb1b1496	-0.0023663393
31	0x3da2203a	0.07916303
32	0x3d9f5b05	0.077810325
33	0xbc1d3fcb	-0.009597729
34	0x3de41b4e	0.111380205
35	0x3e121952	0.14267471
36	0xbcb17e66	-0.021666717
37	0xbaf29a61	-0.0018509143
38	0x3e195973	0.14975528
39	0x3e2f8815	0.17141755
40	0x3d7c29c6	0.061563276
41	0xbe0c3f7c	-0.13696092
42	0x3dd69d35	0.104792036
43	0xbdf01e52	-0.11724533
44	0xbe03e3c5	-0.12879856
45	0x3d16afe4	0.036788836
46	0xbd88077d	-0.06642053
47	0xbd4d02b6	-0.050051413
48	0xbd69110b	-0.05690102
49	0xbcd4f1f8	-0.025994286
50	0x3e1fef37	0.15618597
51	0x3e78b372	0.24287203
52	0xbad9b532	-0.0016609787
53	0x3da7ab24	0.08186939
54	0xbbc01def	-0.0058629434
55	0xbe3d97bd	-0.18514915
56	0xbd5a8b1e	-0.05335533
57	0x3c725d8a	0.014792809
58	0xbd04c2a6	-0.032412194
59	0xbcdf5ec3	-0.027266866
60	0x3e12e648	0.14345658
61	0x3ca411d4	0.020028032
62	0xbd9157d6	-0.070968315
63	0x3b4694a8	0.0030301008
64	0xbc32ba20	-0.0109086335
65	0x3ccd3e27	0.02505405
66	0xbca81574	-0.020518042
67	0xbca63fad	-0.020294035
68	0xbd5b339a	-0.053516008
69	0x3cc99779	0.02460836
70	0x3cd66aef	0.026174037
71	0x3d81fd2d	0.063471176
72	0x3d7b66fc	0.06137751
73	0xbc9305d0	-0.017947108
74	0x3d1c1b27	0.038111832
75	0xbc961358	-0.01831977
76	0x3d4cbbfd	0.049983967
77	0xbc1142b3	-0.008866
78	0xbbc07d1a	-0.0058742883
79	0x3da3e7a1	0.08003164
80	0xbd6ea464	-0.058262244
81	0x3d899e1c	0.0671961
82	0xbc9ed706	-0.01938964
83	0x3d2eb344	0.04265143
84	0xbcb2c6aa	-0.021823246
85	0xbd2a56bf	-0.041586634
86	0xbce8cccb	-0.028417965
87	0xbd60fc5f	-0.05492818
88	0xbcfc5ecb	-0.03080692
89	0xbd91fecb	-0.07128676
90	0x3dac6cc4	0.08419183
91	0xbcdb03c5	-0.026735196
92	0xbe3d4ca2	-0.18486264
93	0x3ca35789	0.019939201
94	0x3d2920ec	0.041291162
95	0x3dd7252c	0.10505137
96	0xbc2f9ef9	-0.010719054
97	0xbdfbfda5	-0.12304238
98	0xbd5ac86f	-0.053413805
99	0xbbc57d1d	-0.0060268776
100	0xbe4aedd7	-0.19817291
101	0xbc961956	-0.018322628
102	0x3e09af5c	0.134458
103	0xbdb468e7	-0.08809071
104	0x3de9ea11	0.11421598
105	0x3df72e01	0.120693214
106	0x3c87e8fc	0.016590588
107	0xbe02b699	-0.12764968
108	0x3df2c54e	0.11854039
109	0x3db135b5	0.08652822
110	0xbdc5a82f	-0.09651219
111	0xbd946a73	-0.07246866
112	0xbcfa47b7	-0.030551774
113	0xbcf18858	-0.02948396
114	0xbd3f7076	-0.04673811
115	0xbc9b53cd	-0.018960858
116	0xbd96200e	-0.07330333
117	0x3d2b3a81	0.04180384
118	0x3d9fff83	0.07812407
119	0x3e1af158	0.15131128
120	0xbcdb7f5a	-0.026794124
121	0xbd35a724	-0.04434885
122	0x3d092c4b	0.033489507
123	0xbdcd4b0c	-0.1002408
124	0xbd372d02	-0.044720657
125	0xbdfba9f3	-0.122882746
126	0xbe1fcf39	-0.15606393
127	0xbdd724d0	-0.10505068
128	0xbd1b7d07	-0.037961032
129	0x3b20e737	0.0024551877
130	0x3d8ed427	0.069740586
131	0xbe063c5f	-0.13108967
132	0xbc606bb0	-0.01369755
133	0x3da30442	0.079597965
134	0xbe073c7f	-0.13206671
135	0x3dc6a7c0	0.096999645
136	0x3d161880	0.03664446
137	0xbc1bef5e	-0.009517519
138	0x3c82fbff	0.015989302
139	0xbde9a994	-0.114092976
140	0x3dda7def	0.10668551
141	0x3dcf1c62	0.101128355
142	0xbd792e55	-0.0608352
143	0xbc863845	-0.016384253
144	0x3d0882bb	0.0333278
145	0xbcb95545	-0.022623667
146	0x3bf2d8ee	0.007411114
147	0x3ab51064	0.0013814089
148	0xbd0e6a1e	-0.03476917
149	0x3d3c6abd	0.04600023
150	0xbe02d22a	-0.12775484
151	0x3dd00507	0.10157209
152	0xbdab838a	-0.083746985
153	0xbcdf668f	-0.027270583
154	0xbcb93a35	-0.022610763
155	0xbd8af1d5	-0.06784407
156	0x3c069964	0.008215282
157	0x3dbd7a7b	0.09251877
158	0xbb9b3e76	-0.0047376705
159	0xbd94fe41	-0.072750576
160	0xbdb59d58	-0.088679016
161	0xbb8c547d	-0.0042825327
162	0xbdd44945	-0.103655376
163	0xbe18dab7	-0.14927183
164	0x3cb9644e	0.022630837
165	0xbc145422	-0.009053262
166	0xbdfe9dc0	-0.12432432
167	0xbe3f85a7	-0.18703328
168	0xbd898a94	-0.06715885
169	0x3e08404d	0.13305779
170	0xbde55ca0	-0.111993074
171	0x3dd36fd3	0.10324063
172	0x3e002f79	0.1251811
173	0xbd3817d1	-0.044944588
174	0x3d2c54b8	0.04207298
175	0x3d57f1c2	0.052720793
176	0x3da9d4c7	0.08292537
177	0x3bf735ef	0.007544271
178	0xbe21b9d2	-0.15793541
179	0xbe76782c	-0.2406928
180	0x3b7d52f7	0.0038654187
181	0xbdaec5bf	-0.08533811
182	0xbc6b97ea	-0.014379481
183	0x3e26f6d3	0.16305093
184	0x3d3c8150	0.04602176
185	0xbbd9e8f1	-0.006650083
186	0x3cb7dd78	0.022444472
187	0x3c86a1d0	0.01643458
188	0xbe16c84e	-0.14724848
189	0xbc7e26a7	-0.015512145
190	0x3d9609d7	0.073260956
191	0x3c9bfce7	0.019041492
192	0x3cb5d8a0	0.022198021
193	0xbc4fd32b	-0.012684624
194	0x3c43065b	0.011903371
195	0x3c72095d	0.01477274
196	0x3cd20709	0.02563812
197	0xbcc4d4df	-0.024027286
198	0xbd0b758f	-0.03404766
199	0xbd35926f	-0.044329103
200	0xbd277802	-0.040885933
201	0xbbf04d9c	-0.0073334705
202	0xbd8399fd	-0.06425855
203	0x3cc6b411	0.024255784
204	0xbd441aba	-0.04787705
205	0x3cc42955	0.02394549
206	0x3c13e23c	0.009026106
207	0xbda3de24	-0.08001354
208	0x3d1f9920	0.03896439
209	0xbd7195fd	-0.05898093
210	0xbb97fb2f	-0.0046380977
211	0xbd74b1cf	-0.059739884
212	0xbaffb60c	-0.001950921
213	0x3d1f717b	0.038926583
214	0x3ccba9fd	0.02486133
215	0x3d6965a0	0.056981683
216	0x3d1f9ca9	0.038967762
217	0x3d3992d5	0.045306046
218	0xbd9c434b	-0.076300226
219	0x3c838071	0.016052457
220	0x3e3ad463	0.18245082
221	0xbcbd1fa2	-0.023086373
222	0xbd2fcf88	-0.042922527
223	0xbdd6e0c3	-0.10492089
224	0xbc1fe2e2	-0.009758683
225	0x3e05ff0d	0.13085575
226	0x3d864845	0.06556753
227	0xbb207690	-0.0024484731
228	0x3e38d5bc	0.18050283
229	0x3c9e68cd	0.019337082
230	0xbdf87592	-0.121318
231	0x3db0aed8	0.08627099
232	0xbdd5b647	-0.10435157
233	0xbdd317cb	-0.103072725
234	0xbc8f9f86	-0.017532121
235	0x3e0af908	0.1357156
236	0xbe170ece	-0.14751741
237	0xbdbd5aca	-0.09245832
238	0x3de06602	0.109569564
239	0x3d9add57	0.075617485
240	0x3cc1c7a5	0.023654768
241	0x3cf94215	0.030427018
242	0x3ce816b5	0.02833114
243	0x3c8114e9	0.015757041
244	0x3d901608	0.07035452
245	0xbd8a27c6	-0.067458674
246	0xbd9ea19e	-0.0774567
247	0xbe1637b4	-0.14669687
248	0x3b84b2dd	0.0040496425
249	0x3d44330f	0.047900256
250	0xbcdb4d19	-0.026770161
251	0x3da35a0a	0.07976158
252	0x3d42222a	0.047395863
253	0x3de4d0b2	0.11172618
254	0x3e15b0e7	0.14618264
255	0x3ddd708a	0.10812481

network_body._body_endoder.seq_layers.0.bias f4 [128]
0	0xbd472a3e	-0.04862427
1	0xbd8a2994	-0.06746212
2	0x3bcc6d0e	0.0062385863
3	0xbd39ef70	-0.04539436
4	0x3aecb418	0.0018059043
5	0xbd872883	-0.06599524
6	0xbdc78160	-0.09741473
7	0x3c1bde6d	0.00951348
8	0x3cb79c48	0.022413388
9	0xbe13a147	-0.14416991
10	0xbe09df68	-0.13464129
11	0xbd91fa99	-0.07127876
12	0xbc67c8e2	-0.014147015
13	0xbe32f31a	-0.17475548
14	0xbdaf64ff	-0.08564185
15	0x3c807324	0.015679903
16	0xbde007c6	-0.10938983
17	0xbcb5a9bf	-0.022175668
18	0x3d0e5155	0.034745533
19	0x3b854bf2	0.0040678913
20	0xbd60d2b8	-0.054888457
21	0xbd9672b1	-0.073460944
22	0xba10af16	-0.0005519254
23	0xbc0ece93	-0.008716243
24	0x3d215d39	0.039395545
25	0x3cc3b330	0.023889154
26	0xbcb75507	-0.022379411
27	0xbdc9b7fb	-0.098495446
28	0x3cd470ec	0.025932752
29	0xbdccd121	-0.10000826
30	0xbdad45dc	-0.0846059
31	0x3c464402	0.012101175
32	0xbae165b8	-0.0017196452
33	0xbda237b9	-0.079207845
34	0xbc433bcf	-0.011916115
35	0xbdadee99	-0.084927745
36	0x3cbcd4a1	0.023050608
37	0xbd1d05b2	-0.03833551
38	0xbd0cc796	-0.034370027
39	0xbda8076c	-0.082045406
40	0xbd75b8d7	-0.05999073
41	0xbdbecade	-0.093160376
42	0x3c6668f6	0.014063111
43	0x3cf66680	0.030078173
44	0xbb5fe817	-0.0034165436
45	0xbc8e225f	-0.017350374
46	0xbde18bff	-0.1101303
47	0xbe24b5c2	-0.1608496
48	0x3cc048a2	0.023472134
49	0x3d8ad3b7	0.06778663
50	0xbdbf6f7d	-0.093474366
51	0xbdb579fa	-0.08861156
52	0xbd33d438	-0.04390356
53	0xbcdb8043	-0.026794558
54	0xbd1a06da	-0.03760419
55	0xba23b623	-0.0006245097
56	0xbd929ade	-0.07158445
57	0xbde4cae6	-0.11171512
58	0xbdccd594	-0.10001674
59	0xbdc491b0	-0.095981
60	0xbd771911	-0.06032664
61	0xbda83ee7	-0.08215123
62	0xbab9ac00	-0.001416564
63	0xbcfc3542	-0.030787114
64	0xbd62f7c0	-0.055412054
65	0xbde64816	-0.11244218
66	0xbc3cee06	-0.011531359
67	0xbe352ab4	-0.17692071
68	0xbb1cc95e	-0.0023923735
69	0xbdadea6c	-0.08491978
70	0xbdcc003b	-0.099609815
71	0x3cdf2b26	0.027242254
72	0xbe224583	-0.15846829
73	0xbd4400bd	-0.047852267
74	0xbde9b321	-0.11411119
75	0xbd1f58a3	-0.03890289
76	0xbdaaf63c	-0.08347747
77	0xbd0bdb35	-0.0341446
78	0xbd409fa0	-0.04702723
79	0xbe0aab76	-0.1354197
80	0xbc9847b1	-0.018588873
81	0xbc9121a3	-0.017716235
82	0xbe0e2abc	-0.1388349
83	0x3d0a8017	0.033813562
84	0xbc72931c	-0.014805581
85	0xbd6a5cc8	-0.05721739
86	0xbca3f42e	-0.020013895
87	0x3d8dbc8f	0.0692073
88	0xbd84757e	-0.06467722
89	0x3d602c86	0.05472996
90	0xbd5b25a7	-0.053502705
91	0xbccefc93	-0.025266921
92	0x3d1e64a1	0.038670186
93	0xbd511a93	-0.051050734
94	0xbdc666ed	-0.096876
95	0x3c02112e	0.007938666
96	0x3ac2c12a	0.0014858593
97	0xbd9c3daa	-0.07628949
98	0xbc4bbf6f	-0.012435778
99	0x3d71c57a	0.05902622
100	0xbdc0cb4b	-0.09413775
101	0x3b9a2232	0.0047037834
102	0xb9af7611	-0.00033466567
103	0xbcb4c7c2	-0.022067908
104	0xbe2d5b7b	-0.16929428
105	0x3d687228	0.056749493
106	0xbd8e56d9	-0.069501586
107	0xbd510295	-0.051027853
108	0xbd597102	-0.05308629
109	0xbd7012c9	-0.058611665
110	0xbd518617	-0.05115327
111	0xbc92413a	-0.017853368
112	0xbbd2e462	-0.0064359168
113	0x3cd95467	0.026529504
114	0x3d328bd7	0.043590393
115	0xbe27954b	-0.16365544
116	0xbc8c8071	-0.01715109
117	0x3c3884a9	0.011262097
118	0xbc947797	-0.018123431
119	0xbd908184	-0.07055953
120	0x3c1c06ce	0.009523107
121	0xbd971ebd	-0.0737891
122	0xbc8329b8	-0.016011104
123	0xbd0a1209	-0.033708606
124	0xbe172597	-0.14760433
125	0xbc97eab6	-0.018544536
126	0x3d2f6319	0.042819116
127	0xbcbc1248	-0.022957936

network_body._body_endoder.seq_layers.0.weight f4 [128, 17]
0	0x3eec10f7	0.46106693
1	0x3dac6ca9	0.08419163
2	0xbd3552db	-0.04426847
3	0x3e9b6366	0.30349272
4	0xbe75d4eb	-0.24007003
5	0xbdc620c2	-0.09674217
6	0x3dd34fc5	0.10317949
7	0x3e41cc9a	0.18925706
8	0xbe472c5f	-0.1945052
9	0x3d15d73a	0.03658221
10	0x3b9619d5	0.004580716
11	0xbe3823e9	-0.17982449
12	0x3ec11b11	0.37715963
13	0xbe54a9db	-0.2076792
14	0xbdb50f3b	-0.088407956
15	0x3ecd7176	0.40125626
16	0x3e33b407	0.17549144
17	0x3dd568ed	0.10420404
18	0xbdd4e307	-0.103948645
19	0x3c6e6b12	0.014551895
20	0xbed68bf4	-0.4190365
21	0x3d520bfb	0.051280957
22	0xbe296a85	-0.1654454
23	0xbdd1aa05	-0.10237507
24	0xbe37570c	-0.179043
25	0xbca443be	-0.020051833
26	0x3e98b4b8	0.29825377
27	0xbed1f09b	-0.4100388
28	0xbdbcec04	-0.09224704
29	0xbe0ead76	-0.13933358
30	0xbd8e35f3	-0.06943884
31	0xbd50ee28	-0.051008373
32	0xbf265836	-0.6497835
33	0xbeccb4b9	-0.3998163
34	0xbe9872dc	-0.2977513
35	0x3eaa1d41	0.33225444
36	0x3da8477a	0.08216758
37	0xbe9b1492	-0.3028913
38	0xbe9d72eb	-0.30751738
39	0xbe406282	-0.18787578
40	0x3b5fd2f7	0.0034152844
41	0xbb575d2b	-0.003286193
42	0x3e5565e7	0.20839654
43	0xbc8f350d	-0.017481351
44	0xbeb89e06	-0.36058062
45	0xbd960bec	-0.07326493
46	0x3ec570c0	0.38562584
47	0xbe86112c	-0.26184976
48	0x3e447e00	0.1918869
49	0x3e8b990f	0.27265212
50	0xbe6580fb	-0.22412483
51	0xbec9ffab	-0.39452872
52	0x3e01df0e	0.12682745
53	0x3e5b72bc	0.21430486
54	0xbe131121	-0.14362003
55	0xbdf65cfa	-0.120294526
56	0xbe96f7d6	-0.2948596
57	0x3ec63a93	0.38716564
58	0x3cd19973	0.025585866
59	0x3c0293b8	0.007969789
60	0xbea6ad29	-0.32553986
61	0xbbd3a1f9	-0.0064585176
62	0x3cda3b70	0.02663967
63	0x3ca5d9c6	0.020245444
64	0x3de2fea8	0.11083728
65	0x3e9c8373	0.30569038
66	0x3ed1fb43	0.4101201
67	0x3d475aff	0.048670765
68	0x3ed2a02c	0.41137826
69	0x3b46f855	0.003036042
70	0xbca443b5	-0.020051816
71	0xbd1c3756	-0.03813871
72	0xbe8a8c35	-0.27060094
73	0xbe398ee7	-0.18120919
74	0x3e8e816d	0.2783312
75	0xbe1cfe3c	-0.15331358
76	0x3ead8ff0	0.33898878
77	0x3ef19ec0	0.4719143
78	0xbded0b29	-0.11574394
79	0xbe04565a	-0.12923566
80	0xbe567f5f	-0.20947026
81	0xbdcda1d1	-0.1004063
82	0xbe79f41a	-0.24409524
83	0xbee36703	-0.4441453
84	0xbdbbe904	-0.091753036
85	0x3ce8b575	0.028406838
86	0xbe215b7b	-0.15757553
87	0x3e296f76	0.16546425
88	0x3d06cc1a	0.03290949
89	0xbc20cae1	-0.009813995
90	0xbeeb77f6	-0.4598996
91	0xbd9e77eb	-0.07737716
92	0x3cb1e5e5	0.021716068
93	0xbee19d9b	-0.44065556
94	0xbd1456ad	-0.036215473
95	0x3e3b18c9	0.18271174
96	0xbd12e985	-0.035867233
97	0xbe68032d	-0.22657461
98	0xbc924a74	-0.017857768
99	0x3df80105	0.121095695
100	0x3f0eca3b	0.5577733
101	0x3e5d6ec7	0.2162429
102	0xbe2d4ed0	-0.16924596
103	0x3ea31ab4	0.3185631
104	0xbc8552c5	-0.01627482
105	0x3e16f807	0.14743052
106	0xbe1dc599	-0.15407409
107	0xbdfab15d	-0.122408606
108	0xbcde630d	-0.02714684
109	0x3e1b006a	0.15136877
110	0x3de71889	0.112839766
111	0xbde723cd	-0.11286125
112	0xbe263ef3	-0.1623495
113	0x3ddd73df	0.10813116
114	0x3e1c1f9c	0.15246433
115	0xbf199a53	-0.60001105
116	0x3cb470c2	0.022026423
117	0x3e46d202	0.19416049
118	0xbeb9dfef	-0.3630366
119	0xbf128a1d	-0.57241994
120	0x3ee242a1	0.4419146
121	0x3c8713ce	0.016488936
122	0xbd17d72e	-0.037070446
123	0x3d18e50b	0.037327807
124	0x3e01bc85	0.1266957
125	0x3e85f1af	0.26160952
126	0x3ed1c25f	0.40968606
127	0xbddf4691	-0.10902131
128	0xbdece993	-0.11567988
129	0xbe306260	-0.17225027
130	0x3e58621e	0.21131179
131	0xbea02844	-0.3128072
132	0xbe167e53	-0.14696626
133	0x3ea3ba38	0.3197801
134	0x3eb1fbab	0.3476232
135	0x3eebe53a	0.46073323
136	0x3e6756e0	0.22591734
137	0x3cf05476	0.02933715
138	0xbe400235	-0.18750842
139	0x3e3c740f	0.18403648
140	0x3e026bc3	0.1273642
141	0xbe5fcf99	-0.21856536
142	0xbe111022	-0.1416631
143	0x3eb3b1d8	0.35096622
144	0xbc3feb20	-0.011713773
145	0xbec74a65	-0.38923946
146	0xbe62e5e5	-0.2215801
147	0x3c294570	0.010331497
148	0x3eaf0a67	0.34187624
149	0xbe4f0b74	-0.20219213
150	0x3e207c24	0.15672356
151	0x3e00833a	0.12550059
152	0xbebf7761	-0.37395766
153	0xbc1fdb54	-0.009756882
154	0x3eb0b383	0.34511957
155	0x3db9b4f8	0.0906772
156	0x3e93de57	0.2888057
157	0xbee8c424	-0.45462143
158	0xbedcd5aa	-0.43131763
159	0x3d5bf20e	0.05369764
160	0xbcb31a91	-0.021863254
161	0xbd0aba51	-0.03386909
162	0xbe92a2a4	-0.2863971
163	0xbe3dcae7	-0.18534432
164	0x3eccfd5e	0.40037054
165	0xbc66cbbf	-0.014086663
166	0xbe96bd46	-0.2944128
167	0x3da87a77	0.08226483
168	0x3e681b16	0.22666582
169	0xbca4a6b4	-0.020099021
170	0x3e9b4afc	0.30330646
171	0x3e44891d	0.1919293
172	0x3e33d888	0.17563069
173	0xbe7c5ab9	-0.24643983
174	0xbec5df4e	-0.3864693
175	0x3efdec67	0.49594423
176	0xbef36b45	-0.47542778
177	0xbda2389d	-0.079209544
178	0xbe839e77	-0.25706837
179	0xbd421b1c	-0.047389135
180	0xbe8be16a	-0.27320415
181	0x3d54e044	0.05197169
182	0xbc57d610	-0.013173595
183	0xbe762d83	-0.24040799
184	0xbd93a51a	-0.07209225
185	0x3d1293fb	0.035785656
186	0x3d8bdd42	0.06829311
187	0x3ea92c1c	0.33041465
188	0x3ed351cb	0.4127334
189	0x3e156534	0.14589387
190	0x3d5a3d72	0.053281255
191	0x3ea1a5df	0.31571862
192	0xbe8661a2	-0.26246363
193	0xbe89001d	-0.267579
194	0xbd0924f3	-0.033482503
195	0xbbcad5ab	-0.006190022
196	0xbd1d05cf	-0.038335618
197	0xbf02c47e	-0.51081073
198	0x3e0a02f3	0.13477688
199	0x3d28f9eb	0.041253965
200	0x3e3faa29	0.18717255
201	0x3ecc8177	0.39942524
202	0x3ee77ae3	0.45210943
203	0xbdc6411b	-0.09680387
204	0xbe0abc23	-0.13548331
205	0x3e864aee	0.26229042
206	0x3e7fc3ca	0.24977031
207	0xbd57dfe0	-0.05270374
208	0x3eaf2e1a	0.3421486
209	0xbb328e74	-0.0027245553
210	0xbea49619	-0.32145765
211	0x3e11be25	0.1423269
212	0xbe6ec912	-0.2331889
213	0xbe7fff7a	-0.249998
214	0x3ef6ab02	0.48177344
215	0x3edf7d7e	0.4365043
216	0xbda400c3	-0.08007958
217	0xbe4375c0	-0.19087887
218	0xbd10cf5b	-0.035354
219	0x3e8f2988	0.27961373
220	0xbe88f92a	-0.26752597
221	0xbdd5adf9	-0.10433573
222	0xbebba623	-0.3665019
223	0x3e52b8ca	0.20578304
224	0x3e824109	0.25440243
225	0xbe92fe86	-0.2870981
226	0x3dcb70ec	0.099336475
227	0xbe0d5669	-0.13802494
228	0x3e464e06	0.19365701
229	0xbda6440a	-0.08118446
230	0xbdf8edd3	-0.12154736
231	0xbe4ebeea	-0.20190015
232	0x3cb59869	0.022167401
233	0xbd90cd72	-0.070704356
234	0xbeacf917	-0.3378379
235	0xbe40272f	-0.18764947
236	0x3db78a13	0.089618824
237	0x3f04783b	0.5174596
238	0x3d7f678f	0.06235462
239	0x3f143f5c	0.5790918
240	0x3e30e166	0.17273483
241	0x3d599041	0.053116087
242	0xbf226901	-0.63441473
243	0xbedb417d	-0.428234
244	0x3ba3c1e6	0.0049974797
245	0xbe9c4f79	-0.30529383
246	0x3eb29d49	0.34885624
247	0xbdd9649f	-0.10614895
248	0xbd8d0e9e	-0.06887554
249	0xbb98f135	-0.004667426
250	0x3d399cea	0.04531566
251	0xbd1a0d4c	-0.037610337
252	0x3e177c03	0.147934
253	0x3dbd0f30	0.092314124
254	0x3dd3b473	0.10337152
255	0x3e2e4dfd	0.17021938

network_body._body_endoder.seq_layers.2.bias f4 [128]
0	0xbd4b3b77	-0.049617257
1	0xbcd98a28	-0.026555136
2	0xbdca123e	-0.09866761
3	0xbddda684	-0.10822776
4	0xbdf6cf54	-0.120512635
5	0x3d769dc6	0.06020906
6	0xbd07e2dd	-0.033175338
7	0xbdc6224e	-0.09674512
8	0xbc0b7bb5	-0.008513381
9	0x3c2e0e3f	0.010623514
10	0xbc01e8a7	-0.007929004
11	0x3c19129e	0.009342818
12	0xbbba60ab	-0.0056877933
13	0x3baa20e7	0.0051919105
14	0xbc6b9229	-0.014378109
15	0xbd400fa5	-0.04688992
16	0x3cc52322	0.024064604
17	0xbd47745c	-0.048694953
18	0x3c2df334	0.010617066
19	0xbcc29fea	-0.023757894
20	0xbd2c6f83	-0.042098533
21	0xbd188219	-0.037233446
22	0xbc0b9550	-0.008519486
23	0xbd429f44	-0.04751517
24	0xbd5cf5ea	-0.05394546
25	0xbd05e52f	-0.03268927
26	0xbd22f6f9	-0.039786313
27	0x3d3b60eb	0.045746725
28	0xbd912661	-0.07087398
29	0xbc957b56	-0.018247288
30	0xbd1c7d80	-0.038205624
31	0x3aaaf139	0.0013041861
32	0xbde2491f	-0.11049103
33	0x3be020ea	0.006839861
34	0xbbe28e7d	-0.0069139586
35	0xbd932dab	-0.07186445
36	0xbd7d3b21	-0.061823968
37	0xbccd381d	-0.025051171
38	0x3d112e70	0.035444677
39	0xbc5b4c25	-0.0133848535
40	0xbb1bd522	-0.002377816
41	0x3d550e76	0.052015744
42	0xbc6ca04e	-0.0144425165
43	0xbc0c9652	-0.008580761
44	0x391e9005	0.00015121706
45	0x39556551	0.00020351006
46	0xbd0782ce	-0.03308373
47	0xbba8cefc	-0.0051516276
48	0xbdb04e08	-0.08608633
49	0xbd9372fd	-0.07199667
50	0xbd27c880	-0.040962696
51	0xbd55825f	-0.052126285
52	0xbdb42a62	-0.087971464
53	0xbc3e706c	-0.011623483
54	0xbd9496b6	-0.07255308
55	0xbb641321	-0.003480144
56	0xbd8dc146	-0.069216296
57	0xbdb2ff81	-0.0874014
58	0xbd430d0b	-0.04761986
59	0xbc1a4123	-0.009414944
60	0x3cda3d50	0.026640564
61	0xbc819182	-0.015816454
62	0xbd615d4c	-0.055020615
63	0x3bc4abfb	0.006001947
64	0xbdd3c0c8	-0.103395045
65	0x3d0ce33f	0.034396406
66	0x3bb0ed53	0.005399385
67	0x3d2c77f8	0.0421066
68	0xbd50ab61	-0.05094469
69	0xbd6d8f46	-0.057997964
70	0x3cb49455	0.022043386
71	0xbca39277	-0.0199673
72	0x3b12e428	0.0022413824
73	0xbcf0c3c4	-0.029390223
74	0xbcfaf785	-0.030635605
75	0x3bde16f2	0.0067776376
76	0x3ccc052a	0.024904806
77	0xbd2ae1cc	-0.041719243
78	0xbd6c2ab8	-0.057657927
79	0xbd10a577	-0.03531405
80	0x3c31a50d	0.010842574
81	0x3bdf736e	0.00681918
82	0xbd227cab	-0.039669674
83	0xbc761467	-0.015019513
84	0xbd9f68f9	-0.07783694
85	0x3c6fc11e	0.014633445
86	0xbd0e95f4	-0.034810975
87	0xbd89dbb6	-0.0673136
88	0xbd8b5026	-0.068023965
89	0x3b331110	0.0027323402
90	0xbcee9506	-0.029123794
91	0xb9b4798e	-0.0003442284
92	0xbbb30574	-0.0054632965
93	0xbd27687f	-0.04087114
94	0x3c517f55	0.012786706
95	0xbd080003	-0.033203136
96	0xbda03357	-0.07822292
97	0x3c1c09ef	0.009523853
98	0xbda4e7bb	-0.080520116
99	0xbda8c015	-0.08239762
100	0x3c22addf	0.009929149
101	0xbc8fb4cc	-0.017542265
102	0x3d89b770	0.06724441
103	0xbd4e8974	-0.050424054
104	0x3b6ee9be	0.003645524
105	0xbdbad2db	-0.09122249
106	0xbbda4947	-0.0066615674
107	0xbc6f441a	-0.014603639
108	0xbc45dc66	-0.012076473
109	0xbd563616	-0.052297674
110	0xbcb9b8eb	-0.022671184
111	0x3cbb5acf	0.02287045
112	0xbd79d4fc	-0.060994133
113	0x3d402c9e	0.04691755
114	0xbd351584	-0.044209972
115	0xbdcb5b38	-0.09929508
116	0xbd3d63f7	-0.046237912
117	0xbc99d7a2	-0.01877958
118	0xbdbd6253	-0.092472695
119	0x3c4e2273	0.0125814555
120	0xbc84c6ae	-0.01620802
121	0xbaf4de4e	-0.0018681975
122	0xbcd6e0d8	-0.02623026
123	0xbd10f7c9	-0.035392556
124	0xbd064dd2	-0.03278906
125	0xbd33d650	-0.043905556
126	0x3b5418fe	0.003236353
127	0x3c309d8a	0.010779748

network_body._body_endoder.seq_layers.2.weight f4 [128, 128]
0	0xbe1e62aa	-0.15467325
1	0x3e0131a2	0.1261659
2	0xbd0285a9	-0.03186575
3	0x3c867a9a	0.016415883
4	0x3de5ae7e	0.11214922
5	0xbd9109d1	-0.070819505
6	0xbdb114a7	-0.08646517
7	0xbd863df8	-0.06554788
8	0x3d926880	0.07148838
9	0x3cac6efe	0.021049019
10	0xbca69f92	-0.02033976
11	0x3e1f8b57	0.15580498
12	0xbd389982	-0.04506827
13	0x3dcf558d	0.101237394
14	0x3dc1c068	0.09460527
15	0x3d05de99	0.03268299
16	0x3e118639	0.14211358
17	0x3d540627	0.05176368
18	0x3cd0163f	0.025401233
19	0xbe33d6ae	-0.17562363
20	0x3e1a7f6a	0.15087667
21	0xbe1b1100	-0.15143204
22	0xbba5f09c	-0.0050640833
23	0x3cec3721	0.028834881
24	0xbdc47428	-0.095924675
25	0xbdbb53b3	-0.09146824
26	0x3c71be3f	0.014754831
27	0xbd998712	-0.07496466
28	0x3d79ffa3	0.06103481
29	0xbd58724e	-0.052843384
30	0xbdded35d	-0.10880158
31	0x3db6519e	0.08902286
32	0xbe7c3329	-0.24628891
33	0x3d73f10d	0.059556056
34	0xbe4615bd	-0.1934423
35	0x3d960748	0.073256075
36	0xbe886e68	-0.26646733
37	0xba941f65	-0.001130086
38	0xbe0c7286	-0.13715562
39	0xbcbf7e2a	-0.02337559
40	0xbe611226	-0.2197958
41	0x3d263679	0.040579293
42	0xbe2f5fc4	-0.17126375
43	0x3e0079e2	0.12546495
44	0xbdd1d5e1	-0.10245872
45	0xbe25f212	-0.16205624
46	0xbb03fc32	-0.0020139334
47	0xbe081abe	-0.13291451
48	0xbd339d17	-0.043850984
49	0x3d016b35	0.03159638
50	0x3d1a4f2b	0.037673157
51	0xbdae0a60	-0.084980726
52	0x3d064eef	0.03279012
53	0x3a8ca5b5	0.0010730537
54	0x3db30389	0.08740909
55	0x3db251dd	0.087070204
56	0x3e2910a2	0.16510251
57	0xbdb79bcc	-0.08965263
58	0xbcfec83e	-0.031101342
59	0xbe475267	-0.19465028
60	0xbd6b6265	-0.057466883
61	0xbe7bedb6	-0.24602398
62	0x3dcec3b9	0.10095925
63	0x3e420859	0.18948497
64	0x3cbe190b	0.0232053
65	0x3d94d2aa	0.072667435
66	0xbd0cd989	-0.034387145
67	0xbd92c591	-0.07166589
68	0xbe411323	-0.18854956
69	0x3c22f67c	0.009946462
70	0xbe17b31e	-0.14814422
71	0xbd10b027	-0.035324242
72	0x3ba867e4	0.005139338
73	0x3d5a395c	0.05327736
74	0x3db130db	0.086518966
75	0xbe336863	-0.17520289
76	0xbd778189	-0.06042627
77	0xbb1e2d5e	-0.0024135928
78	0x3da78205	0.08179096
79	0xbdf7177b	-0.120650254
80	0xbd8c600b	-0.06854256
81	0x3d192495	0.037388403
82	0x3d9a07da	0.07521029
83	0xbe82031c	-0.25392997
84	0xbdec6bef	-0.11544024
85	0xbce54768	-0.02798815
86	0xbe03b23b	-0.12860958
87	0xbea3acce	-0.31967777
88	0xbdb9e5fc	-0.09077069
89	0xbd8bcfb2	-0.06826724
90	0x3c0660d7	0.008201799
91	0x3debac25	0.11507443
92	0xbbb3e605	-0.005490067
93	0xbc543bab	-0.012953679
94	0xbd4535c9	-0.048146997
95	0x3dcff1e5	0.101535596
96	0xbdcbd539	-0.09952778
97	0xbcf4b61b	-0.02987199
98	0x3da57361	0.080786474
99	0x3d94e1af	0.07269608
100	0xbc1dfb09	-0.009642371
101	0x3da7cc63	0.081932805
102	0xbd4840ff	-0.04889011
103	0x3da19b51	0.078909524
104	0x3dd581d8	0.10425156
105	0xbd34e6f5	-0.04416557
106	0xbd66641c	-0.056247815
107	0xbd86e03a	-0.065857366
108	0xbdd92caf	-0.10604226
109	0x3e1aa1da	0.15100804
110	0x3d11bc5c	0.035580024
111	0x3d90b018	0.07064837
112	0x3e5730d3	0.21014719
113	0x3d052278	0.032503575
114	0xbe649a74	-0.22324544
115	0x3cf920a5	0.030411074
116	0x3ddf237b	0.10895439
117	0xbe77734f	-0.2416508
118	0xbe053fec	-0.13012666
119	0x3d6d29f5	0.05790134
120	0xbca55fb2	-0.020187233
121	0xbda7d8ab	-0.08195623
122	0xbca0aaae	-0.019612636
123	0xbd954734	-0.072889715
124	0x3cf17ac1	0.029477479
125	0xbe1cb615	-0.15303834
126	0x3c032b43	0.00800592
127	0xbd9d228b	-0.07672604
128	0x3e649e27	0.22325955
129	0xbdb56a7c	-0.08858201
130	0x3e492c77	0.19645868
131	0x3d0aa831	0.033851806
132	0x3d89e61b	0.06733342
133	0x3d8eb8b3	0.06968822
134	0x3cd9e611	0.026598962
135	0xbe1bfe71	-0.1523378
136	0x3e21bf97	0.15795742
137	0x3ce06ee6	0.02739663
138	0xbdad8379	-0.08472342
139	0x3d445c14	0.047939375
140	0xbcc9609a	-0.024582196
141	0x3d6dbf28	0.05804363
142	0x3cc701b8	0.024292812
143	0x3b360d0d	0.0027778775
144	0x3e30f979	0.17282666
145	0xbd3833a9	-0.044971142
146	0xbe076ae2	-0.13224366
147	0xbd855aae	-0.065114364
148	0x3d2567ac	0.040382072
149	0x3d9038bd	0.07042072
150	0x3dc9a658	0.09846181
151	0xbe06e165	-0.13171919
152	0xbdb00c74	-0.08596125
153	0xbd8371aa	-0.06418164
154	0xbc2355c7	-0.009969181
155	0xbd8fbc25	-0.070183076
156	0xbe417e45	-0.18895824
157	0x3d8bb17f	0.06820964
158	0xbdce5f15	-0.10076729
159	0x3d036831	0.032081787
160	0x3dab8d0a	0.083765104
161	0x3cf658db	0.030071666
162	0xbe651d09	-0.22374357
163	0x3d263b6f	0.040584024
164	0xbd0532fa	-0.03251932
165	0xbdc08a97	-0.09401434
166	0x3d012ee2	0.03153885
167	0xbc383003	-0.011241916
168	0xbd8f0a9b	-0.06984445
169	0xbdd8f1db	-0.10593005
170	0x3ca444bb	0.020052304
171	0x3dae3a21	0.08507181
172	0xbdc983f1	-0.09839619
173	0x3e5034d4	0.20332652
174	0x3e14000f	0.14453147
175	0x3b71822b	0.0036851268
176	0xbc1c6b5f	-0.009547084
177	0x3d228c0f	0.03968435
178	0xbdd39e65	-0.10332946
179	0x3e73ea9f	0.2381997
180	0x3df8fa2c	0.121570915
181	0x3dc195e7	0.0945242
182	0x3e026f3c	0.12737745
183	0xbda70fd2	-0.08157314
184	0x3dd56e75	0.10421459
185	0x3c3bc58a	0.011460671
186	0xbd85b8c7	-0.06529384
187	0x3c13e342	0.00902635
188	0xbe1c2d46	-0.15251645
189	0xbe071251	-0.13190581
190	0x3de072c2	0.10959388
191	0x3dcc20c2	0.099671856
192	0x3c8ecce2	0.01743168
193	0xbd9b9707	-0.075971656
194	0x3e2d68b9	0.1693448
195	0x3dc3e493	0.095650814
196	0xbb649123	-0.0034876547
197	0xbda654d1	-0.08121646
198	0x3ca3fa19	0.020016717
199	0xbdbdf776	-0.09275715
200	0xbe146169	-0.14490284
201	0xbc8b8456	-0.017030876
202	0xbd877596	-0.066142246
203	0xbe71e7f0	-0.23623633
204	0x3b90003e	0.00439456
205	0xbd0b08b7	-0.033943858
206	0xbdd1d850	-0.102463365
207	0x3d837aa2	0.06419875
208	0x3d52c3bf	0.05145621
209	0x3cbfaca3	0.02339775
210	0xbc61130e	-0.013737453
211	0xbdc8a864	-0.09797743
212	0x3d4282c3	0.047487985
213	0x3d6221e4	0.055208102
214	0xbd3ece83	-0.046583664
215	0x3d409991	0.047021452
216	0x3e0cdd6a	0.13756338
217	0xbe1447b3	-0.14480476
218	0xbd642c9e	-0.055706613
219	0x3d94a0ff	0.0725727
220	0xbe008f3b	-0.12554638
221	0xbd9d83a6	-0.076911256
222	0x3e53445f	0.2063155
223	0xbd0e835a	-0.034793235
224	0xbd6b6d61	-0.05747736
225	0xbddb99aa	-0.107226685
226	0x3cc5d4fd	0.024149412
227	0xbe47cea8	-0.19512427
228	0xbdd9674e	-0.10615407
229	0x3dd01b4e	0.10161458
230	0xbe859e3e	-0.26097292
231	0x3d9a3607	0.07529836
232	0xbdd3016b	-0.10303005
233	0xbe5d890f	-0.21634315
234	0x3d3708db	0.04468618
235	0xbe26b4d6	-0.16279921
236	0x3d95434e	0.07288228
237	0x3d23c977	0.039987054
238	0xbda8ae8b	-0.082364164
239	0x3e25d8bb	0.16195957
240	0x3e4a6966	0.19766769
241	0xbcb53f57	-0.02212493
242	0x3dc463db	0.095893584
243	0xbd1bd0db	-0.038040977
244	0x3e0c22a9	0.13685097
245	0xbca2eda1	-0.0198887
246	0xbd8d3cfa	-0.06896396
247	0xbdeb49c0	-0.11488676
248	0xbdfa8def	-0.12234103
249	0x3e182d47	0.14861022
250	0x3e1eca82	0.15506938
251	0x3e04cce0	0.12968779
252	0xbdec1a9e	-0.11528514
253	0x3c9bf172	0.019036029
254	0xbd26fa20	-0.04076588
255	0x3dec5908	0.11540419
