RollerAgent/Assets/Learn/RollerAgent_16.onnx (onnx, 81045 bytes, 9 tensors)

action_model._continuous_distribution.log_sigma f4 [1, 3]
00000000: 7934 34be 42c7 2dbe 4536 39be
-0.17598142 -0.16970542 -0.18087108

action_model._continuous_distribution.mu.bias f4 [3]
00000000: fc8e ba3d 0d4d afbb ed76 79bc
0.09109303 -0.0053497613 -0.015226108

action_model._continuous_distribution.mu.weight f4 [3, 128]
00000000: 3cec 993d b6f6 0c3c 9d39 973d 07fe a73d
00000010: b4cd 7bbc 4661 f43b ccab 583d 78bd f33c
00000020: cae4 a7bc 3ca4 df3c 27b7 06bd 5b92 243c
00000030: 5324 fd3b cbe3 17bc e9cd 3d3d c391 923c
00000040: 940f 2bbc 372f ad3c b9b2 563d b227 40bc
00000050: 99e2 efbb d2f2 ce3c 327c d23c 2c55 903c
00000060: 2cde a33c 3b8a 933c 7745 b4bd fbc3 cabc
00000070: 7a26 8d3b 405f 773c 6e48 453d 68bb 133b
00000080: d115 65bd 05b8 1ebb 3c78 413d 7dd1 293d
00000090: ec6e 90bc a93b 54bc bc8e 4d3d 3b72 b43c
000000a0: cf48 323d c277 cf3c a941 d53d 23f1 41ba
000000b0: 07f1 bd3c c372 803d 9155 3bbc 4941 463d
000000c0: a65c 803d a445 433d ba55 8ebc cac3 f43c
000000d0: 684f 973c 4133 683d 3355 be3c 2c7a 783d
000000e0: 2586 ffbb 6575 88bd 730a 483c 52de f4bb
000000f0: 9396 5bbd 3ff3 67bc 70e6 0abd 3e64 5cbc
00000100: a54e 66bd 4c8e 2ebc 22ab 5c3d 8dd9 183a
00000110: ae77 f6ba 0b9e 653c 9717 eebc 5338 173d
00000120: 8132 973c 77e1 7bbc 5743 343d 8ebf f53c
00000130: 8c16 24bd 9a64 843c ff98 91bd a350 9a3c
00000140: b86b 083d 2771 ef3c 62b6 df3c e40a a23a
00000150: 07cc a23d dfc5 2cbc 56dd d3bb 5b65 ea3b
00000160: 934b 793d 9b64 de3c 7e6d 2cbc ddaa 91bb
00000170: 5f96 cdbb 3fd4 173d 3bc1 8fbd 8e68 c33c
00000180: 9075 b5bb 2ff6 e83c 4a11 a6bb 18f7 953b
00000190: 3e89 a4bc 5f0e 053d b455 733a ff61 833d
000001a0: ff48 80bc 2a0c 8c3d 29e3 813c d7d4 6abd
000001b0: 1f73 263d 2661 0a3d 6af5 593d bce1 2e3d
000001c0: 26ab 97bd 543f 06bd 6ddc 3f3c ba69 40bd
000001d0: 295d 393c 3604 483d fb4c 033d 3388 55bd
000001e0: 1f75 ba3c 47db b9bc 3adb 623d 9c20 de3c
000001f0: 00ec 43ba 9668 163d beaf 5b3d b75e d43c
00000200: a31f da3c fa9a 043d f3be b23c 9eaf 4f3c
00000210: 41d5 8cbc 7e3a cabc bb89 b9bc 10b7 323d
00000220: 0f10 473d a573 593d d6f4 ef3c 17fb 98bb
00000230: 5088 413c ca74 853c 8080 f0bc 2497 22bd
00000240: c554 21bb 6c1b f9bc 3038 023d 75f0 ce3c
00000250: 1735 0dbd 234e 66bd 6cff 77bd 1ded 603b
00000260: 9f70 91bc cbf8 343c 9b46 99bd 4a1b e2bc
00000270: 348a dbbb ffee 00bc c7bb 7f3c 5495 253c
00000280: 0596 803d b6b1 1bbc 84cf 273c dc29 8bbd
00000290: 99b0 87bd 2b26 46bd 7a7a 1bbd 5bf9 183c
000002a0: 6ea9 2cbd b126 5dbc 4c15 363d 7ef0 313d
000002b0: 19fa 173d f61e 0dbd 0a35 b7bd 1351 b0bb
000002c0: 78fe 653d 52d0 ad3c ec38 0fbd bc7c 56bd
000002d0: eb56 d43b 7bba 203d 1d9e 4dbd 70ab e7bc
000002e0: 0236 583c 7264 78bd a91f 853d 5b08 173d
000002f0: 43e9 54bc 5043 153c 0c3c 713c 91df 60bd
00000300: 1011 0ebd 1cb2 863c 43ea ecbc 059f 69bd
00000310: 782d 8cbc 99d1 553d 51af 053d 0213 3d3d
00000320: a3a5 6dbd 31c2 573d 05f2 203c a457 963c
00000330: 1443 bebd 3faa f33c b45b afbb 067e f3bc
00000340: 7a10 a9bb f1e8 85bc ec42 79bc 30e2 243d
00000350: e1d1 d23c 92b6 1d3b ad47 e3bc 5c48 123d
00000360: a0ee a4bc 7a64 0e3d d957 833c e74d 1f3d
00000370: bf0a 553d 5992 d6bc 3a83 4abc 6acf 1a3c
00000380: 021d 7abc 9f0b 4c3d 2dd6 f6bc 6c54 a1bb
00000390: 27cc 0fbd 8a47 7f3c 6593 12bd 57c5 5b3c
000003a0: 8d52 80bc 701f 3bbc 2482 46bd 1b1d 27bd
000003b0: 32f8 f83c 3d30 52bd ab03 393c 9014 0b3d
000003c0: 5c63 2a3d 4da7 db3c e104 013d 9419 4cbc
000003d0: 3eb4 0fbd 82d8 babc 4d6e 663d 17ff d73c
000003e0: 60d1 8d3d 8465 853c e5ec 733d eeb0 38bd
000003f0: fe36 1fbc 3fef 81bd 0e19 283c a5a6 213d
0.07515761 0.008603742 0.07384036 0.08202749 -0.015368868 0.007457885 0.052898213 0.029753432
-0.020494837 0.027299993 -0.03288951 0.0100446595 0.0077252774 -0.009270619 0.04633895 0.01789177
-0.010440726 0.021140678 0.052416537 -0.011728214 -0.0073207137 0.02526227 0.025693987 0.017618738
0.0200034 0.01801025 -0.08802312 -0.024751654 0.0043075653 0.015098393 0.048164777 0.0022542123
-0.05592901 -0.002421857 0.047233805 0.04145955 -0.017631017 -0.012953677 0.05018495 0.022027126
0.043526467 0.02532566 0.10412914 -0.0007398298 0.02318622 0.06271889 -0.011433975 0.048402105
0.06267671 0.047673836 -0.017374862 0.029878516 0.018470481 0.056689505 0.023233986 0.060663387
-0.0077979737 -0.06663016 0.012209523 -0.0074727917 -0.053610396 -0.0141571155 -0.03391117 -0.013451634
-0.056227345 -0.010654043 0.053874142 0.00058307574 -0.0018803978 0.014014731 -0.029063983 0.03691895
0.0184567 -0.015373579 0.044009533 0.029998567 -0.040060565 0.016161252 -0.0710926 0.018837279
0.033305854 0.02922876 0.027308647 0.0012362865 0.079490714 -0.010545223 -0.0064655943 0.007153196
0.06086309 0.027147582 -0.010524152 -0.0044454173 -0.006274029 0.037067648 -0.07019278 0.023853566
-0.005537696 0.028437702 -0.005067979 0.004576575 -0.020084973 0.03248441 0.0009282485 0.06415176
-0.015659807 0.068382576 0.015855389 -0.057331886 0.04063713 0.033784054 0.05321256 0.042695746
-0.07405691 -0.03277524 0.011710268 -0.04697583 0.011313715 0.04883214 0.032055836 -0.052131843
0.022760926 -0.022687567 0.055384852 0.027115159 -0.00074738264 0.036720835 0.053634398 0.02592407
0.026626414 0.03237436 0.021819567 0.012676148 -0.017191531 -0.024686094 -0.022648683 0.043631613
0.0485993 0.053088803 0.029291552 -0.004668604 0.011812285 0.01629104 -0.029358149 -0.03969492
-0.0024617177 -0.030408584 0.031791866 0.025261143 -0.03447446 -0.05622686 -0.060546324 0.0034321018
-0.017753897 0.011045645 -0.0748417 -0.027600903 -0.0066998247 -0.007869481 0.015608734 0.010106403
0.06278614 -0.009502819 0.010242347 -0.067950934 -0.0662548 -0.048376244 -0.0379586 0.009336795
-0.04215377 -0.013497994 0.044453904 0.04344224 0.037103746 -0.034453355 -0.08945663 -0.0053807586
0.056150883 0.021217499 -0.034966394 -0.05236505 0.006480088 0.03924034 -0.050199617 -0.02827999
0.01319647 -0.060642667 0.06500179 0.036873203 -0.012995067 0.009110287 0.014723789 -0.05490071
-0.03468424 0.016442351 -0.028920298 -0.05703642 -0.017111525 0.05220184 0.032637898 0.046160705
-0.05801929 0.05267543 0.009823327 0.018352337 -0.09290138 0.029744266 -0.005351508 -0.029723179
-0.005159435 -0.016346427 -0.015213709 0.04025477 0.025734844 0.002406512 -0.027744139 0.03571354
-0.020133317 0.03476379 0.0160331 0.038892653 0.0520122 -0.02619283 -0.012360388 0.009448865
-0.015265705 0.04981577 -0.030131424 -0.004923394 -0.035106804 0.015581021 -0.035785098 0.013413749
-0.015664363 -0.0114210695 -0.048463956 -0.04079924 0.030391786 -0.051315535 0.011292378 0.033955157
0.041598663 0.026813174 0.031498794 -0.01245727 -0.035084 -0.022808317 0.056257535 0.026366754
0.06924701 0.016283758 0.059552092 -0.04509061 -0.009717701 -0.06344461 0.01025988 0.039465565

action_model._discrete_distribution.branches.0.bias f4 [2]
00000000: 7ba0 043d 75a0 04bd
0.03237961 -0.032379586

action_model._discrete_distribution.branches.0.weight f4 [2, 128]
00000000: 01e4 21bc f10d 923d 28ce 3c3c 0f40 babc
00000010: 0a94 6dbc 2e7a 23bc 3154 0dbe afe4 133d
00000020: 71c0 7f3c 3464 dc3c 3dc0 6c3d 26d0 89bc
00000030: 9883 d5bd 1abd 40bd 986b a5bb 57c9 47bd
00000040: 4e1e 14bc dec3 83bc a8f8 b23b fb21 3f3c
00000050: f71b 083d 8030 21bc 8d13 69bd 7270 453d
00000060: 2f7f 8abd 320f 243d 3527 fdbb 4107 563b
00000070: 5ddd 33bc 1514 0d3d 61a0 f93c 36b0 f5bc
00000080: ff40 c3bc 2d37 b4bd 8a1f f53c 7e3c 43bd
00000090: 6feb 7f3d a51e 903d 8f5c 213d e590 ce3b
000000a0: 0bd8 8cbd d41c 023d f2f0 30bc eafd b6bb
000000b0: 5f15 36bc 09f8 5dbd bb3e 6b3d 1e05 8bbd
000000c0: 0508 073b 8020 12bd a142 f2bb ab7b 84bd
000000d0: 7a70 8dbc 2d66 95bd 370a 9bbd 2fd5 2d3d
000000e0: 0b70 c43c 9f62 76bd 0cc7 943d 31d8 83bd
000000f0: f1c8 8f3d 198d 26bc 8ad2 203d 4b4f 283b
00000100: 2254 68bd e5af 0a3d 222d d0bc decb cbbd
00000110: f05d dcbd ca73 b93c 2433 4dbd 4985 80bd
00000120: 6834 2cbc 8bfd 3abd 3604 ea3c 5c45 1f3c
00000130: fedd 103d a121 923d beaf 89bd 43f5 84bd
00000140: af5c a23d 8997 37bd 6177 ad3c 262f 9cbc
00000150: 4767 3ebd 4769 433d e5af e13c bc1c d63c
00000160: f83b 93bd 60c8 793c 855a 87bd 3b90 163e
00000170: fdef 6a3c 9cae 30bd df0e bebc c020 86bd
00000180: 41cd 423d 2d57 973d 760e a5bb 1a1c 0abc
00000190: 8030 08be aad7 93bd e59e f1bd a6c4 983d
000001a0: 035b 9cbd 5874 cd3c 6382 db3c d49d 23bc
000001b0: f9f9 c43c 4b46 1c3d ecee 4ebd d3a1 f13c
000001c0: 2806 9d3c c0b4 cb3d b19c 3f3b 394f 96bd
000001d0: 05ae 3cbd 3ed6 eabc 4ef0 c43c 5378 913c
000001e0: 45a3 65bd f3a7 06bd 7b6f 69bc 9c3d f5bc
000001f0: f835 1c3d d0f3 363c 54ba bc3c ebf3 12bd
00000200: 0947 063d d3d8 82bd 67c0 82bb efb4 c23c
00000210: 2342 633c 0920 0fbb b904 233e a92a 49bd
00000220: 8b37 19bd c317 c5bc a65d 10bd 894d 6e3c
00000230: 22c4 da3d 9e42 483d 8072 fcba 9716 103d
00000240: b0cf b43c 73b0 213d 092f aebc 3582 1bbd
00000250: 7b6b febc 0466 af3c 5c3b 793d 502b 21bd
00000260: 8820 a33d ea05 62bd 757c 573a 81f9 53bb
00000270: d92e 4a3c afdd 38bd 729e 24bd d0ef d33c
00000280: db65 003d 56e9 bb3d f681 37bc 9cdb 6d3d
00000290: a75d 48bd f143 5ebd 98f7 21bd 871e 7b3c
000002a0: b9c7 883d 4610 1abc ed67 c23c 0447 4a3c
000002b0: ab41 3c3b 07ea 323d ef03 67bd b3b0 9b3d
000002c0: 1563 81bc 61dc 3a3d 2b6a 933c 05db 9c3d
000002d0: c992 ed3c f8f0 ad3d b345 8b3d 64a6 15bd
000002e0: 472e a6bc af0c 5b3d d519 25bd f7dc 4c3d
000002f0: 9185 aebd 72fc 893c 3b91 3dbd 6319 1e3c
00000300: ec78 083d 98d5 36bc 41ab 813d e684 e63d
00000310: f736 f83d 3301 71bc 0125 563d e56e 6b3d
00000320: 6244 623c bc13 253d 4530 3fbd 2b27 3c3b
00000330: 5b10 7bbc 227c 92bd a97e 683d c9e0 843d
00000340: de82 c0bd 24c7 213d 1e7e 25bd 4036 a13c
00000350: e803 353d b738 c4bc 706b 5abc 426e 72bc
00000360: 0d49 a03d ec68 c6bb 9c0a 763d bb08 14be
00000370: 664c 9ebc e262 4e3d 80b6 9f3c f5a7 ad3d
00000380: e341 5abd 7930 8abd aa16 01bc 17c1 a7bb
00000390: 8575 103e 324f 993d 22a6 e83d 436d a1bd
000003a0: fc51 a43d 5dab 97bc ea01 3fbc 9268 cb3c
000003b0: eb49 febc e1de 40bd e81d d03c 5e32 01bd
000003c0: d742 e03b 6da4 d4bd b437 7bbc 58e8 8d3d
000003d0: 0671 4f3d 30ce c63c b191 2cbd d282 fabb
000003e0: cd02 3c3d 43f3 a03c 9867 a93c da90 d13c
000003f0: 7820 40bd 11ee 97bc 208d 1ebc ee29 043d
-0.0098810205 0.07131565 0.011523761 -0.022735624 -0.014500627 -0.00997786 -0.13801648 0.03610676
0.015609846 0.02690325 0.05780052 -0.016822886 -0.1042549 -0.04705534 -0.0050482266 -0.048775997
-0.009040428 -0.016084608 0.005461771 0.011665816 0.033229794 -0.009838223 -0.05690341 0.04820294
-0.067625396 0.040053554 -0.007725621 0.0032658132 -0.01097807 0.03444298 0.030471982 -0.02999125
-0.023834703 -0.087995864 0.029922266 -0.04766511 0.062480386 0.07037095 0.03939491 0.006303894
-0.068771444 0.031765774 -0.010799633 -0.005584468 -0.011113494 -0.054191623 0.05743287 -0.067880854
0.0020604145 -0.035675526 -0.0073931967 -0.064689 -0.017265547 -0.07294879 -0.07570308 0.042439636
0.023979208 -0.060152646 0.07264528 -0.064377196 0.070207484 -0.010165476 0.039263286 0.0025682028
-0.05672086 0.033859152 -0.025412146 -0.09950994 -0.10760105 0.02263822 -0.0500976 -0.06275422
-0.0105105415 -0.045651954 0.028566461 0.009721126 0.03536796 0.071353205 -0.06722973 -0.064920925
0.07927834 -0.04482225 0.021175088 -0.01906545 -0.04648521 0.047707822 0.027549693 0.026136748
-0.071891725 0.015245527 -0.06609062 0.14703457 0.014339444 -0.04313527 -0.02320045 -0.06549215
0.047559027 0.07389674 -0.0050371243 -0.0084295515 -0.13299751 -0.07218869 -0.11797885 0.07459383
-0.076345466 0.025079891 0.026795572 -0.00998636 0.024044978 0.038152974 -0.050520822 0.02949611
0.019167975 0.09946585 0.0029237682 -0.07339329 -0.046064395 -0.028666612 0.024040367 0.01775757
-0.05606391 -0.032875013 -0.01424777 -0.029936604 0.038137406 0.011166528 0.023038067 -0.03587715
0.03278259 -0.06389012 -0.0039902213 0.023767916 0.013870749 -0.0021839163 0.1591977 -0.04911295
-0.037406486 -0.024059182 -0.03524556 0.014544853 0.106819406 0.048891656 -0.0019260198 0.035177793
0.02207169 0.039474916 -0.021262662 -0.037965972 -0.03105711 0.02141095 0.060847625 -0.039347947
0.07965189 -0.05518142 0.00082201447 -0.003234476 0.012340271 -0.04513329 -0.040190168 0.025871187
0.031347137 0.09175365 -0.011200419 0.058070764 -0.04891744 -0.054264013 -0.039542764 0.0153271025
0.06678719 -0.009403294 0.023731196 0.012346033 0.0028725665 0.043680217 -0.056400236 0.07602062
-0.015794316 0.045620326 0.01799496 0.07658962 0.029000657 0.08493227 0.068004034 -0.036535636
-0.020285739 0.053478893 -0.04030784 0.050015416 -0.085215695 0.016844008 -0.04628108 0.009649607
0.033318445 -0.011159323 0.06331492 0.11255817 0.12119859 -0.014709759 0.052281383 0.057478804
0.013810249 0.040302023 -0.046676893 0.002870987 -0.015323724 -0.07152583 0.056761418 0.06488187
-0.09399961 0.039496556 -0.040403478 0.019679189 0.04419318 -0.023952825 -0.013331279 -0.014796795
0.07826433 -0.006054988 0.06006871 -0.14456455 -0.019323539 0.05038727 0.019496202 0.08479301
-0.05328549 -0.06747527 -0.007878939 -0.0051194536 0.1410733 0.074858084 0.11359812 -0.07882168
0.0802345 -0.01851433 -0.011658171 0.024830136 -0.031041106 -0.047087554 0.025404885 -0.031542175
0.0068439054 -0.10382924 -0.015333105 0.06929082 0.050644897 0.02426824 -0.04213113 -0.0076449895
0.04590111 0.019647246 0.02067928 0.025581766 -0.046905965 -0.018546136 -0.0096772015 0.03226655

network_body._body_endoder.seq_layers.0.bias f4 [128]
00000000: 22cb 83bc bab1 a0bd f12f 4a3c c7b6 8fbd
00000010: d751 1dbd 4841 9c3c 5e6e 17bd 229a 7cbd
00000020: 449d 03bc cb77 33bc 4c06 44bd b747 76bd
00000030: 2429 9bbc 9f79 3bbb d0e4 45bd 06f7 fcbd
00000040: 77a4 e1bb 6852 7f3c 1b0f 2cbd 4d1f 87bc
00000050: b94a b5bc 40e0 0b3d 606c a83b 0830 26bd
00000060: 39fc 133b a973 23bd db8e 47bd aa5a 6e3c
00000070: a8d3 e13c d36a aebc ea69 c6ba 2b0e 09bd
00000080: dd75 e2bc f11e bf3c ee95 debd ce2c 83bc
00000090: fc0f 8ebd 01e0 29bd 1d72 47bd 2708 0a3d
000000a0: 10a3 79bd 41a6 c0bd 9345 77bd 3c47 323c
000000b0: 49c2 7dbc 3151 71bc 91cb 58bd d2db ef3c
000000c0: f464 9b3b 5f1d 703b 2c4c 4ebc b52a 103c
000000d0: 9c8a 81bc 1ca0 903c 0445 14bc cd0a 23bd
000000e0: 6f73 01bd 6cab 37bc b208 10bd 6fc2 8abd
000000f0: 693d 51bd 6c5c 3bbc aaca 83bd 90e6 56bb
00000100: c2a9 823c e4fb c2bd 8ea0 8c3d 77bc d0bc
00000110: bd7c a5bc fe3d 64bc ad8a 84bc 4b63 17bd
00000120: 8312 fcbd bd61 b3bb fe79 58bd ef86 393d
00000130: 45b9 5bbd e75d edbc b5d7 91b9 7809 fdbc
00000140: 6568 6fbd a9d4 babd 6076 32bd 9bd8 5cbd
00000150: e1c1 0a3d 1eeb c63c 1cbb bdbd ec76 ecbd
00000160: 91ec a3bc 95c8 50bd e61f 18bd 0f21 cabd
00000170: 1d56 1cbb 14dc af3c 5062 a1bc ec80 9fbd
00000180: 7188 81bd a67a 84bd 87e6 adbc 3c55 c1bc
00000190: 25e8 fcbc 4358 e4bd af1d 5a3c 71f7 88bb
000001a0: e986 19bd 1eaf 64bd 2ea5 b8bd a2db 24bd
000001b0: 0fb4 f4bc 1d62 0cbc ec37 38bc 6f3d a0bd
000001c0: 11b5 b5bc 5b67 55bc 9b5f 09bd 99cb a4bb
000001d0: 881e 54bc 2ed1 34bd 8b9e 11bc 0fd0 293c
000001e0: a88a 45bd ebbc aabb 27f6 213c b3b3 5b3d
000001f0: 3d45 edbc 00dc 05bc 452e 2cbd 71d4 0fbd
-0.016088072 -0.07846399 0.012340532 -0.07017284 -0.038408127 0.019074097 -0.03697049 -0.06167043
-0.0080331005 -0.010953854 -0.047857568 -0.060126986 -0.018940516 -0.0028606427 -0.048313916 -0.123518035
-0.006886061 0.015583612 -0.042006593 -0.016494418 -0.022130357 0.03414941 0.0051398724 -0.04057315
0.0022580756 -0.039905224 -0.048720222 0.014547983 0.027566746 -0.021291172 -0.0015137766 -0.033460777
-0.027644092 0.023330184 -0.108684406 -0.016012575 -0.069366425 -0.041473392 -0.04869281 0.03369918
-0.060946524 -0.094067104 -0.060369086 0.010881241 -0.015488216 -0.01472883 -0.05292851 0.029279623
0.004742259 0.00366386 -0.012591403 0.008799245 -0.015813164 0.017654471 -0.009049658 -0.039805222
-0.031604227 -0.011210304 -0.035164542 -0.067753665 -0.051083956 -0.011435609 -0.064351395 -0.0032791235
0.015950087 -0.095207006 0.06866561 -0.025480492 -0.020201081 -0.013930796 -0.016179407 -0.036959928
-0.12308218 -0.005474298 -0.052850716 0.0452947 -0.053643484 -0.02897544 -0.0002781727 -0.030888304
-0.058449168 -0.09122593 -0.043569922 -0.05391751 0.033876304 0.024282034 -0.09264204 -0.1154612
-0.020010265 -0.05097254 -0.037139796 -0.09869587 -0.0023855038 0.021467246 -0.0197002 -0.07788262
-0.06324852 -0.06468706 -0.021228088 -0.023600213 -0.030872414 -0.11149647 0.013312741 -0.004179888
-0.037482176 -0.055831067 -0.090158805 -0.04024852 -0.029871015 -0.008568314 -0.011243802 -0.078242175
-0.022181066 -0.01302513 -0.033538442 -0.0050291535 -0.012946732 -0.0441448 -0.008887897 0.010364546
-0.048227936 -0.005210509 0.009885347 0.05363817 -0.02896368 -0.008170128 -0.042036314 -0.03511471

network_body._body_endoder.seq_layers.0.weight f4 [128, 17]
00000000: b577 bdbd 408a c9be c8a0 413e 08f8 d4be
00000010: 42fe 703d f810 913d 1ba1 e0be 5a44 4fbd
00000020: fa76 8fbe 501b 40be 0dd5 1abe af0f 9ebe
00000030: 7275 bbbd 41b6 33be f5c2 c2bd 4203 04be
00000040: 3e99 34be 758c a1bd 3950 a1bd 8d0c 453e
00000050: af05 02bd 5d49 07bd 47bd 793d 57f5 9f3d
00000060: 23e3 d5bd 9ca0 153f cf18 4fbe 1d94 f4bd
00000070: 233b b4bd 7f5c d6bd fa15 453e aa64 6c3c
00000080: 30f9 8fbe 68c1 4d3e a9de e03d 50e6 683e
00000090: ae99 283d 3cfb 1b3f f376 82be efcf b53d
000000a0: ffc0 3c3e 4550 09be 321a 26be 6b36 13bd
000000b0: b586 a23c f087 abbd 87b3 cc3d f3b4 053f
000000c0: 46ff d4bd 7117 3c3d 37fa 6fbe 79d6 5f3e
000000d0: dd4d 7a3c 87d5 85be f272 53be 262a 3dbd
000000e0: 2640 bbbd 3af5 063e a651 383d f7b2 893d
000000f0: 21fe 9c3e 4d26 9abe 8b4f 72bd a12a 63be
00000100: 9eae e2be 3437 963e 906c bfbe ef84 90be
00000110: e86f 993e ee24 953c 343a 9b3e 088b bdbe
00000120: 9a9f f1ba d04c 94bd 3ae3 e1be 7228 0b3f
00000130: 535c fa3c fb87 093e d289 4bbe a231 94be
00000140: bc9d dc3e a8fa ddbd c9ef 9fbb 10ae cebd
00000150: 8044 52bd 9b23 0c3c 6883 b23e aa20 64be
00000160: dc10 263d 38a9 663e 9347 513c 6c26 e03d
00000170: e6ad 673e 0f1a 8a3e 0d7c 153e 8fed 903d
00000180: 438c a83d 19d8 eebd 5347 1e3d e3b2 c0bd
00000190: 185d 903e ebea 62bd 4d4d a1be bd9d 493e
000001a0: 499c fabd ddd2 bbbd 00d0 91be 5a5c 813e
000001b0: c5c0 123e bbb5 793e fc62 95be ba25 00bf
000001c0: 022e 89bd 38f7 1b3e 30e1 613d 765c bdbc
000001d0: c369 26be d9c8 46be bbd1 533e 63f9 163e
000001e0: 18ba 973d bc45 c53e e5bb 70be 5b28 003d
000001f0: 8f62 e43e 3455 593e 6341 ca3d adc2 1f3e
00000200: cda3 3c3e 21ec cdbc 2f66 d53c f903 f6bc
00000210: 109a 16be b482 023e ec5c c4be 89e2 ba3c
00000220: 5282 683e ddeb e7be f3cc 2bbe 66ef 33bd
00000230: 816b 823e 45d6 d53e 383c 243f 4f93 21bd
00000240: 99dc ea3d 2172 0f3d 9713 9fbe c599 5f3d
00000250: 17e8 10be 3e4e b23e 12ac 503d 46d2 dabe
00000260: 667c 86be 1545 8dbe 9192 d53b 4558 803e
00000270: 0f21 85bd 31cc 143d 0a14 5b3e 7645 48be
00000280: 7295 403f 15b3 023e 0481 f03c 4162 41be
00000290: dde2 ec3e 43e1 273e 0337 e43d 1aef 8fbe
000002a0: 1ab8 07bf feb6 153e de28 ac3e 7bcb e0bd
000002b0: 1066 98bd fd93 1d3e 673a d13e 5d0f cbbe
000002c0: b1dd c03d b663 f53d 5f61 46be 1e5f dfbd
000002d0: 2bf5 a4be 5fa7 abbe 7fa2 85be c0b6 fcbd
000002e0: a993 cc3d d9f8 053d 557f afba 00f0 4e3e
000002f0: 6624 88be 4fa2 d93e cbd2 44bd 647a e7bd
00000300: eef0 d93b 782e 873e e96d 053d 67e6 36be
00000310: 6978 323e a21f 9a3e eda0 e4bd d930 2a3d
00000320: 8139 23be 12d0 3b3d 149f b53e 14d2 1c3d
00000330: 10e7 6f3e 727f 84bc 9080 903e 9f2f d23c
00000340: 13d2 a5be 6eb9 413e ca34 853e defa 8d3e
00000350: 43c9 a4be e1b3 c8bc 82c0 ee3d 0832 3b3d
00000360: b86d b83d ba42 083d 75b3 e73d a2c4 643d
00000370: 3043 303e e610 633e ae7f 863e 4bbf 6fbe
00000380: e08c c7bd d462 2bbf d1b3 a33d f3bb 8f3d
00000390: dcc5 123e 208d 663d aadc 26be 5819 bfbd
000003a0: 3d47 bcbe ccb8 07be a576 6e3e 8d97 863e
000003b0: bf27 a8be ffad 33bc 284e d3bd a4ae cc3d
000003c0: 9e2b 42be 397e 3cbe 05f9 d03d 0b0f fabd
000003d0: 87fd 433e 1d9d e63d 492c 473d 5886 05bf
000003e0: 554d be3e e27f f1bd 21d7 df3d fdf2 d43b
000003f0: bbce e8be 5941 c43e 4249 b0be 5c16 dcbd
-0.09251348 -0.3936329 0.1890899 -0.41595483 0.05883623 0.07083315 -0.43872914 -0.050602295
-0.2802046 -0.18760419 -0.15120335 -0.3087134 -0.0915326 -0.17549993 -0.09509841 -0.12891868
-0.17636582 -0.07888118 -0.078766294 0.19243069 -0.0317437 -0.03302895 0.060971525 0.07810467
-0.104437135 0.58448195 -0.20224307 -0.11942313 -0.08800342 -0.10466861 0.19246665 0.014428297
-0.28119802 0.2009331 0.10979969 0.22744107 0.041162185 0.6093023 -0.25481376 0.08877551
0.18432997 -0.13409527 -0.1622093 -0.03594057 0.019839624 -0.083755374 0.099951796 0.5222923
-0.10400252 0.045920793 -0.23435293 0.21859159 0.015277353 -0.2613947 -0.20649317 -0.046182774
-0.09143095 0.13179484 0.04499974 0.06723588 0.30662635 -0.30107346 -0.05915789 -0.2218423
-0.44273847 0.29338992 -0.37387514 -0.2822642 0.2996819 0.018206086 0.30317843 -0.37020135
-0.0018434406 -0.07241213 -0.44118673 0.5435859 0.030561602 0.13430779 -0.19876793 -0.28944117
0.43089092 -0.108388245 -0.0048808795 -0.100917935 -0.051334858 0.008553411 0.3486588 -0.22278085
0.040543422 0.2252549 0.012773412 0.109448284 0.2262493 0.26973006 0.14598103 0.07076561
0.08229878 -0.11662311 0.03864224 -0.0940912 0.28196025 -0.055399816 -0.31504288 0.19689079
-0.1223684 -0.09171078 -0.28479004 0.2526577 0.14331348 0.24385731 -0.29177082 -0.50057566
-0.066982284 0.15231025 0.055146396 -0.023115378 -0.16251282 -0.19412555 0.20685475 0.14743571
0.074085414 0.38529766 -0.23509176 0.031288486 0.44606444 0.21223909 0.09875753 0.15601607
0.1842186 -0.02513701 0.026049701 -0.030031191 -0.14707208 0.12745172 -0.38352144 0.022813099
0.22705963 -0.45297137 -0.167774 -0.04392948 0.25472644 0.41765037 0.64154387 -0.039447125
0.11467857 0.03502095 -0.31069633 0.054590005 -0.14151035 0.3482532 0.05094535 -0.4273855
-0.26266783 -0.27591768 0.006517716 0.25067344 -0.06500446 0.036327545 0.21394363 -0.19557747
0.75228035 0.12763627 0.029358394 -0.18885137 0.46266833 0.16394524 0.11143305 -0.28112108
-0.5301529 0.14620587 0.3362493 -0.10976311 -0.07441342 0.15388484 0.4086487 -0.3966016
0.09417284 0.11981909 -0.19373082 -0.10906814 -0.32218298 -0.33526132 -0.26100537 -0.12339544
0.099891014 0.032708023 -0.0013389388 0.2020874 -0.2659027 0.42506644 -0.04805259 -0.11302641
0.0066510355 0.2640264 0.03257552 -0.17861329 0.17428745 0.3010226 -0.11163507 0.04155049
-0.15939905 0.04585273 0.3547293 0.038286284 0.23427987 -0.016174052 0.28223085 0.025657473
-0.32386836 0.18918392 0.26016837 0.2773046 -0.321848 -0.024499835 0.11657812 0.04570201
0.09005302 0.03326676 0.113135256 0.055851586 0.1721313 0.22174415 0.26269287 -0.23412816
-0.09743667 -0.66947675 0.07993282 0.0701827 0.1433329 0.05628693 -0.16295114 -0.09331006
-0.367731 -0.13254088 0.23287447 0.262875 -0.32842824 -0.010966777 -0.103176415 0.099942476
-0.18961951 -0.18407525 0.10203747 -0.122099005 0.19139682 0.11260436 0.048626218 -0.5215812
0.37168375 -0.1179197 0.109297045 0.006498693 -0.45470223 0.38331106 -0.3443089 -0.10746452

network_body._body_endoder.seq_layers.2.bias f4 [128]
00000000: f811 ad3d bf9a 7e3b 63f4 6e3d 9f61 5f3c
00000010: 9527 a83c 6ccd 25bd 6bee d1ba 14e6 95bc
00000020: ffbb aabd dad8 0fbd aad5 a2bd dacc 89bd
00000030: 6e86 d9bc 4434 153c 0ca9 b8bb 4adf 76bd
00000040: 2c83 8cbd 6eb0 8cbd d821 cfbc 1774 e1bd
00000050: 3268 f9bc 339f fbbc d53b 31bc 07f5 863c
00000060: 2547 803c 621c b63c 6b75 c7bc 389d 8cbc
00000070: e8af 43bd 7bde 03bd 5ce2 27bd aa4a fdbc
00000080: 764a 03bc 31df 9bbc 430a 00bd 64d0 773b
00000090: 0c80 083c 9d61 c3bc 49f8 083d da19 843d
000000a0: bc70 3cbd 1a48 6bbb 4646 49bc 07f1 16bd
000000b0: bcc5 1cbb 9cf2 cc3c ccae 06bd 2eb8 aa3c
000000c0: cc23 823b f0f1 16bd 317c 47bb 167e b7bc
000000d0: a14d f6bc 99a1 433d 846e 32bc 17fd 8d3c
000000e0: 3f0f 9fbd 69c0 7fbc 63e2 5b3c c61f 12bd
000000f0: 40b8 aebc cee2 d9bd 1911 64bd 3014 80bb
00000100: efb8 32bd 0a2e e2bc 550d d53c 43e6 7bbc
00000110: 428d 4c3d e2ca babc 6466 8dbd 3e64 0d3d
00000120: e463 b7ba 8152 1dbd 5477 f73c d215 a53a
00000130: 2467 b33c 7585 e43c 8c34 43bd 24e2 60bc
00000140: 2bf2 213c 3ccb 85bc b72a 303d 54b3 9ebd
00000150: 8ee8 febc 29b7 c83b 8e4a 133a d1d5 e3bd
00000160: 29c0 aebc ab71 a3bc 8d42 cebc 60fe c43c
00000170: d4cb 76bc 5234 d4ba e1d6 37bd 297a abbc
00000180: 0619 bdbc a005 aebb 08d8 5ebb 4630 913a
00000190: 3263 c03c 8c12 2ebc 2d1c 793c 3512 ba3b
000001a0: 2768 6bbd 6f5d 603c 679d 3d3d 4095 1abd
000001b0: 7b9b 86bd b6b2 7d3d 3aab 0bbd 877a cabc
000001c0: 7b29 5ebd 259a 84bd 8eec 0abd c216 2dbd
000001d0: 9580 fabc 95ba eb39 7f56 16bd d9c9 14bd
000001e0: a226 813b 0739 a2bd 996d 193c 5e1c 43bc
000001f0: 1594 ecbc 9cd0 25bc f32e 223d d579 c5bc
0.08450693 0.003884956 0.058338534 0.0136341145 0.020526687 -0.04047911 -0.0016016489 -0.018298186
-0.08336639 -0.035118915 -0.079509094 -0.067285255 -0.026553359 0.009106699 -0.0056353863 -0.06027154
-0.068609565 -0.06869589 -0.025284693 -0.110084705 -0.030445192 -0.03071556 -0.010817488 0.01647426
0.015658924 0.02223033 -0.024347981 -0.017164811 -0.04777518 -0.032194596 -0.040987357 -0.030919392
-0.008013358 -0.019027324 -0.031259786 0.003781342 0.00833131 -0.023850257 0.03343991 0.06450243
-0.04600595 -0.003590113 -0.012284821 -0.036850955 -0.002392157 0.025018029 -0.032881543 0.020839777
0.0039715525 -0.036851823 -0.0030439014 -0.02239899 -0.030066313 0.047761533 -0.010890607 0.017332597
-0.0776658 -0.015609839 0.013420674 -0.035674833 -0.021328092 -0.10638963 -0.055680368 -0.0039086565
-0.043633398 -0.027609844 0.026007334 -0.015374723 0.0499394 -0.02280182 -0.06904295 0.034519427
-0.0013991562 -0.03840876 0.030208267 0.0012595004 0.021899767 0.027895669 -0.047657534 -0.013725791
0.0098843975 -0.016332261 0.043009486 -0.07749048 -0.03111675 0.00612535 0.00056187145 -0.111247666
-0.021331863 -0.019951662 -0.025178218 0.024047077 -0.015063245 -0.0016189909 -0.04488266 -0.020932274
-0.023083221 -0.005310729 -0.0034003276 0.0011077009 0.0234848 -0.010624539 0.015204472 0.00567844
-0.057472374 0.013694151 0.04629269 -0.037739992 -0.06572624 0.06193801 -0.03409884 -0.024716629
-0.054238778 -0.06474713 -0.033917002 -0.04225803 -0.03057889 0.00044961707 -0.036703583 -0.03632531
0.003941373 -0.07921033 0.009364509 -0.011908619 -0.028879205 -0.010120537 0.039595556 -0.024105946

network_body._body_endoder.seq_layers.2.weight f4 [128, 128]
00000000: 9f6f 1b3d 6d54 c0bd a988 e73c 439b 663d
00000010: afbc f2bd 4aaa 953c ffc3 aa3c e1e4 8ebc
00000020: f441 463d 6c55 5d3e 222a 97bd b602 083e
00000030: de3e 60bd a4c6 943d 3729 123d 17db aa3c
00000040: 9ada 923e 9e9f 923d 8415 913d cb28 133e
00000050: ef9d 82be ad51 83bc e6ae c1bb ce2e 963e
00000060: 20b1 7b3c 2ef0 a33c e56f d63d 38c6 813e
00000070: 28f2 0ebe dc77 aebc b231 2abd f8ac abbd
00000080: 1298 dfbd b3f3 243d 19d6 703d 7c1c 063e
00000090: 4674 093c 8ae2 3c3e 13d8 c73d b66e 333d
000000a0: 6a19 853d 0c7c 0dbe 6ed7 c13d cf4a 8a3c
000000b0: c6a0 13bd 1972 853c 7aae 743d 3685 433c
000000c0: 4b45 71bd 4ce6 16bd 7401 0cbe 01d8 b2bd
000000d0: 5a05 c43d e488 89bd 888f 2f3e 93f2 fd3d
000000e0: 8f20 9dba 5061 953c b841 afbd c543 5d3d
000000f0: 19b3 fe3d 8b1a c63c e7ae 843d eaf5 163d
00000100: 882e c43d 303e ddbd 6642 c33d c3dd 4a3e
00000110: 1305 33be 8c69 e33c b288 073e 92ab 853c
00000120: 3fbe fa3d 9da0 773c 0724 05be 2ec8 de3d
00000130: 3ba0 383c bd76 333e f341 be3d e487 afbd
00000140: 5d1a 023d 3287 1fbc d114 ca3d 8872 f53d
00000150: 7e97 703c c98c 1b3e 82da 32be b60d 9d3c
00000160: 8383 4c3e f8a0 d9bc 68c9 603d 8c55 49bd
00000170: aef9 c43d 6413 933c 5be7 75bc 60a9 3c3e
00000180: 61eb b23c 0524 00be df1b 0e3d c59b cd3d
00000190: 3f64 0e3e 6a20 84bd 26f6 193d 5915 f0bd
000001a0: 64a1 083e fa6c 9abd ac79 08bd e14f 243e
000001b0: e100 13bd 8653 b3bd 7aac 15bd bc16 033d
000001c0: bcec a3bd 5e72 dabc 685a 893c ac6e 0f3e
000001d0: 5495 843d f69a 93bd 3494 1d3b 0b23 95bc
000001e0: a7ae 043e 1e4f 5d3e 0449 a3bd 149f 293e
000001f0: 661f 13be 0544 113e acb5 ab3b dd26 d13b
00000200: 0f4f 893d 72a3 51bc c769 cf3d a25a c3bd
00000210: 2cc3 05be 9022 5bbd 357e 2b3e 2523 1bbd
00000220: 8896 a73b b49a d23d a1a7 b03b 4aad 84bd
00000230: c9be 46bd 83c1 f6bc 1a4a a23d 4891 edbc
00000240: 13c9 3cbe a82a 03bd 67cb ba3d 2fb3 27bd
00000250: 57f7 b53b 8fb8 18be 1679 07be fb61 55bc
00000260: c681 02bd 7462 dcbd c100 8fbd 5c12 13bc
00000270: ed0e a5bd 9131 963d 95c6 0a3e 24b7 a03c
00000280: 18bc 2dbe 0d72 2c3e 28d9 d6bc 376e b7bc
00000290: fc4d 0c3c 7627 8bbc 18dd 033e 5c33 2abe
000002a0: bbd8 37bd c52f d63d c172 39be 5e1e b43d
000002b0: af28 2dbc 3e26 73bd 4ba1 a7bd d300 01be
000002c0: 45ef 853d 4f71 b63d db34 62bd 2eb4 273d
000002d0: a5bb 013d 9f9a 7ebd 5c26 1b3d d4b2 613d
000002e0: 3cc1 6b3d 3024 4ebe 4aea 153b 9632 6fbc
000002f0: 6a41 f3bd f64a db3c 2434 25bd 1766 98bd
00000300: 08fa 18be 2c9d 0c3e eba3 16be 397d 803d
00000310: 9ba3 0f3d 330c 04be daec 843b 6ed4 12be
00000320: f4b8 5c3d c0ef 2fbe 94e0 a03d 2085 6ebd
00000330: f82f 9a38 f4ca 5b3d 27fb 18be ec9b 2c3d
00000340: d38c 55bd c4a0 f73c 79f6 f2bd 1c72 943c
00000350: 77d4 a0b9 907e 5a3d 60a6 6e3d 60cb ed3d
00000360: 81fd 94be ab95 143c a2d8 4f3d fd44 69be
00000370: 9fc7 843d 614d 45bd 5ea6 71be c267 dbbc
00000380: 5b24 643d 4227 32bc 9b21 ae3d aacc 42be
00000390: 8cf4 42be 1bde 133d 04bf 413d 8673 afbd
000003a0: ae87 e9bd 042b 253a 7709 fabd 9cee ccbb
000003b0: 0548 c83d 384d 95bd f85d 953d dee3 2a3c
000003c0: e8d4 bc3b 5bdb 213d e4c3 343d b198 81bd
000003d0: 3c3e 323e 1572 763c e157 b8bc 70bd 213d
000003e0: 1af1 20bb 4454 553d bb50 3c3e bb15 9b3d
000003f0: 5483 1f3d b973 b73d efae d5bd 3567 023d
0.037948247 -0.09391103 0.028263407 0.056300413 -0.11852395 0.018269677 0.020845411 -0.017443122
0.04840274 0.21614617 -0.07381083 0.13282284 -0.054747455 0.0726445 0.035683837 0.020856423
0.28682405 0.07159351 0.07084182 0.1437103 -0.2551112 -0.016030157 -0.005910742 0.29332584
0.015362054 0.020011988 0.10470561 0.2534654 -0.13959563 -0.021297388 -0.0415513 -0.083826005
-0.10917677 0.040271472 0.05879793 0.13096803 0.008389538 0.18445793 0.0975801 0.043806754
0.06498988 -0.13816851 0.09464918 0.016881375 -0.036041997 0.016289758 0.059736706 0.011933615
-0.058903974 -0.036840722 -0.1367243 -0.08732606 0.09571333 -0.06715563 0.17144597 0.12399783
-0.0011987853 0.018234879 -0.08557457 0.05401971 0.12436504 0.024182579 0.064786725 0.036855616
0.09579188 -0.10802877 0.09534149 0.19811158 -0.17482404 0.02776029 0.13235739 0.016317163
0.12243318 0.015113977 -0.13002025 0.10878025 0.011268671 0.17525764 0.092899226 -0.08570841
0.031763423 -0.009736823 0.09867252 0.11984736 0.014684556 0.15190424 -0.17466167 0.019171577
0.19972043 -0.026566014 0.054879576 -0.04915385 0.09617935 0.017953582 -0.015008773 0.18423986
0.021840753 -0.1251374 0.03469455 0.10039476 0.13905428 -0.06451495 0.03758826 -0.11722822
0.13342816 -0.07540317 -0.03331916 0.16046096 -0.03588951 -0.08756165 -0.03654144 0.032004103
-0.08004138 -0.026665863 0.016766742 0.14007062 0.064737946 -0.07207291 0.0024044635 -0.018205186
0.1295725 0.21612212 -0.07972911 0.1656459 -0.14367446 0.14186104 0.005240163 0.0063828067
0.06704532 -0.012795316 0.10127597 -0.09538771 -0.13062733 -0.05349976 0.16747363 -0.037875313
0.0051143803 0.102834135 0.0053910767 -0.06478365 -0.04852179 -0.03012157 0.0792429 -0.02899994
-0.18436079 -0.032023102 0.09120827 -0.040942367 0.005553167 -0.14914154 -0.13229784 -0.013023849
-0.031862043 -0.10760966 -0.06982566 -0.008976545 -0.080594875 0.07333673 0.13552316 0.019618578
-0.16966283 0.16840382 -0.026226595 -0.022391422 0.008563515 -0.01698659 0.1287731 -0.16621155
-0.044884425 0.1045833 -0.18110181 0.087948546 -0.010568782 -0.059362642 -0.08185061 -0.1259797
0.06539778 0.08908331 -0.05522619 0.040943317 0.031673092 -0.062159177 0.03787838 0.055102184
0.05755733 -0.20130992 0.0022875243 -0.014599463 -0.11877711 0.026769143 -0.04033293 -0.07441347
-0.1493913 0.13731831 -0.14710967 0.06273884 0.035068136 -0.12895279 0.004056555 -0.14338848
0.053887323 -0.17181301 0.07855335 -0.058232427 7.352227e-05 0.053660348 -0.14939557 0.042140886
-0.052136254 0.030228026 -0.11863417 0.018120818 -0.00030675877 0.053343356 0.058264136 0.11611056
-0.29099658 0.009068887 0.050743707 -0.22780223 0.06483387 -0.048169497 -0.2359862 -0.026782874
0.055698734 -0.010873618 0.085025035 -0.19023386 -0.190386 0.03610049 0.047301307 -0.08566956
-0.11402832 0.00063006603 -0.122088365 -0.0062540304 0.09779362 -0.07290119 0.07293314 0.010430304
0.005762685 0.039515834 0.04413213 -0.06327952 0.17406553 0.015041848 -0.022502841 0.039487302
-0.002455777 0.052082315 0.18390171 0.07572504 0.038943604 0.08957619 -0.104337566 0.031836707
