RollerAgent/Assets/Learn/RollerAgent_06.onnx (onnx, 78271 bytes, 7 tensors)

action_model._continuous_distribution.log_sigma f4 [1, 2]
-0.9129621 -1.021458
00000000: e2b7 69bf 23bf 82bf

action_model._continuous_distribution.mu.bias f4 [2]
0.05062178 0.013060696
00000000: c958 4f3d 88fc 553c

action_model._continuous_distribution.mu.weight f4 [2, 128]
0.035793215 0.10154965 0.048239447 0.031659327 -0.044106975 0.009194019 -0.13205042 -0.04203302
-0.0055763177 -0.0009710693 -0.08963319 -0.016903507 -0.0074845664 -0.042660233 0.034469385 0.16790602
-0.021755304 0.09273563 0.036970966 -0.04616829 0.0057494896 0.053556226 0.040690724 0.027751055
-0.04701066 -0.06540017 0.11624289 0.10698487 -0.10911524 0.06900734 0.033340134 -0.14074394
0.057308175 0.054540373 0.028927412 0.049213424 0.03177573 -0.018362774 -0.106001444 -0.095637225
-0.069853194 0.01792712 0.054780066 0.015368877 0.008797766 0.004181459 0.100487925 0.04661181
-0.119508155 0.092681795 0.1012886 0.07055585 0.05707157 -0.005139571 -0.03958044 -0.043898344
0.01679572 0.07840235 0.012074015 -0.12150163 -0.07867844 0.08277825 0.063785836 0.07300974
-0.0729972 -0.06473168 0.063642286 -0.04612334 0.05647746 -0.041415382 -0.082611986 -0.070636734
0.042003334 0.0034257253 -0.06701261 0.0611825 0.030366331 0.026324268 0.077984214 0.039139103
-0.036813106 -0.14182293 -0.028588459 -0.010180081 0.06009441 -0.14449415 -0.046439923 -0.070558004
0.07758452 -0.07063526 0.06662121 0.07504678 0.06462513 0.042356748 -0.06821947 -0.09838932
-0.13483405 0.11996877 -0.11866933 0.043312903 0.05169764 0.07042637 0.026698617 0.02870942
-0.109431975 0.049058273 0.10274433 -0.014237561 0.0133846775 -0.0770708 0.009460996 -0.056394488
-0.021456147 -0.08947995 -0.02673994 -0.024883322 0.06482155 -0.06896369 0.07613991 0.121914275
0.00035201665 -0.15429015 -0.032681357 -0.07591289 0.11174635 -0.017757291 -0.0014534628 0.060659718
0.03533275 -0.008361792 -0.05415633 0.00879365 -0.007683054 -0.09406317 0.04181947 -0.034202475
-0.04782599 0.05403614 0.039149024 -0.04005757 0.087124914 -0.15507796 -0.10858848 0.0019276263
0.104195066 0.009749491 -0.037454743 -0.029980276 -0.084771454 -0.037298493 0.22520415 0.046664093
-0.016583761 0.015388057 -0.027075142 -0.054157127 0.07090986 -0.022545481 0.061764702 -0.041216597
-0.022115814 0.012358727 0.012514584 -0.019023588 -0.023301745 -0.0736355 -0.056865565 0.03653196
0.00085704954 -0.025191441 -0.005776115 0.06913642 0.06780291 0.037765376 -0.03433539 -0.0076569063
0.015334875 0.015660137 0.08149258 0.06870355 -0.13432224 0.017175615 0.05308686 -0.097945504
-0.02829087 -0.016381726 -0.066532366 -0.027258962 0.03169515 -0.062339533 0.054732274 -0.064590156
-0.09760471 -0.004980858 0.042265728 -0.005033983 0.10482635 -0.05139113 -0.07921799 0.12845024
-0.03624276 -0.053856693 0.17603731 -0.019504607 0.0018857647 0.063082844 -0.0013370976 -0.027484303
-0.028844789 -0.05577794 -0.09157748 -0.011192442 -0.062113468 0.06276613 -0.07743376 0.041025776
0.08777467 -0.026759492 0.060889136 -0.059372067 -0.033564493 0.0019358993 0.016669786 -0.072169855
-0.062007815 -0.08516992 0.0056116674 -0.14340521 -0.0515942 -0.059224214 -0.064838655 -0.0693496
-0.036483545 0.08819453 -0.05243953 -0.027197331 -0.059979346 -0.046758763 -0.03779067 0.06997468
-0.082654916 -0.08124408 -0.071218334 0.018188985 -0.084875 0.051808774 0.0039433707 0.07638726
0.044421036 0.015465115 0.063840255 -0.19139226 -0.04374182 -0.1580377 0.074774824 0.013750047
00000000: e89b 123d 43f9 cf3d ba96 453d 36ad 013d
00000010: 84a9 34bd 83a2 163c 3a38 07be d12a 2cbd
00000020: 8bb9 b6bb 5c8f 7eba 9b91 b7bd 3979 8abc
00000030: 1841 f5bb 7fbc 2ebd c52f 0d3d 8eef 2b3e
00000040: 2e38 b2bc 2eec bd3d de6e 173d f61a 3dbd
00000050: 3766 bc3b c65d 5b3d 51ab 263d 2e56 e33c
00000060: 408e 40bd 86f0 85bd c110 ee3d e21a db3d
00000070: d077 dfbd b853 8d3d aa8f 083d 2e1f 10be
00000080: fabb 6a3d ba65 5f3d 2ef9 ec3c 0494 493d
00000090: 4527 023d 876d 96bc 4917 d9bd 73dd c3bd
000000a0: 310f 8fbd e5db 923c 1061 603d becd 7b3c
000000b0: 8124 103c 9f04 893b 9dcc cd3d 06ec 3e3d
000000c0: b1c0 f4bd f4cf bd3d 6670 cf3d 967f 903d
000000d0: e1c3 693d d969 a8bb 191f 22bd c0ce 33bd
000000e0: 2e97 893c 6991 a03d 17d2 453c d9d5 f8bd
000000f0: 2922 a1bd a587 a93d 26a2 823d 2186 953d
00000100: 8e7f 95bd 0b92 84bd e356 823d d4eb 3cbd
00000110: e954 673d 2da3 29bd 7930 a9bd fea9 90bd
00000120: b00b 2c3d 2282 603b e83d 89bd 809a 7a3d
00000130: d0c2 f83c fea5 d73c 30b6 9f3d 5350 203d
00000140: 57c9 16bd 083a 11be 5832 eabc 5bca 26bc
00000150: 8e25 763d 46f6 13be ca37 3ebd b780 90bd
00000160: a2e4 9e3d 38a9 90bd b370 883d 20b2 993d
00000170: 2e5a 843d 457e 2d3d a6b6 8bbd 5780 c9bd
00000180: f011 0abe 30b2 f53d e808 f3bd df68 313d
00000190: e8c0 533d b33b 903d 0fb7 da3c 0430 eb3c
000001a0: df1d e0bd 54f1 483d 9f6b d23d a944 69bc
000001b0: 684b 5b3c 4cd7 9dbd 4b02 1b3c e8fd 66bd
000001c0: cdc4 afbc 4441 b7bd b80d dbbc 1cd8 cbbc
000001d0: 29c1 843d d63c 8dbd 3eef 9b3d 31ae f93d
000001e0: e08e b839 3dfe 1dbe e3dc 05bd 3878 9bbd
000001f0: 45db e43d bd77 91bc 1e82 beba 5376 783d
00000200: 13b9 103d e6ff 08bc 07d3 5dbd 3e13 103c
00000210: 21c2 fbbb 31a4 c0bd e44a 2b3d e517 0cbd
00000220: 2fe5 43bd 0055 5d3d ba5a 203d 6813 24bd
00000230: 8c6e b23d c2cc 1ebe a363 debd 68a8 fc3a
00000240: 3964 d53d 54bc 1f3c 256a 19bd 3299 f5bc
00000250: a89c adbd 4ec6 18bd eb9b 663e d922 3f3d
00000260: abda 87bc 301e 7c3c b0cc ddbc ddd3 5dbd
00000270: 3039 913d 4db1 b8bc fcfc 7c3d bcd2 28bd
00000280: 392c b5bc 427c 4a3c f809 4d3c 5bd7 9bbc
00000290: 4de3 bebc 36ce 96bd deeb 68bd 89a2 153d
000002a0: 9fab 603a 485e cebc 9145 bdbb 6597 8d3d
000002b0: 41dc 8a3d deaf 1a3d 44a3 0cbd c9e6 fabb
000002c0: 213f 7b3c b049 803c 95e5 a63d 72b4 8c3d
000002d0: c58b 09be e0b3 8c3c 9b71 593d a797 c8bd
000002e0: 41c2 e7bc f832 86bc 1f42 88bd 304e dfbc
000002f0: c6d2 013d bd57 7fbd f32e 603d d847 84bd
00000300: fae4 c7bd 7736 a3bb d41e 2d3d 1cf4 a4bb
00000310: 33af d63d 817f 52bd 0b3d a2bd 7688 033e
00000320: 4a73 14bd d698 5cbd 2043 343e 20c8 9fbc
00000330: c32b f73a 9431 813d 8d41 afba c326 e1bc
00000340: e84b ecbc 6977 64bd f98c bbbd 8160 37bc
00000350: b16a 7ebd 878b 803d 9795 9ebd a50a 283d
00000360: 35c3 b33d b936 dbbc e366 793d 2030 73bd
00000370: ec7a 09bd 00be fd3a 138f 883c cacd 93bd
00000380: e8fb 7dbd 916d aebd 14e2 b73b d1d8 12be
00000390: 7154 53bd 1795 72bd 21ca 84bd 2a07 8ebd
000003a0: c56f 15bd 559f b43d d5ca 56bd f0cc debc
000003b0: e7ac 75bd 1e86 3fbd 64ca 1abd e34e 8f3d
000003c0: fb46 a9bd 4c63 a6bd ebda 91bd 1101 953c
000003d0: f2d2 adbd 7035 543d 6437 813b ec70 9c3d
000003e0: d5f2 353d 6561 7d3c aebe 823d 55fc 43be
000003f0: 9f2a 33bd a3d4 21be 8b23 993d e147 613c

network_body._body_endoder.seq_layers.0.bias f4 [128]
-0.15939981 0.07408957 -0.10487489 -0.19741808 -0.08974573 0.0147540765 -0.19145827 -0.011744935
-0.007021443 0.09014526 0.06340973 0.052672017 -0.080148056 0.043760084 0.037871066 0.08132688
0.020283418 -0.10278289 -0.12993033 -0.08255918 -0.25226066 -0.0011670375 0.059849665 -0.021061752
-0.013457106 0.045311783 0.11904766 0.072592564 -0.09148574 0.013990674 0.01595354 0.04085643
-0.049375135 0.037401192 -0.0830288 -0.09432368 -0.039784558 -0.020642301 -0.071242444 -0.22955117
-0.11139656 -0.17774117 -0.06791138 0.107749216 -0.097012915 0.017975608 -0.116902724 0.21938322
-0.016231637 -0.037223365 -0.0032723036 -0.0066054533 -0.17834437 -0.07558125 0.022945207 -0.021053683
-0.15699947 -0.03200053 0.06388985 0.085289106 -0.09885787 -0.12388713 -0.07237358 -0.012672961
0.043160077 0.08209565 0.030971074 -0.04015538 -0.16470262 -0.045299925 -0.13877295 0.054593284
0.128497 0.028999742 -0.015551472 -0.052757535 -0.022017064 -0.06620645 -0.012976724 -0.014141566
-0.0013526176 -0.05702266 -0.101714976 0.10080679 -0.007573292 0.0061547607 0.008008392 -0.09284534
-0.0434172 0.09989602 0.06203533 -0.038386885 -0.022574848 -0.06803212 -0.05675213 0.05478479
-0.063959576 0.028099129 -0.00029283256 0.08431727 -0.008386071 -0.026330875 0.06344842 -0.07510694
-0.1397835 0.114552885 -0.05325205 -0.20592749 0.09053888 -0.15982631 -0.04287839 -0.01106121
-0.021861007 0.0056658834 -0.15011252 -0.04012031 0.06560525 0.018092297 -0.0031013484 -0.062177736
-0.09761779 -0.13444169 -0.030183613 -0.28906465 -0.042782754 -0.07068751 0.023140807 0.007897998
00000000: b439 23be 46bc 973d a5c8 d6bd f727 4abe
00000010: 9ccc b7bd 15bb 713c a30d 44be d46d 40bc
00000020: 2214 e6bb 149e b83d f6dc 813d 9dbe 573d
00000030: aa24 a4bd c63d 333d b11e 1b3d b58e a63d
00000040: 6929 a63c d67f d2bd 750c 05be ca14 a9bd
00000050: 4f28 81be 48f7 98ba ec24 753d b289 acbc
00000060: 327b 5cbc d998 393d 42cf f33d 69ab 943d
00000070: e05c bbbd 2439 653c 00b1 823c 1259 273d
00000080: 953d 4abd fe31 193d 010b aabd c62c c1bd
00000090: 22f5 22bd 0b1a a9bc 8fe7 91bd 760f 6bbe
000000a0: e123 e4bd c801 36be 1f15 8bbd 9fab dc3d
000000b0: b5ae c6bd 9541 933c b26a efbd ffa5 603e
000000c0: 36f8 84bc 8777 18bd 2574 56bb 8f72 d8bb
000000d0: e89f 36be 58ca 9abd 96f7 bb3c c678 acbc
000000e0: 78c4 20be fd12 03bd afd8 823d 0eac ae3d
000000f0: ff75 cabd 89b8 fdbd 9938 94bd 40a2 4fbc
00000100: 9fc8 303d c421 a83d 0db7 fd3c f879 24bd
00000110: cea7 28be 6a8c 39bd 7f1a 0ebe 359d 5f3d
00000120: b894 033e de90 ed3c 9acb 7ebc 4918 58bd
00000130: 215d b4bc 3f97 87bd 539c 54bc 07b2 67bc
00000140: 514a b1ba 9890 69bd f14f d0bd ca73 ce3d
00000150: 6129 f8bb e0ad c93b a135 033c b325 bebd
00000160: 3cd6 31bd 4996 cc3d c218 7e3d 913b 1dbd
00000170: e3ee b8bc 6d54 8bbd ec74 68bd 0466 603d
00000180: 3dfd 82bd 2530 e63c 5287 99b9 88ae ac3d
00000190: bb65 09bc d9b3 d7bc 3ff1 813d abd1 99bd
000001a0: 6823 0fbe b49a ea3d d21e 5abd a8de 52be
000001b0: 736c b93d 82a9 23be 40a1 2fbd 143a 35bc
000001c0: db15 b3bc e0a8 b93b 19b7 19be 3255 24bd
000001d0: 0c5c 863d 4c36 943c fe3f 4bbb 15ae 7ebd
000001e0: d6eb c7bd 15ab 09be a043 f7bc 4800 94be
000001f0: f83c 2fbd 9dc4 90bd ca91 bd3c 9b66 013c

network_body._body_endoder.seq_layers.0.weight f4 [128, 17]
0.024975514 -0.059437834 0.16611424 0.18081193 0.08682931 -0.065795556 -0.002879212 -0.047155187
0.001997459 -0.029029494 -0.033457924 -0.012783056 -0.34329313 -0.6419978 -0.17598924 0.37533975
-0.11702845 0.14053342 -0.01424679 -0.15586567 0.11023907 0.150208 0.39944607 0.24427718
0.18462276 0.08303965 0.04375472 -0.11975719 0.04096237 -0.15693375 0.15804742 -0.59003234
-0.77307725 -0.4363085 -0.13405778 -0.25802758 0.41713282 0.22588278 0.085079946 0.09879732
0.23005986 -0.45390952 0.09266161 -0.15368968 -0.18280129 0.06747557 -0.3334334 0.40426764
0.22964701 -0.31739464 -0.045693837 0.39682105 0.08688015 0.074882016 0.20929487 0.30061305
-0.026044624 0.01417899 -0.15778415 0.22546332 -0.01978108 -0.7037469 0.18018697 -0.14413883
0.026193121 0.04010292 0.045998015 -0.09834058 -0.14263707 -0.20176877 -0.42121187 -0.1377052
0.17877509 0.21658774 -0.24425274 0.010194083 0.1472104 0.103976116 0.17002708 -0.15731889
0.21488267 -0.0079015475 -0.0041553862 0.571428 -0.27643052 -0.018908406 0.07644438 0.082900256
-0.30950263 -0.0057205576 0.23038222 0.17690457 -0.27721545 0.19228546 -0.012380108 -0.12183484
0.15739472 -0.36058274 -0.38395122 0.1916871 -0.2851084 0.5588041 0.3070608 -0.33397114
0.33109576 0.11776884 -0.008466431 0.35515603 0.09725274 -0.03890176 0.19838451 0.47347954
-0.26020575 -0.19401783 -0.44748855 -0.021403689 -0.18442017 -0.29505447 -0.015246135 -0.22792663
-0.010642057 -0.009025459 0.33524248 -0.12431635 0.56578773 0.22465341 0.021357836 0.05138818
0.15261368 -0.13932854 0.30831274 0.34319606 -0.18516773 -0.5659694 -0.8073493 0.36314052
-0.010041564 -0.31760925 -0.05976621 0.058347434 -0.18611859 0.057942864 -0.29938868 -0.12409014
0.17589745 0.47211903 -0.3108926 -0.28289688 -0.22525008 -0.1537296 -0.13815029 -0.48728123
0.21593067 0.112600975 0.018829964 -0.18527618 -0.10313821 -0.11860001 -0.18099351 0.32838097
-0.14174987 -0.3077205 0.33327648 -0.26979554 -0.0431268 -0.041113175 0.49885923 0.2718516
-0.53336436 -0.22007495 -0.005092769 0.46462062 0.08974341 0.21117923 0.78052765 0.07591726
0.21412195 0.49645066 0.2500696 -0.18113129 0.15463652 0.32718948 0.39943933 -0.15053456
-0.14548172 -0.4472594 -0.23278862 -0.2832111 0.035945628 0.07550782 -0.015564002 -0.035874367
-0.011735568 0.035006132 -0.05994604 0.043096446 0.28051978 -0.075276345 -0.114976965 0.34331465
-0.047163557 -0.042326245 0.021795861 0.44252807 -0.030261068 0.2588908 -0.1852454 -0.20211132
-0.26552132 0.16819702 -0.032897867 -0.009168553 -0.024991922 -0.10046261 -0.40952307 0.5369957
-0.24207804 -0.37952486 0.36310446 -0.057864357 0.061343048 -0.07407137 -0.097957954 -0.19318895
-0.06291251 -0.08675193 -0.24598145 -0.28419882 0.31264946 -0.22007172 0.40095097 0.14147517
-0.1404543 -0.116765104 -0.034437086 -0.025877729 -0.048316617 -0.3991902 0.3247533 -0.079005644
0.12554121 0.25260094 0.35291937 -0.37106597 -0.5129795 -0.05423945 0.10049475 0.30290496
-0.11196916 -0.05047019 -0.2124078 -0.2055114 -0.14400426 0.37098905 0.27469328 0.07791529
00000000: 7399 cc3c 1675 73bd da19 2a3e c326 393e
00000010: 91d3 b13d d2bf 86bd 29b1 3cbb cc25 41bd
00000020: cde7 023b 43cf edbc 2d0b 09bd 0670 51bc
00000030: 1ec4 afbe f859 24bf 8636 34be 882c c03e
00000040: 9dac efbd fee7 0f3e 5e6b 69bc 409b 1fbe
00000050: 06c5 e13d 20d0 193e 3284 cc3e cc23 7a3e
00000060: c00d 3d3e b110 aa3d 2638 333d 4243 f5bd
00000070: 28c8 273d 3eb3 20be 2fd7 213e 5c0c 17bf
00000080: 64e8 45bf d463 dfbe 7146 09be 311c 84be
00000090: 6f92 d53e d14d 673e 653e ae3d 4056 ca3d
000000a0: d094 6b3e d466 e8be 5fc5 bd3d d460 1dbe
000000b0: 4330 3bbe a230 8a3d c8b7 aabe 2bfc ce3e
000000c0: 9628 6b3e 8d81 a2be 7629 3bbd 212c cb3e
000000d0: 38ee b13d be5b 993d 6551 563e f4e9 993e
000000e0: 895b d5bc ff4e 683c 2b92 21be dbdf 663e
000000f0: ee0b a2bc c228 34bf ef82 383e 2199 13be
00000100: f592 d63c f642 243d 6a68 3c3d c966 c9bd
00000110: 740f 12be 799c 4ebe 15a9 d7be 9802 0dbe
00000120: d110 373e 2dc9 5d3e 641d 7abe 1505 273c
00000130: 53be 163e 6ef1 d43d 941b 2e3e 3418 21be
00000140: 340a 5c3e 7e75 01bc e829 88bb 1b49 123f
00000150: 4d88 8dbe cde5 9abc df8e 9c3d 9cc7 a93d
00000160: 2177 9ebe 8473 bbbb 51e9 6b3e 7926 353e
00000170: 2fef 8dbe 7be6 443e f0d5 4abc 8b84 f9bd
00000180: 152c 213e 4d9e b8be 4195 c4be a049 443e
00000190: baf9 91be c90d 0f3f 1337 9d3e 44fe aabe
000001a0: 6285 a93e ca30 f13d c9b6 0abc 03d7 b53e
000001b0: 722c c73d 7457 1fbd 4f25 4b3e e96b f23e
000001c0: b039 85be 9cac 46be 381d e5be ca56 afbc
000001d0: a4d8 3cbe 6111 97be edca 79bc 9965 69be
000001e0: 065c 2ebc 85df 13bc e7a4 ab3e 9299 febd
000001f0: 77d7 103f 8b0b 663e a1f6 ae3c 6a7c 523d
00000200: c346 1c3e 24ac 0ebe 2bdb 9d3e 65b7 af3e
00000210: 9c9c 3dbe 5fe3 10bf 72ae 4ebf 8eed b93e
00000220: 5f85 24bc ae9d a2be 6acd 74bd b8fd 6e3d
00000230: df95 3ebe 7f55 6d3d 7949 99be f922 febd
00000240: 761e 343e 96b9 f13e 512d 9fbe dcd7 90be
00000250: f5a7 66be 4b6b 1dbe 4577 0dbe ed7c f9be
00000260: ee1c 5d3e 579b e63d 4c41 9a3c 0ab9 3dbe
00000270: 203a d3bd 90e4 f2bd 5d56 39be 8d21 a83e
00000280: e126 11be 8b8d 9dbe 37a3 aa3e a422 8abe
00000290: baa5 30bd 4a66 28bd 7a6a ff3e 2230 8b3e
000002a0: 918a 08bf 545b 61be 3ee1 a6bb c1e2 ed3e
000002b0: 65cb b73d 5e3f 583e a9d0 473f 827a 9b3d
000002c0: c942 5b3e c82e fe3e 1f09 803e 7b7a 39be
000002d0: 0959 1e3e 6185 a73e 5083 cc3e bb25 1abe
000002e0: 29f9 14be 2fff e4be 2460 6ebe 0c01 91be
000002f0: b93b 133d d8a3 9a3d 2800 7fbc 00f1 12bd
00000300: 8a46 40bc 9762 0f3d fb89 75bd e685 303d
00000310: 4aa0 8f3e 7c2a 9abd 0b79 ebbd f0c6 af3e
00000320: 932e 41bd 495e 2dbd 3c8d b23c 0a93 e23e
00000330: 0fe6 f7bc 568d 843e f8b0 3dbe 45f6 4ebe
00000340: 69f2 87be d73b 2c3e eabf 06bd b337 16bc
00000350: dcbb ccbc 57bf cdbd 02ad d1be 8d78 093f
00000360: 4ee3 77be 1551 c2be d4e8 b93e 2d03 6dbd
00000370: d942 7b3d bbb2 97bd 2e9e c8bd 53d3 45be
00000380: 46d8 80bd ffaa b1bd 90e2 7bbe 8282 91be
00000390: 9713 a03e 7b5a 61be 7249 cd3e dede 103e
000003a0: 41d3 0fbe 8b22 efbd e70d 0dbd 88fd d3bc
000003b0: a5e7 45bd a862 ccbe 1146 a63e b6cd a1bd
000003c0: e08d 003e e954 813e d9b1 b43e 5cfc bdbe
000003d0: a052 03bf 2f2a 5ebd 31d0 cd3d 5c16 9b3e
000003e0: 1650 e5bd d4b9 4ebd 6e81 59be 9571 52be
000003f0: da75 13be 47f2 bd3e 99a4 8c3e 0d92 9f3d

network_body._body_endoder.seq_layers.2.bias f4 [128]
-0.028043212 -0.017982379 -0.09909644 -0.054372806 -0.04305166 -0.049542356 0.049058236 -0.10323051
-0.04435848 -0.15263249 -0.055703424 -0.060948487 -0.12305766 -0.13706762 0.07512492 -0.06355881
-0.013972067 -0.110296525 -0.060264777 -0.06961478 -0.014884631 -0.13843182 -0.025521487 -0.033144116
-0.14475575 -0.041743577 -0.09417646 0.021901896 -0.13049117 -0.030139908 0.021959448 -0.101787604
-0.07647602 -0.10190702 -0.19742806 -0.1161147 -0.062326275 -0.056376938 -0.0030633723 -0.14706913
-0.0034949637 -0.16346586 -0.021676637 -0.102574855 -0.056469027 -0.150869 -0.020985626 -0.09336593
0.03315336 -0.09273211 -0.18175575 -0.084445976 -0.101527214 -0.06619985 0.047221985 0.011432228
-0.024718741 0.044401024 -0.07249466 -0.13525862 -0.084786944 -0.04825489 0.12812638 0.11791704
-0.00134071 -0.0067969738 -0.07998385 -0.11543119 -0.12641561 0.006825081 -0.1278879 -0.068867035
-0.1264115 -0.03951921 -0.086940125 -0.12799977 -0.118819356 -1.9557025e-05 -0.07019937 -0.08538916
-0.076357394 -0.004999331 -0.13598582 -0.17399403 -0.094115734 -0.06710304 0.001177698 -0.0767
-0.08704624 -0.08466883 -0.0907167 -0.053131245 -0.03929393 -0.02936289 -0.014380519 -0.12536873
-0.1509248 -0.04736795 -0.14672895 -0.10315987 -0.08176572 -0.13334046 -0.046375252 -0.08575177
-0.04767627 -0.09041698 -0.099231385 -0.15852721 -0.13728386 -0.014919735 -0.0045745578 -0.123718426
-0.046718646 -0.09174287 -0.05110687 -0.17820941 -0.062145274 0.0009740226 0.0011300653 -0.115852706
-0.015099433 -0.08226925 -0.06497002 -0.15525417 -0.13117117 -0.07583698 -0.05907614 0.03613588
00000000: e1ba e5bc c84f 93bc 13f3 cabd 05b6 5ebd
00000010: f056 30bd edec 4abd 4af1 483d 856a d3bd
00000020: 3db1 35bd b14b 1cbe 4629 64bd 1fa5 79bd
00000030: a805 fcbd 745b 0cbe 18db 993d 1f2b 82bd
00000040: 19eb 64bc 25e3 e1bd 33d8 76bd 3292 8ebd
00000050: abde 73bc 12c1 0dbe 7012 d1bc 20c2 07bd
00000060: da3a 14be 50fb 2abd 96df c0bd 9b6b b33c
00000070: 7a9f 05be f8e7 f6bc 4de4 b33c 0576 d0bd
00000080: 769f 9cbd a1b4 d0bd 952a 4abe 8bcd edbd
00000090: d649 7fbd 81eb 66bd dcc2 48bb 4a99 16be
000000a0: c30b 65bb 9863 27be 3493 b1bc c412 d2bd
000000b0: 114c 67bd 677d 1abe 0cea abbc a336 bfbd
000000c0: d1cb 073d 55ea bdbd 2e1e 3abe 03f2 acbd
000000d0: 80ed cfbd c993 87bd d76b 413d 3d4e 3b3c
000000e0: f57e cabc d9dd 353d 1578 94bd 3c81 0abe
000000f0: c7a4 adbd eba6 45bd 9033 033e 7d7e f13d
00000100: c3ba afba 26b9 debb 93ce a3bd 3067 ecbd
00000110: 1873 01be eea4 df3b 0cf5 02be 290a 8dbd
00000120: 0472 01be e5de 21bd aa0d b2bd 5f12 03be
00000130: 9057 f3bd 640e a4b7 b0c4 8fbd 83e0 aebd
00000140: 4461 9cbd 6ed1 a3bb de3f 0bbe 7e2b 32be
00000150: c0bf c0bd 526d 89bd fd5c 9a3a e414 9dbd
00000160: 4d45 b2bd da66 adbd adc9 b9bd 26a0 59bd
00000170: acf2 20bd 728a f0bc 459c 6bbc a960 00be
00000180: 088c 1abe e504 42bd 1d40 16be 7b45 d3bd
00000190: c974 a7bd 678a 08be faf3 3dbd a09e afbd
000001a0: 3148 43bd 8a2c b9bd d339 cbbd f554 22be
000001b0: 2494 0cbe e771 74bc 2ce6 95bb 1660 fdbd
000001c0: 0d5c 3fbd b0e3 bbbd 7055 51bd 877c 36be
000001d0: 0b8c 7ebd 8d55 7f3a b31e 943a 2f44 edbd
000001e0: 9d63 77bc c87c a8bd 000f 85bd f3fa 1ebe
000001f0: bc51 06be 6b50 9bbd d3f9 71bd 3703 143d

network_body._body_endoder.seq_layers.2.weight f4 [128, 128]
-0.03734609 0.036707263 0.07778408 -0.13154833 0.021026777 0.10686952 -0.079238355 -0.13835709
-0.3074296 0.07303455 0.0056944564 -0.12979925 0.15808922 -0.09409243 -0.025654325 0.08059596
-0.107606955 0.024984818 0.13945913 -0.07281895 0.071083024 -0.07760278 -0.15171275 -0.17235433
-0.028730944 0.1427721 0.04616806 -0.1292493 -0.042657595 -0.3375138 -0.058837354 0.12217068
0.087222226 0.08144984 -0.25077754 -0.0413118 -0.035927746 -0.07645742 0.12785971 -0.10276288
0.028365793 -0.07337574 0.0883769 0.010646772 -0.04804927 0.21646297 0.020349456 -0.0069671418
-0.08381067 0.032392625 -0.07803931 -0.05337129 0.23753962 0.0077109425 0.12493662 0.122373536
0.16949047 -0.10552788 -0.025036957 -0.0960666 0.10747696 -0.13188995 -0.22441703 -0.10117176
0.02650965 0.015392695 -0.07248919 0.04001654 0.16387947 -0.052427858 -0.22878027 0.06796199
-0.008208693 -0.16025473 -0.11400806 -0.16670527 -0.2094028 0.05952901 -0.15671672 -0.13308717
0.08215961 -0.06452722 0.03974831 -0.058001418 -0.11926479 0.09889274 -0.0530918 0.083624646
0.041563477 -0.13295081 -0.03947182 0.11415202 0.0037643227 -0.034833 -0.036718443 -0.110824294
-0.19261189 -0.12740996 -0.03938979 0.13452698 0.13033016 0.035965737 -0.1389634 -0.025255488
-0.13495877 -0.15541266 -0.094445005 -0.12843262 -0.17472377 -0.120664306 0.02749268 -0.13051333
0.033969652 -0.22007506 -0.07291573 0.039689183 -0.22932395 -0.08727195 -0.1486946 0.11451688
-0.06309465 0.100716166 -0.05962925 -0.076140694 0.10222457 0.021839263 0.0021476157 -0.09295835
-0.46005228 -0.24745551 -0.10627267 0.013727086 -0.0116137825 0.030279612 -0.19145495 -0.030389449
0.06531323 -0.047864214 -0.03991359 -0.08052419 0.09865597 -0.13162498 -0.12239887 -0.22859551
-0.08691711 0.021971263 -0.25976866 -0.039251287 0.08145957 0.07913449 -0.23160839 0.04187915
0.1750494 0.07568201 -0.11197677 -0.029925054 -0.023369944 -0.028119957 -0.15551323 -0.10832218
-0.1816689 -0.024714544 -0.068154335 -0.03105348 -0.027332421 -0.038831465 0.13112189 -0.10693895
0.034003507 0.07232953 -0.07400428 -0.2927343 0.09107344 -0.07612221 -0.089070536 -0.08298733
-0.1643753 0.03709152 0.16121148 0.10605236 -0.1024501 -0.21582524 0.051553246 0.012707967
0.05071991 -0.12604982 -0.09546282 0.13400093 -0.07251439 -0.13579684 -0.18133673 -0.12584056
-0.042773493 -0.12399985 -0.15439294 0.09611822 -0.11463825 -0.01860804 0.022309689 -0.182516
-0.08541142 0.019498734 -0.013410544 0.05092714 -0.23351698 -0.041060355 -0.030570632 0.10750628
0.015250716 0.3128106 0.1244706 0.016504424 0.23428497 -0.019358894 0.10044312 -0.005703719
0.074211 0.029605137 0.21237814 -0.003720161 0.22982389 0.0012684822 0.16774897 -0.047225676
-0.15618838 -0.1510155 -0.0718897 -0.17284225 -0.016144771 0.14123575 -0.0171446 -0.14862712
0.2902226 -0.0036406682 -0.13799658 0.043756656 -0.023829063 -0.1179925 -0.087771475 0.08052326
0.014419897 0.04229559 -0.20031328 -0.06508493 -0.061908603 -0.012895711 -0.24429455 -0.07970229
-0.13303758 -0.03010139 -0.047189284 -0.02524173 -0.083700806 0.06286353 -0.18659803 -0.0501872
00000000: 37f8 18bd 5b5a 163d 424d 9f3d 9bb4 06be
00000010: 5940 ac3c 68de da3d b847 a2bd 7bad 0dbe
00000020: 6a67 9dbe 2393 953d 9098 ba3b 18ea 04be
00000030: 24e2 213e 88b3 c0bd 0529 d2bc 7f0f a53d
00000040: 0961 dcbd f6ac cc3c 60ce 0e3e 1a22 95bd
00000050: fa93 913d 35ee 9ebd 965a 1bbe a77d 30be
00000060: 285d ebbc d932 123e b81a 3d3d ee59 04be
00000070: bbb9 2ebd 9cce acbe 70ff 70bd 9f34 fa3d
00000080: 91a1 b23d 2ccf a63d ea65 80be 9036 29bd
00000090: f928 13bd b595 9cbd a8ed 023e 5875 d2bd
000000a0: 615f e83c 0546 96bd f3fe b43d cc6f 2e3c
000000b0: 50cf 44bd 78a8 5d3e e7b3 a63c 9f4c e4bb
000000c0: eea4 abbd 21ae 043d 13d3 9fbd db9b 5abd
000000d0: 963d 733e 13ac fc3b c5de ff3d fa9e fa3d
000000e0: e98e 2d3e 001f d8bd 4e1a cdbc 91be c4bd
000000f0: e11c dc3d 290e 07be 94cd 65be 2433 cfbd
00000100: c42a d93c a431 7c3c 3675 94bd 62e8 233d
00000110: 05d0 273e 98be 56bd 6045 6abe a82f 8b3d
00000120: c17d 06bc d119 24be 0f7d e9bd c9b4 2abe
00000130: b06d 56be b1d4 733d 597a 20be 0148 08be
00000140: 4c43 a83d d926 84bd 20cf 223d e592 6dbd
00000150: 1941 f4bd 4788 ca3d ca76 59bd 6643 ab3d
00000160: 773e 2a3d 4224 08be 34ad 21bd 89c8 e93d
00000170: dbb2 763b 0cad 0ebd 1466 16bd d9f7 e2bd
00000180: 0d3c 45be c277 02be 3057 21bd 71c1 093e
00000190: 4575 053e cf50 133d 6c4c 0ebe 99e4 cebc
000001a0: a232 0abe 7f24 1fbe 626c c1bd d783 03be
000001b0: caea 32be d91e f7bd 5438 e13c 49a5 05be
000001c0: c323 0b3d 5b5b 61be d854 95bd 2091 223d
000001d0: e6d3 6abe a3bb b2bd 6643 18be d387 ea3d
000001e0: c537 81bd 4744 ce3d cd3d 74bd a7ef 9bbd
000001f0: 1e5b d13d 41e8 b23c 03bf 0c3b f360 bebd
00000200: f98b ebbe fa64 7dbe 7ca5 d9bd 92e7 603c
00000210: bc47 3ebc f30c f83c c40c 44be 4bf3 f8bc
00000220: f1c2 853d 440d 44bd 6f7c 23bd dee9 a4bd
00000230: 240c ca3d b3c8 06be 42ac fabd f114 6abe
00000240: 9901 b2bd 14fd b33c 6600 85be f5c5 20bd
00000250: 46d4 a63d 4311 a23d c02a 6dbe 7989 2b3d
00000260: 2640 333e 2bff 9a3d 1454 e5bd 6325 f5bc
00000270: 5372 bfbc d35b e6bc dc3e 1fbe 05d8 ddbd
00000280: 6a07 3abe 2876 cabc 8094 8bbd de63 febc
00000290: 3ee8 dfbc be0d 1fbd d144 063e cf02 dbbd
000002a0: 4347 0b3d 8121 943d 8e8f 97bd 45e1 95be
000002b0: b684 ba3d f6e5 9bbd 9d6a b6bd 43f5 a9bd
000002c0: 0052 28be 47ed 173d 9f14 253e fb31 d93d
000002d0: 5cd1 d1bd 4b01 5dbe 7f29 533d 1435 503c
000002e0: aebf 4f3d 3413 01be 0382 c3bd 8a37 093e
000002f0: 6d82 94bd 540e 0bbe 56b0 39be 59dc 00be
00000300: 4233 2fbd a2f3 fdbd 2f19 1ebe a1d9 c43d
00000310: 75c7 eabd e36f 98bc cfc2 b63c 79e5 3abe
00000320: 2fec aebd cfbb 9f3c e6b7 5bbc fa98 503d
00000330: 131f 6fbe e72e 28bd 436f fabc 412c dc3d
00000340: 24de 793c b628 a03e 71ea fe3d 4934 873c
00000350: 66e8 6f3e 8b96 9ebc 1fb5 cd3d 43e6 babb
00000360: f0fb 973d 7986 f23c a879 593e f2cd 73bb
00000370: f456 6b3e 3343 a63a 63c6 2b3e b66f 41bd
00000380: d9ef 1fbe cfa3 1abe e83a 93bd 8ffd 30be
00000390: 0a42 84bc 1ba0 103e d572 8cbc b531 18be
000003a0: 0e98 943e 4798 6ebb fa4e 0dbe 2e3a 333d
000003b0: 2b35 c3bc 0da6 f1bd 88c1 b3bd 61e9 a43d
000003c0: 6f41 6c3c 243e 2d3d ed1e 4dbe 3f4b 85bd
000003d0: e093 7dbd 8848 53bc 5a28 7abe f43a a3bd
000003e0: 013b 08be 3197 f6bc 8d49 41bd bfc7 cebc
000003f0: 546b abbd 98be 803d 8e13 3fbe 1891 4dbd
