RollerAgent/Assets/Learn/RollerAgent_05.onnx (onnx, 78271 bytes, 7 tensors)

action_model._continuous_distribution.log_sigma f4 [1, 2]
00000000: 41df 79be d146 a9be
-0.24401571 -0.3306184

action_model._continuous_distribution.mu.bias f4 [2]
00000000: 1b3b 5dbd 691e b13d
-0.054011445 0.086483784

action_model._continuous_distribution.mu.weight f4 [2, 128]
00000000: a357 7f3c c056 03be 05f4 4d3d f66e a13d
00000010: 1b40 133d 4c41 07be 5a67 c4bd 5590 e5bd
00000020: 28d8 6b3d 6d50 91bc df42 3c3d 30ae f0bd
00000030: 8d40 56bd 7986 c23b cbf9 f33c 394a 85bd
00000040: ab8d 76bd 1747 eebd 370b a13d fd05 c3bd
00000050: 7bb4 9cbb b00c 05be 9da4 1ebe 04dc 4ebe
00000060: 9f4d 08be 79c2 8dbd 93f5 d6bd 369a 00be
00000070: e2f4 2dbe 5705 023d 9e4d f1bc c599 12bc
00000080: 945e 8f3a 3547 873d 8b84 14be 4b61 4e3d
00000090: 983c a3bd a4f8 9abd 78c5 00be a7c5 18be
000000a0: 8e5d 80bd 0771 81bd 604d 7f3d 7a8a 7ebc
000000b0: 9f3d 0ebe 9450 f53c e1a6 1b3e 7391 98bd
000000c0: 3b11 cc3c 5530 d0bd 7e68 623d 8d56 b5bc
000000d0: 75fd 2fbd 6ddf 13bd c61c ffbc e4f4 533d
000000e0: 3aef b83d 7650 6ebd f125 0cbd 671b 9abd
000000f0: 7aa5 d7bc 5a80 02bd d874 1ebd 0443 0fbc
00000100: fb18 23bd 814e cbbd 6730 46bd 2e2f eebc
00000110: c265 8bbc a454 88bd 067e fdbd 5f75 dd3c
00000120: f22a 303d 1acf debc b854 96bc 3ea2 07be
00000130: 2eda cdbd 2eb4 9cbc 9f80 21be f753 cdbd
00000140: 211a 34be d7e8 183d d7de 90bd cf4a c0bd
00000150: 967a 17bc 0f4e 9d3d 985e be3c fbe6 48bd
00000160: ffe3 8cbd b65d 8fbd 0bd3 e7bd 4a3d 8abd
00000170: c948 73bd 0630 983d 3973 acbd 5914 d2bd
00000180: 9487 ccbd e921 20bd 579e 7dbd cb42 2fbd
00000190: 4b29 68bd a4f8 b7bd b15b d23d 13d5 d4bb
000001a0: 7f00 c4bd c1b8 fbbd 9fc6 33bc eb9c a33c
000001b0: 32c7 c13d 91f3 8abd 99f9 d3bb 3df4 26bd
000001c0: 9171 42be 05c9 d9bd 99cb 93bd ba50 12bb
000001d0: d273 d1bd 230e 66bd f7d2 af3c cdc0 9dbd
000001e0: cdde c4bd 68a8 d6bd 8a0f 123c 4d25 3ebd
000001f0: 8da6 babd abab 50bd f316 163d bdc0 ebbc
00000200: fd20 39bc be28 16bd 9dfc e4bd cd27 cf3c
00000210: 1d19 8cbd e2ee 6dbd edfa 1a3d ea3e 41bc
00000220: 75cb 57bd e49c 10be db37 3ebd 42e6 7abc
00000230: f8e4 84bb a165 3dbd d987 003d 01bc 2f3a
00000240: 9785 e33b 4039 dcbb 1991 22bc b576 8bbd
00000250: 09e8 06be cb94 89bd 7423 4b3b 8c8d d439
00000260: 40ac e6bc 9bf9 573c 01d3 b3bb 5322 8a3b
00000270: 7b83 62bb c28e ed3d eef7 1fbd 8557 76bd
00000280: b4db 04bd 775a 63ba 7804 783b b285 c53c
00000290: e2b7 56bd 5631 653c 1149 d5bc 81ad c6bc
000002a0: 41b1 af3c 4745 933a 8feb 59bd ab7d a9bc
000002b0: aa15 6cbd 0cc5 8ebb 2ba5 75bd f602 84bd
000002c0: ec83 cfbd 953f 26bc 243f a3bc e888 043d
000002d0: 289d 9d3d f90e f03c 0712 20bd 0598 353d
000002e0: ced2 07bd efd8 833d 10e5 bfbd c81f 9c3c
000002f0: 218b 91bd 4315 f23c 5a5d 383d c2f2 46bd
00000300: d3fe f03c bb69 0abc 15ea 053d 998e 523d
00000310: b3de b0bd 7a8f b63d 6592 aebd 7718 5f3d
00000320: 5fb6 81bb 1f2c 71bd e9a2 dabc e110 b8bc
00000330: 69a2 5e3b 1512 1abe 613d 4abd 4a5e a7bc
00000340: 0356 0fbd d8c9 eebb 5db4 5abc 89cf a1bc
00000350: 6833 86bd 89b2 c4bc 08c7 d53c a1db 86bd
00000360: 85a8 71bc 2fd7 ca3c 490a 243d de57 2e3b
00000370: bdd1 a1bd 8dba b33c 024b ac3c d6c6 5b3d
00000380: ff10 adb9 b1a6 893d dd00 80bc 8d61 27bb
00000390: 8a28 97bd 09b4 90bc 9390 83bd 934d 343d
000003a0: 151c 0ebd 6728 b03c dff1 573d a13c 13bd
000003b0: 7c1d 54bd 7aab 113c b361 1b3d 762d b2bd
000003c0: 795a 553c 6bb6 a9bd aee2 7ebb daa3 1fbd
000003d0: e80e e8bb c9e7 053d dd7a 8f3b 74a5 cebd
000003e0: 21e5 92bc 218d bbbc 69ba d7bd 401d 183b
000003f0: dafb bb3d be24 06bd eb16 03bd 4694 c2bc
0.015584859 -0.12826061 0.050281543 0.07882492 0.035949808 -0.13208503 -0.09590025 -0.1120917
0.05757919 -0.017738545 0.04596221 -0.11751974 -0.052307654 0.0059364405 0.029782197 -0.065082975
-0.0601937 -0.11634653 0.07863467 -0.095226265 -0.004782257 -0.12993121 -0.15492482 -0.20201117
-0.1331086 -0.06921858 -0.10496058 -0.12558827 -0.16987947 0.031743374 -0.029455956 -0.008947794
0.0010938221 0.066053785 -0.14503686 0.050385755 -0.07970542 -0.07566956 -0.12575328 -0.14919148
-0.06267844 -0.063203864 0.06232965 -0.015535945 -0.13890694 0.02994565 0.15200378 -0.07449617
0.02491056 -0.101654686 0.055275433 -0.022135997 -0.042966325 -0.036101747 -0.03114165 0.051747218
0.09030004 -0.058182202 -0.03421587 -0.07524758 -0.026324023 -0.031860687 -0.03868565 -0.008744005
-0.039818745 -0.09927083 -0.048386004 -0.029075231 -0.017016295 -0.06656769 -0.12377553 0.027033506
0.043009706 -0.027198363 -0.018350944 -0.13245484 -0.1005138 -0.019128885 -0.15771721 -0.10025781
-0.17588092 0.03733143 -0.07073753 -0.093892686 -0.009245535 0.07680904 0.023238465 -0.049048405
-0.06879424 -0.07000296 -0.1131955 -0.06749971 -0.059395585 0.07431035 -0.084204145 -0.10257787
-0.09986797 -0.03909484 -0.061918583 -0.042788308 -0.056680005 -0.08982971 0.10271395 -0.006495127
-0.09570407 -0.122910984 -0.010972648 0.019972285 0.094618216 -0.06784738 -0.0064689633 -0.040760268
-0.18988635 -0.106340446 -0.072165675 -0.0022325949 -0.10227169 -0.056165826 0.0214629 -0.077027895
-0.096128084 -0.1048134 0.008914838 -0.04642229 -0.09113798 -0.050944965 0.03664298 -0.028778428
-0.011299369 -0.03665995 -0.11180995 0.025287533 -0.068407275 -0.058089145 0.037836958 -0.011794785
-0.052684266 -0.14122349 -0.046439987 -0.015313687 -0.0040556155 -0.0462395 0.031379554 0.0006703735
0.0069434154 -0.006720692 -0.009922289 -0.06809751 -0.13174452 -0.06717833 0.0030996474 0.00040541252
-0.028158307 0.013182069 -0.0054878 0.0042155175 -0.0034563232 0.115994945 -0.039054804 -0.06014206
-0.032436088 -0.0008672843 0.003784446 0.024111602 -0.052421458 0.013988813 -0.026035817 -0.024252655
0.021446826 0.0011235856 -0.05320316 -0.020689806 -0.057637848 -0.004356986 -0.05997197 -0.06445877
-0.10132584 -0.010146995 -0.019927569 0.032357126 0.07695991 0.029304015 -0.039079692 0.04433443
-0.033160023 0.06437861 -0.09369862 0.019058123 -0.07106615 0.029551154 0.045010902 -0.048571356
0.029418385 -0.00844806 0.03269394 0.051405523 -0.086362265 0.08914085 -0.08524016 0.05446669
-0.003958508 -0.058879968 -0.02668901 -0.022468986 0.0033971316 -0.1504596 -0.04937494 -0.020430703
-0.034994137 -0.0072872452 -0.013348666 -0.01975228 -0.06552774 -0.024010913 0.026095882 -0.0658486
-0.014749651 0.02476081 0.04004887 0.0026602666 -0.079013325 0.02193954 0.02103186 0.05365642
-0.00033009794 0.06721247 -0.015625412 -0.0025540323 -0.07380779 -0.017663972 -0.0642406 0.044019293
-0.03469475 0.02150364 0.0527209 -0.035946492 -0.05178593 0.008890981 0.03793497 -0.08700077
0.013022059 -0.082867466 -0.0038892436 -0.03897462 -0.007081855 0.03269175 0.00437866 -0.100901514
-0.017931523 -0.022894444 -0.10533602 0.0023210794 0.09178896 -0.032749884 -0.03200428 -0.023752343

network_body._body_endoder.seq_layers.0.bias f4 [128]
00000000: b91c 15be e057 d4bd 4b86 9cbd 72e6 e6bd
00000010: cc73 563d 1b61 b9bd d3cc 82bd b9b4 3cbe
00000020: 2e7d 2cbd 5415 d5bd a8dc cebd c5ec 6f3d
00000030: ea82 f2bd 2703 18bd 92ba 84bd cac3 72bc
00000040: 4f3a 3cbd fa1e d43c ef5c 9e3d 54a6 99bd
00000050: 509c 17be 1cb4 363d 717a b63d 8df2 94bc
00000060: 511d a4bd 6c9d 06bd fbd0 5a3d 3280 e5bd
00000070: 3d8a cbbc 6af4 133d 8e2e 4ebd e58e f5bc
00000080: ca90 f5bd 26ca 29bd c7e0 2ebd 2c9b a33d
00000090: f32a d43c 0095 d0ba 7d0e ffbd 9977 04be
000000a0: a487 eebc 8b01 87bc 728d 25be e3fe c6bc
000000b0: 84a4 423c e10d 0cbe 26d3 13be 24df a6bd
000000c0: 99a9 bdbc d6a4 023e 4e9f 05be ddaa 04be
000000d0: d094 57bd 7a08 1bbe 7b35 cdbd 3148 8e3d
000000e0: 59a3 85bc 4943 e03a 83b9 98bd 288d 343d
000000f0: ebca 12bc 8e40 753d 0ea1 c1bc 8f78 86bd
00000100: 3c8a 75bd c357 92bd 2569 84bd d6ff 9abd
00000110: bf82 49bd 3856 02be 6f71 b3bb 2e14 e4bc
00000120: 2cd1 b6bd 3afb 83bd 9c63 3ebe 49d1 f0bd
00000130: f324 74bd 368e e1bd 0f2f 01be 8422 e0bd
00000140: 58ca bfbd 0eaf abbd ceb4 0ebe 6285 aabd
00000150: 427d d6bd e807 5dbd c058 b2bc 107c 16bd
00000160: 818c 0dbe d0b8 b6bd 102b 20bd d298 403d
00000170: 70a8 e2bd ceda abbc 47d1 f0bd 4f60 f7bd
00000180: a6cb a13d e7e6 35be c33b 573c 85e0 c0bb
00000190: d08d b8bc 0b1d 1b3c 6244 f0bd 85ef 113c
000001a0: 490e 2abe 5a7b a9bd 5a85 6abd def8 babd
000001b0: c9ab 6dbd 35ae f4bd ff52 27bd 7e09 353c
000001c0: f695 8bbd ff25 a2bd 7157 1cbd 6f27 48bd
000001d0: 52f9 14be 36c0 123d d2be d3bc b068 c43c
000001e0: 8dfe 48bc 6431 62bd 1e11 2ebd 75eb a3bd
000001f0: 8ccc 1e3d acbe 55bd fe79 833c ba46 bbbd
-0.14561738 -0.10368323 -0.07642802 -0.11274423 0.052356526 -0.090517245 -0.06386723 -0.18428315
-0.04211157 -0.10404459 -0.101006806 0.05857541 -0.11841376 -0.03711238 -0.06480898 -0.014817188
-0.045954045 0.025893677 0.077325694 -0.07502428 -0.14805722 0.04460536 0.089100726 -0.018182063
-0.08013404 -0.032864973 0.053421956 -0.11206092 -0.02484619 0.036121763 -0.050337367 -0.029975364
-0.11990507 -0.04145255 -0.042694833 0.07988581 0.025899386 -0.0015913546 -0.12453935 -0.12936248
-0.029117413 -0.016480228 -0.16167238 -0.024291461 0.011880044 -0.1367717 -0.14436015 -0.081480294
-0.02315216 0.12758192 -0.13049051 -0.12955804 -0.052632153 -0.15139952 -0.10019966 0.06947363
-0.016313242 0.0017109896 -0.074572586 0.04407993 -0.008959512 0.059876017 -0.023636367 -0.065659635
-0.059946284 -0.071456455 -0.06465367 -0.07568328 -0.049196955 -0.12728202 -0.005476169 -0.027841654
-0.08926615 -0.06444402 -0.18592685 -0.11758668 -0.05960555 -0.11013453 -0.12615608 -0.10944083
-0.09364766 -0.083829984 -0.13936159 -0.08326222 -0.1047311 -0.053962618 -0.021770835 -0.03673941
-0.13823129 -0.08921969 -0.039103568 0.04702074 -0.11067283 -0.020978358 -0.117586665 -0.12078916
0.07900171 -0.17763864 0.013136807 -0.00588614 -0.022528559 0.009467374 -0.11731793 0.008907204
-0.16607012 -0.082754806 -0.05725608 -0.09129499 -0.058025155 -0.1194729 -0.040850636 0.011049626
-0.06815712 -0.079174034 -0.038169328 -0.04886573 -0.14548233 0.035827838 -0.025847826 0.0239757
-0.012267721 -0.055222884 -0.042496793 -0.08003894 0.03876929 -0.052183792 0.016049381 -0.091443494

network_body._body_endoder.seq_layers.0.weight f4 [128, 17]
00000000: 2280 a6bc 55fe 3abe 4c1b 173f c75b b33e
00000010: 914a c4be b6a0 133d 2e17 0f3e 8092 2cbf
00000020: 006c 97be 0f55 93be 7ece 88bd 9ea2 0a3e
00000030: 56a9 08be e7aa 10be f11e 2a3e 502c 623d
00000040: 263c 14be 3eae 02bb 6c30 25be bef1 dfbe
00000050: f4d5 8f3e 0c71 e3be 9990 f63d a8e4 943e
00000060: 8b52 8a3d 815b e13c 7590 b33d 80c7 c3bd
00000070: ed09 633d 5e89 33be 57df 17bf 6bd0 2c3e
00000080: 5b76 b73e 37d0 6a3e 7dd3 37be 3348 193e
00000090: 78da b1bc a5d1 ca3e b583 073d e26d f2bd
000000a0: 4a3a 313c 4919 e1bd 2cd4 eebc 150e c33e
000000b0: 9236 943d 2f74 39bc 88e3 dfbe 272f 0ebe
000000c0: 4d09 713d 5391 b0be d9b1 19be 3736 0a3e
000000d0: d8c4 10be 6ce1 73be 2637 99be b001 ebbe
000000e0: 9c22 debd 9e86 6abe 6d32 553d 5a13 1bbe
000000f0: 4b50 193e e86b 2cbe 18d7 bd3e 2120 a63d
00000100: 9824 c03d 13c9 fc3c 9fc1 0e3b c27d 463e
00000110: 84cd 053e beaf d3be 77ed 133f 5c6e c13e
00000120: d151 353e 3aaa 85be e062 af3c 32d9 3e3e
00000130: 7505 edbd 7c6b 3abe 0c88 2c3d 7107 d13c
00000140: 4141 9abe c880 c83e d40c 23bf bc32 823e
00000150: fb27 9d3d 901f 82bd 0a1e 05be 41bc f6bd
00000160: 8368 28be 0851 823d 100d 28bf 5712 b8bd
00000170: 8a3f 3f3e 797f 0e3e 5e77 32be 763e 39be
00000180: a558 0a3e ede5 13bd ce1a 043e 5d1e f7bd
00000190: 8a7a cebe 365e f2bd 7de2 19bb 01b8 94bd
000001a0: cb62 46be c04b b5bd 9e9a 41bd 0567 453d
000001b0: 2128 12be 5923 a33c 6506 5c3e 77e0 b83e
000001c0: 9c7e 793b b609 0f3f 1c6d febe 7328 06bd
000001d0: f0f9 c43d 635f 8d3e d871 ee3e f724 65bd
000001e0: ba6b 173e 3317 383e 768d 3d3d c0f5 963e
000001f0: d06a 3abd 340f dfbe 42e3 d9bd d869 a13e
00000200: f8ff e03c 2a20 83be c6a2 adbc d258 243c
00000210: 812e 65be 68c3 9d3d d03a 0cbe 0175 a13e
00000220: c522 543b a8a1 09be a4df 24be 8e5d 16be
00000230: 8ff2 d6be 6a12 d03e 67de a33e c283 7cbe
00000240: 2eda 713d 7dbc 8c3c 5e0c 3ebe 0df8 d9bb
00000250: ab49 9d3c 6b8f e73b 2f6b 303e 9176 e03d
00000260: 5983 a53c bfb4 03be 1fad 173e f150 b03e
00000270: 13f8 5e3e 192f 64be f748 e2bd 4f05 36bd
00000280: 7ce3 54be e316 663e afbb b8bd 8301 b33d
00000290: 547c 1abe e821 6d3d 603d a63e 64cd 5a3d
000002a0: eb59 853e c294 193e a7fd 8e3e 6afa f1bd
000002b0: 6010 bc3d babd bcbd afe6 673e 9396 7a3e
000002c0: 7842 f53c 455d 5b3e 41d7 5c3d a9a6 253e
000002d0: 8142 e5be db6f 053e 20ed 0bbf 7a4d 78be
000002e0: 8e84 bbbe aeee ce3e d687 84bc c10e 3ebe
000002f0: 9c18 b7be 8383 303e 8fa8 123c a326 a5be
00000300: bd25 fe3d 4832 263d 5711 5e3e 80d7 29bd
00000310: 02a9 953d ec9d 21be 5ecd 91bd 7b70 723e
00000320: 69e9 64be 08b4 943e 7636 ecbe 8f04 23be
00000330: 7357 93be fd50 883d 772d c4bd 2f6d 2fbe
00000340: af34 afbd 8867 8dbe 965e ba3c fdbc fcbd
00000350: 7baf 69bb 5bda 60be 08d3 5fbe 2de2 783e
00000360: dafa 59be 108d 5dbe a69c 9d3e 8930 f83c
00000370: 9122 bf3b fb7f 8fbd 2adb a13c e979 07be
00000380: e76d 11be 724e debe 41eb e93d 3bd8 73bd
00000390: fb05 973e bec8 0b3e 0935 d6be 4909 9d3d
000003a0: b2eb 823d fc43 a13e c7be a13e 944a c5be
000003b0: ce06 b03e 57b6 a93d fc25 2ebe b98e 863d
000003c0: f6b1 9b3e 89ca 243c c614 cebe 68cd 31be
000003d0: 99f2 7ebe 64f7 a4be f53d 51be 3b68 293d
000003e0: f0ee 13bd 0d2e 94bd 906f 2c3d 430f e63c
000003f0: 698c 29be ef7f 313e 9c3d 45bc cdcc 03be
-0.02032477 -0.18261082 0.59026027 0.35030958 -0.3833814 0.036041938 0.13973686 -0.6741104
-0.29574585 -0.28775832 -0.0668001 0.13538596 -0.13345847 -0.14127694 0.16613366 0.05521804
-0.1447607 -0.0019940282 -0.16131753 -0.43739122 0.2809292 -0.44422185 0.120392986 0.290807
0.06754025 0.027509453 0.08767787 -0.09559536 0.055429388 -0.1753287 -0.59325165 0.1687638
0.35832486 0.2293099 -0.1795177 0.14968948 -0.02171062 0.3961307 0.03308459 -0.11837365
0.01081712 -0.10991151 -0.029153906 0.3809668 0.07236971 -0.011319204 -0.4372828 -0.13885175
0.05884676 -0.34485874 -0.1500925 0.13497244 -0.1413759 -0.2381646 -0.29924887 -0.45899725
-0.10846445 -0.22902915 0.052050043 -0.15144101 0.14972036 -0.16838038 0.37078166 0.08111597
0.0938198 0.030857598 0.0021782888 0.1938391 0.13066679 -0.41345018 0.5778422 0.3777951
0.17706992 -0.26106435 0.021409452 0.18637541 -0.115733065 -0.18205065 0.042121932 0.025516244
-0.3012791 0.39160752 -0.6369145 0.25429332 0.07673641 -0.06353676 -0.1299974 -0.12047625
-0.16446118 0.06363112 -0.6564493 -0.08987873 0.18676582 0.13915814 -0.17428347 -0.18090233
0.13510378 -0.036107946 0.1290085 -0.12066338 -0.40327865 -0.118343756 -0.0023480945 -0.072616585
-0.19373624 -0.08852339 -0.047266595 0.04819395 -0.1427312 0.019914316 0.21486814 0.36108753
0.003806985 0.5587419 -0.4969262 -0.03275342 0.09617984 0.27611837 0.4657123 -0.055943456
0.14787188 0.179776 0.046277486 0.29484367 -0.04551202 -0.43566287 -0.10639049 0.31526065
0.027465805 -0.25610477 -0.02119578 0.010030942 -0.22381021 0.077032864 -0.1369431 0.3153458
0.0032369357 -0.13440573 -0.16100937 -0.14684126 -0.41981933 0.4063905 0.32005617 -0.24659637
0.059045963 0.017179722 -0.18559405 -0.0066518844 0.019200167 0.0070666573 0.17228387 0.10960115
0.020204233 -0.12861918 0.14812134 0.34436753 0.2177432 -0.22283591 -0.11049073 -0.044438656
-0.20789903 0.22469668 -0.09020173 0.08740523 -0.1508649 0.057893664 0.324687 0.053418532
0.26045164 0.14998153 0.27927896 -0.11815341 0.09182811 -0.09215875 0.22646593 0.24471502
0.029938921 0.21422298 0.05391622 0.16176857 -0.447773 0.1303095 -0.546587 -0.24248305
-0.3662457 0.40416473 -0.016178053 -0.18560316 -0.35760963 0.17237668 0.00895132 -0.3225604
0.12409542 0.040575296 0.21686302 -0.041465282 0.07307626 -0.15782899 -0.07119249 0.2367572
-0.22354664 0.29043603 -0.461353 -0.15919708 -0.28777656 0.06656072 -0.09578984 -0.17131494
-0.085549705 -0.2761805 0.02275018 -0.12340734 -0.0035657573 -0.21958296 -0.21857846 0.24305029
-0.21287099 -0.21635842 0.30783576 0.03029658 0.005832978 -0.07006832 0.019757826 -0.13230099
-0.1420208 -0.43419224 0.11421824 -0.059532385 0.2949675 0.13650796 -0.41837338 0.07667787
0.063926116 0.3149718 0.31590864 -0.3853346 0.34380192 0.08286732 -0.17006677 0.06570191
0.3040921 0.010058054 -0.40250224 -0.17363513 -0.24897231 -0.32219994 -0.20433791 0.041359168
-0.03611654 -0.07235346 0.04209858 0.02808345 -0.16557468 0.17333959 -0.012038615 -0.12871094

network_body._body_endoder.seq_layers.2.bias f4 [128]
00000000: b5c0 cdbc 8fc7 27bd 3cfa e4bc 3634 0bbd
00000010: 5ce4 433c 96b5 2ebc d28d 72bd 58c8 b7bc
00000020: c6f7 07bd f2cc e23c d7d0 b5bc f872 aebd
00000030: 4570 54bd 47cb a23c 1737 02be 744d cabd
00000040: 860a 46bd 89c2 dfbc 4868 dc3c 099a 62bd
00000050: 9d6b 7b3c 7c8c 24bd fb2e 88bd a7b6 e1bd
00000060: ac2f a5bc 02b7 2ebd eeaf ccbd b737 a5bd
00000070: 9804 6cbc f4b2 9fbc 2d51 283d af34 07be
00000080: d22d bfbd 5c08 aabd 170e 42bd 2f68 0dbe
00000090: 5314 15bd beb7 0ebe 3e72 65bd 8856 e0bd
000000a0: b9be 03be 2dcc 2bbe 6631 bfbd a80d 0dbe
000000b0: 3364 5ebd a857 e5bd d3f6 57bd 7bed 40b9
000000c0: 324f babd 2971 aabd 556a d1bd 3099 29bd
000000d0: c1fb 94bd 714c a2bd 609e 20be 659f 683d
000000e0: 0419 a1bc 427b 31bd 7975 24bd 37d5 62bd
000000f0: ec88 82bd a6c3 5e3c 1052 09be 55ac bc3b
00000100: e1c1 cdbc 61d8 c8bd 03ad f6bd 0b7f 953c
00000110: 479a a6bc 2028 033c 9cb1 8b3a 7a25 043d
00000120: 2081 133c 2f55 733c 1bc7 83bc 94ed 35bd
00000130: 2ebe f4bd 5223 083d dcec 0f3c 25cc ddbc
00000140: c814 cfbd c892 98bd d42c ddbd 88f8 123c
00000150: 5248 323b 7e30 2b3d e64b 3fbe 9bd8 653b
00000160: 8562 adbd d75f e1bc c830 7ebd 05aa 3ebd
00000170: 6f59 99bd 5b31 eb3c b197 fabc ce97 94bd
00000180: 8153 8bbd 90b7 06be 9ff3 f3bd 67e4 14be
00000190: 95e1 9dbd dccb e6bd 7f03 38bc 1979 0fbd
000001a0: 5d98 86bd 9ea2 fabd b7d8 743d 19b3 b3bd
000001b0: dd12 103d 6c88 37bd 411d dcbc 9127 fdbc
000001c0: edf2 eebc 987b 58bd 8d7f 9dbd efd6 3cbd
000001d0: 8579 72bd 23b2 23be d88b 25bc cecd babd
000001e0: c04c 88bd 605c 23bd 7585 24bb 18bb 8bbd
000001f0: e30d 75bd 4633 0cbe 5bc2 3bbd 3588 61bd
-0.025116304 -0.0409618 -0.027951352 -0.03398534 0.011956301 -0.010663411 -0.05921728 -0.022434399
-0.03319528 0.027685616 -0.02219431 -0.08518022 -0.05186488 0.01987232 -0.12716328 -0.09878054
-0.04834988 -0.027314441 0.026905194 -0.05532268 0.015345481 -0.04017304 -0.06649586 -0.11021166
-0.020164333 -0.042655 -0.099944934 -0.080672674 -0.014405392 -0.019494511 0.04109304 -0.13203691
-0.093349114 -0.08302376 -0.04737672 -0.13809274 -0.036396336 -0.1393728 -0.056017153 -0.109540045
-0.12865724 -0.16777106 -0.09335594 -0.1377474 -0.054294776 -0.1119836 -0.052725624 -0.00018399015
-0.090971366 -0.08322365 -0.10225359 -0.041405857 -0.07274581 -0.07924736 -0.15685415 0.056792635
-0.019665249 -0.04333044 -0.040151093 -0.05537912 -0.06373772 0.013596451 -0.1341021 0.0057578483
-0.025116863 -0.09806896 -0.12044718 0.018249055 -0.020337237 0.008005172 0.001065779 0.032262303
0.009002954 0.014851852 -0.016086152 -0.044416025 -0.119503364 0.03323681 0.008784499 -0.027074883
-0.101113856 -0.07449871 -0.10799566 0.008970387 0.002720375 0.041794293 -0.18681297 0.0035071734
-0.08466057 -0.02751152 -0.06205824 -0.046548862 -0.07487761 0.028710058 -0.03058991 -0.07255517
-0.068030365 -0.13155961 -0.119117014 -0.14540254 -0.07709042 -0.11269352 -0.011231302 -0.035027597
-0.0657203 -0.12238048 0.059776988 -0.087743945 0.03517424 -0.044807836 -0.026869418 -0.030902656
-0.02916857 -0.052852243 -0.07690344 -0.046103414 -0.05919792 -0.15985923 -0.010104142 -0.091212854
-0.06655264 -0.039883018 -0.002510396 -0.06822795 -0.059827697 -0.13691434 -0.04583965 -0.055061538

network_body._body_endoder.seq_layers.2.weight f4 [128, 128]
00000000: fe4b f13c 0ce3 89bc dd8c 10be 0fc6 cfbd
00000010: 7c6e 183e 0a74 153e a02b 86bd 33a9 123d
00000020: 2cf6 6bbe 96e7 703d 972a 613d 551a 66bd
00000030: 5eb9 52be 0245 6ebd e8c3 4abe b02f c2bd
00000040: a769 3b3e 0df0 96be 8482 223e 7673 bebc
00000050: f044 56bc 449e 6abd a5db f3bd e164 eabd
00000060: 9edb 0fbe 3d5a 94bd f322 553d dc29 3e3d
00000070: 8739 433b 4516 e5bd 7b29 bcbd eddd a23d
00000080: e0eb b9bd 9d92 443d 6a3a 8bbb ec10 b2bc
00000090: 0695 5b3d c068 27be 4ac8 813b 70e8 55bd
000000a0: 6953 89bd eef8 1c3d c5a7 5cbc 6fcf 973c
000000b0: 029c 65be 1859 b83d c773 b4bd 7773 9ebe
000000c0: af9b aebd ef06 423e 54fc d8bd 2d8d 9cbc
000000d0: bf8b efbd 511c 3b3d ee83 a9bd 5fcb 21be
000000e0: 37db 64bd 6e3f 4b3c e7b5 1abe 2322 91bd
000000f0: c588 04be 0ac6 143e c468 c83c 1ab6 e9bd
00000100: 8b77 08be 9cd9 d5bd 4e4c ffb9 3d72 08bd
00000110: e7a8 6a3d 350b 9fbd 084b 1fbd a1f8 d33d
00000120: 5a04 7e3c 30f3 063e ca5f 00be b99b 93bc
00000130: 750b ffba 141d b13d 69e2 b43d 7c7a 083e
00000140: a70e 53bc 42fc 353e dd99 6e3e 6258 0b3d
00000150: eb41 8bbb ef65 3b3b 65fb b2bb 63d4 8e3d
00000160: b4b8 eb3d dbec 16bd 89b4 983c fbd0 04be
00000170: 719f 2d3e fd28 253d 0507 b3bd 21d5 1bbd
00000180: ae3f d83e 475d 8fbd 6f69 143e 7864 cdbd
00000190: 61f6 ebbd d31c 3cbd 17a0 01be 395f 84bc
000001a0: e785 e0bb 8e48 4f3d ffae a33c 9a74 c63c
000001b0: b6dd ec3d be63 60bd d656 573c 0e52 38bd
000001c0: aa4a 593d 0505 f63c 8007 a43d 2666 fdbd
000001d0: d34f 44bd f83d 6abd 4136 1abd fe2f 0b3d
000001e0: 2708 b0bd ae78 cb3d a357 4b3c a4c3 2abd
000001f0: 9c02 b13d 6d7f 213c ab71 f33d a952 8d3e
00000200: 9f17 48be 31cf 063e df74 f8bc 614c 523c
00000210: 7648 76bd 91ec 4abe c726 0dbe 49de 6ebd
00000220: 8965 a1bd 078f 10be 1621 a5be 2b97 1f3d
00000230: ad5c eebd b83d 7d3d a76c 043d 8a0b cbbc
00000240: bb61 733b ec56 0e3c 5411 d6bd bc7a b1bc
00000250: 5146 9fbd 85d2 9b3b b02f 42bd 180f 2cbd
00000260: 7dfa bbbd 7727 14be 5961 e4bd 0357 c1bd
00000270: ef56 47be 76af 1abd f296 b23a 2a0a b4bd
00000280: f230 c7bd cf44 fe3d 15cc 61be 9087 a3bc
00000290: 92ce c7bc 2b94 a7bd d45b 30be 6b63 19be
000002a0: 5df0 ba3b bb9b f2bd 2cf7 d4bd 4cfe 19be
000002b0: d033 06be 7f48 89bd fbdb 23be 1283 0c3c
000002c0: 544c 40bb 50a5 08be 25cf 663b f01c 233d
000002d0: 7ccc 70be 495f 643e 6695 cabd 17a0 5fbe
000002e0: 8f3a babd 4388 0abe 1f18 f2bd c772 653d
000002f0: 0406 7fbd 1dad 12be 59d2 2bbd 8a85 98bb
00000300: 22e7 21bd 573f 31be 25dc a8bd a852 3dbd
00000310: b206 d8bc 5d96 1bbe 237a cfbe 4058 b2bd
00000320: 38b7 293e 1ec2 ad3d 1a5c 2f3e 158d 3dbc
00000330: fbb6 a4bd 2a03 1c3d f893 643d 41bc 17be
00000340: 8549 643d fc66 193c 4908 0dbe a5c3 a5be
00000350: 877d 463e 7f54 72bd 0e04 0d3e 276a 3c3d
00000360: 1375 4d3d ec13 fcbd 783a 2ebd bced e33d
00000370: 438b de3c ef52 e4bd cc56 fbbd 85a9 993e
00000380: 06ad 67bd 39cb 9dbd 7780 a23d b891 dbbd
00000390: a2cb 31be 79f1 9c3d 1e56 753e f8dd ffbd
000003a0: 98c3 8bbd 6aa1 f03d 9657 2b3b c9bc a03d
000003b0: d474 d3bc bd19 73bd 61d6 ce3d 67e5 063e
000003c0: bc63 02be 2b8d 9b3d f4cf 27be 5b41 4fbe
000003d0: f6e6 153e df04 97bd 94eb 3abd 92fd d7bd
000003e0: 50e1 eebd a346 f0bc 95c5 62be c9dd 47be
000003f0: d3ab 66bd 280b 30bd 3f3a fcbc bcf7 1ebe
0.029455181 -0.016831897 -0.14116235 -0.101451986 0.14885896 0.14595047 -0.065512896 0.035805892
-0.23043126 0.058814608 0.054972257 -0.056177456 -0.20578524 -0.05817128 -0.19801295 -0.09481752
0.18302022 -0.2948002 0.158701 -0.023248415 -0.013077959 -0.05727984 -0.11907128 -0.114450224
-0.14048621 -0.07243774 0.052035283 0.04642664 0.0029788928 -0.11185888 -0.09187599 0.07952485
-0.09078193 0.047991384 -0.004248907 -0.021736585 0.053608917 -0.16348553 0.003960644 -0.052223623
-0.06705362 0.038323335 -0.013467734 0.01853153 -0.22422794 0.09001368 -0.08811145 -0.30947468
-0.08525788 0.18947957 -0.10595003 -0.019110287 -0.11696576 0.0456813 -0.08277117 -0.15800236
-0.055873122 0.01240526 -0.15108453 -0.07086589 -0.12942798 0.14528671 0.024464019 -0.11411686
-0.13326852 -0.10441896 -0.00048694242 -0.03331207 0.057289984 -0.077658094 -0.038889915 0.103501566
0.015503967 0.13178706 -0.1253654 -0.01801859 -0.001945837 0.08648124 0.08832247 0.13327974
-0.012881911 0.1777201 0.23300882 0.034019835 -0.0042498014 0.0028594693 -0.0054620975 0.06974103
0.11509839 -0.036846977 0.018640773 -0.12970345 0.16955353 0.040322293 -0.08741573 -0.038045052
0.42236084 -0.07000213 0.14493345 -0.100289285 -0.115216024 -0.045925926 -0.12658726 -0.016158687
-0.0068519 0.050606303 0.019980906 0.024225522 0.115657255 -0.05478262 0.013143262 -0.04500013
0.05304972 0.03003169 0.08009243 -0.12372999 -0.04792769 -0.057188004 -0.037649397 0.033981316
-0.08595305 0.09935127 0.012411031 -0.041690484 0.08643076 0.009857041 0.11886915 0.27602127
-0.1954026 0.13164975 -0.030329166 0.012835593 -0.060127698 -0.19816805 -0.13784324 -0.058317456
-0.078806944 -0.1411706 -0.32251805 0.038962524 -0.1163877 0.061826438 0.03233018 -0.024785776
0.003713711 0.008687716 -0.10452524 -0.02166497 -0.07777084 0.0047553205 -0.04740876 -0.042006582
-0.09178636 -0.1446818 -0.1115138 -0.09440424 -0.19466756 -0.03776499 0.0013625307 -0.08791001
-0.097261325 0.12415468 -0.22050507 -0.019962102 -0.024390493 -0.08182558 -0.1722253 -0.14979331
0.005704923 -0.118461095 -0.10398707 -0.15038413 -0.13105702 -0.06703281 -0.16001885 0.0085761715
-0.002934237 -0.13344312 0.0035218683 0.03982252 -0.23515505 0.22301973 -0.09891777 -0.21838413
-0.090932004 -0.13528542 -0.11821007 0.056017663 -0.062261596 -0.1432385 -0.04194865 -0.004654591
-0.039527066 -0.17309318 -0.08245114 -0.046221405 -0.02637038 -0.15194078 -0.4052287 -0.087082386
0.16573799 0.084842905 0.17124978 -0.011569281 -0.08042713 0.038088955 0.055805176 -0.14817907
0.055734176 0.009362932 -0.13772692 -0.32375827 0.19383822 -0.059162613 0.13771078 0.045999672
0.05016048 -0.12308487 -0.04253623 0.111293286 0.027166015 -0.11148631 -0.122724146 0.30012146
-0.056561492 -0.07704777 0.07934659 -0.10721153 -0.17362836 0.07663245 0.23958632 -0.12493509
-0.06824416 0.11749537 0.0026144735 0.07848508 -0.025812544 -0.059350718 0.10099483 0.13173448
-0.12733358 0.07595285 -0.16387922 -0.20239775 0.14638886 -0.07373976 -0.04563482 -0.105464116
-0.11664069 -0.029330557 -0.22145684 -0.19518198 -0.056316208 -0.04297939 -0.030789493 -0.1552419
