RollerAgent/Assets/Learn/RollerAgent_04 1.onnx (onnx, 78271 bytes, 7 tensors)

action_model._continuous_distribution.log_sigma f4 [1, 2]
-0.2072217 -0.22233497
00000000: ed31 54be c7ab 63be

action_model._continuous_distribution.mu.bias f4 [2]
-0.07661006 0.009134506
00000000: bce5 9cbd e5a8 153c

action_model._continuous_distribution.mu.weight f4 [2, 128]
0.061222937 0.010549399 0.036105473 0.037663504 -0.09273097 0.006914566 0.048840776 -0.016666364
-0.06335876 -0.07612237 0.11652146 0.1067088 0.029836148 -0.029655067 0.060842823 -0.017933829
0.06159392 -0.014976871 -0.035290755 0.084404126 0.04213937 0.058422904 0.040175628 0.081991695
-0.12892991 0.08794532 0.013407302 -0.03136358 0.0823672 -0.020717002 0.094682984 0.20934704
0.098302074 0.008883418 -0.05199142 0.021975756 0.10307616 0.015527962 0.060989108 -0.004046583
0.13775986 -0.029160282 -0.10092824 0.07885478 -0.060520153 -0.0400177 -0.14106719 -0.09111605
-0.08312729 0.050204854 -0.026962798 0.05098478 -0.08906402 -0.0012932328 0.050309375 -0.050971355
-0.0486451 -0.027706008 0.060735118 0.08718063 0.028023295 0.07267003 0.054767527 0.11656678
0.096409425 0.0043325615 0.11480339 0.11281799 0.034842014 0.027155675 0.0021332689 -0.089938626
0.07278549 0.040243108 -0.0044434527 -0.046188947 -0.09850887 -0.08147788 0.02660033 0.08794309
-0.05957413 -0.09285615 0.04079559 -0.031444523 0.08312035 -0.09586172 0.062246855 -0.049365547
-0.019219035 -0.11013902 0.034789287 0.011283048 -0.09250205 0.08406004 -0.06465512 0.046726752
-0.10719281 -0.13818432 0.036346544 0.1526394 0.10660478 0.05428703 -0.018128786 -0.0013873995
-0.042349547 0.09534203 0.011769259 -0.03295221 0.10320299 0.12857166 -0.01441493 0.054999877
-0.083159626 0.075129904 0.089005776 0.004493914 -0.07614892 -0.04692876 -0.010214725 0.014587129
0.07046024 -0.004071617 -0.024510833 0.10867066 -0.012015854 -0.01980286 0.042397555 0.030724114
-0.020781703 0.052198987 0.021964168 0.089950405 -0.0024077508 0.034907967 0.13797545 -0.026267467
-0.054412168 -0.07488906 -0.08313917 -0.118380055 0.011963517 -0.035093218 -0.02206246 -0.021673866
0.067890964 0.017109677 -0.037473224 0.04266204 0.04475696 -0.072379686 0.04217674 0.10551033
0.06274868 -0.052191656 0.046598323 0.03628106 -0.08537085 -0.019169766 0.090095416 0.001214627
0.1699684 -0.0100405365 0.051506612 0.003828661 0.00672289 -0.051397786 -0.020199873 -0.004386178
0.045068897 0.044418797 0.04178966 -0.0048359516 0.11267098 -0.0015644734 0.09883118 -0.0071905036
-0.011592689 -0.05993464 0.080055796 -0.12184882 -0.055112746 -0.06160486 0.0034946713 0.010074621
0.006199877 0.09762791 0.038622547 0.0061861696 -0.070422225 -0.047146726 -0.04893791 0.15452875
0.054645646 -0.018605893 0.043487266 -0.1444206 -0.044814385 0.00806314 -0.033718016 -0.032808363
0.10264011 0.035275064 0.07709216 0.055330988 -0.025487805 -0.012108782 -0.021892803 0.07532688
-0.07679121 0.12734313 0.0008713766 0.085797176 -0.18268326 -0.04330404 0.03396592 0.01642326
-0.036882006 -0.02454949 -0.08621775 0.110992454 0.011835214 0.15452318 0.031491492 -0.038712874
-0.10324509 -0.03134095 0.031631626 -0.063400246 -0.0965595 0.06093298 -0.13052829 -0.14487205
-0.008353597 0.029294765 0.08494057 0.05017394 -0.017598698 -0.05997313 0.029555 0.063962184
-0.07606127 -0.030305374 -0.027589608 0.048663788 -0.032750264 0.00016248143 0.10357746 0.0012482118
-0.025252327 -0.06754653 0.057352588 0.07243128 0.11772049 -0.033407245 -0.01373874 -0.061424356
00000000: e7c4 7a3d 63d7 2c3c 55e3 133d 0c45 1a3d
00000010: bce9 bdbd 9593 e23b 440d 483d e687 88bc
00000020: 3dc2 81bd 0ce6 9bbd cea2 ee3d 258a da3d
00000030: f06a f43c 2fef f2bc 5336 793d f7e9 92bc
00000040: e849 7c3d 8d61 75bc 0a8d 10bd 12dc ac3d
00000050: 559a 2c3d db4c 6f3d 338f 243d 43eb a73d
00000060: 3406 04be ad1c b43d 4daa 5b3c 1977 00bd
00000070: 22b0 a83d b4b6 a9bc 27e9 c13d 125f 563e
00000080: 9952 c93d c18b 113c f5f4 54bd 8006 b43c
00000090: 9819 d33d fe68 7e3c b7cf 793d 3399 84bb
000000a0: ec10 0d3e 8be1 eebc 77b3 cebd 9d7e a13d
000000b0: fbe3 77bd 9ae9 23bd eb73 10be 0d9b babd
000000c0: a43e aabd 9ba3 4d3d 16e1 dcbc 6bd5 503d
000000d0: 3267 b6bd b181 a9ba 3411 4e3d 57c7 50bd
000000e0: 1640 47bd b6f7 e2bc 63c5 783d c28b b23d
000000f0: 1c91 e53c 06d4 943d ea53 603d 90ba ee3d
00000100: 4e72 c53d 29f8 8d3b 0a1e eb3d 1e0d e73d
00000110: 80b6 0e3d 9475 de3c 50ce 0b3b be31 b8bd
00000120: 8f10 953d f5d5 243d 629a 91bb 9f30 3dbd
00000130: 05bf c9bd e0dd a6bd efe8 d93c 821b b43d
00000140: 0104 74bd 5d2b bebd 4719 273d f9cb 00bd
00000150: 013b aa3d 2653 c4bd 8ff6 7e3d 8733 4abd
00000160: 3d71 9dbc 9190 e1bd 367f 0e3d 89dc 383c
00000170: b771 bdbd ac27 ac3d e769 84bd 8d64 3f3d
00000180: e787 dbbd 3180 0dbe 1de0 143d 814d 1c3e
00000190: 9b53 da3d 145c 5e3d d282 94bc 67d9 b5ba
000001a0: b876 2dbd af42 c33d dad3 403c e6f8 06bd
000001b0: 175c d33d 4aa8 033e 992c 6cbc 8d47 613d
000001c0: 984f aabd b5dd 993d a948 b63d af41 933b
000001d0: f7f3 9bbd 5f38 40bd a95b 27bc dafe 6e3c
000001e0: 754d 903d 336b 85bb f1ca c8bc b98e de3d
000001f0: 25de 44bc 9c39 a2bc 0fa9 2d3d 23b1 fb3c
00000200: 643e aabc 9bce 553d 33ee b33c eb37 b83d
00000210: 5bcb 1dbb a8fb 0e3d 7049 0d3e df2e d7bc
00000220: 4bdf 5ebd 6f5f 99bd df44 aabd 3e71 f2bd
00000230: a102 443c e8bd 0fbd 55bc b4bc 648d b1bc
00000240: 6b0a 8b3d 9829 8c3c 867d 19bd 64be 2e3d
00000250: 1353 373d cd3b 94bd 84c1 2c3d cd15 d83d
00000260: 6182 803d ebc6 55bd e2dd 3e3d 739b 143d
00000270: ead6 aebd ea09 9dbc f283 b83d 1e34 9f3a
00000280: 320c 2e3e 1081 24bc 99f8 523d 46ea 7a3b
00000290: b04b dc3b 7c86 52bd 347a a5bc eeb9 8fbb
000002a0: 2a9a 383d 7cf0 353d a22b 2b3d e776 9ebb
000002b0: 0bc0 e63d 040f cdba 0068 ca3d 519e ebbb
000002c0: 43ef 3dbc 067e 75bd 4bf4 a33d e08b f9bd
000002d0: e7bd 61bd 6155 7cbd db06 653b 0610 253c
000002e0: 5628 cb3b 24f1 c73d ad32 1e3d 5ab5 ca3b
000002f0: 8739 90bd ed1c 41bd 1e73 48bd c93c 1e3e
00000300: 1dd4 5f3d 636b 98bc b41f 323d fee2 13be
00000310: 4a8f 37bd 431b 043c e71b 0abd 1062 06bd
00000320: fa34 d23d 967c 103d 7fe2 9d3d bfa2 623d
00000330: cdcb d0bc ea63 46bc 8958 b3bc fb44 9a3d
00000340: b644 9dbd 3d66 023e 186d 643a 6eb6 af3d
00000350: 5211 3bbe 945f 31bd d91f 0b3d 138a 863c
00000360: 9611 17bd 031c c9bc ef92 b0bd 0350 e33d
00000370: 7ce8 413c 533b 1e3e 39fd 003d 6491 1ebd
00000380: 2972 d3bd 5e5f 00bd 2a90 013d fdd7 81bd
00000390: fdc0 c5bd dc94 793d 35a9 05be 5759 14be
000003a0: 86dd 08bc 93fb ef3c 52f5 ad3d 3083 4d3d
000003b0: 252b 90bc 62a6 75bd 541d f23c 9bfe 823d
000003c0: 03c6 9bbd fa42 f8bc 9a03 e2bc ae53 473d
000003d0: 2425 06bd c75f 2a39 6b20 d43d 0a9b a33a
000003e0: f8dd cebc d655 8abd 8cea 6a3d da56 943d
000003f0: 7117 f13d 09d6 08bd 7418 61bc 1b98 7bbd

network_body._body_endoder.seq_layers.0.bias f4 [128]
-0.069886 -0.019674106 -0.122907 -0.08416488 -0.1962329 -0.14978255 0.034573067 -0.114499174
-0.15499522 0.012632203 0.09036423 -0.14614195 -0.058394704 -0.063179314 -0.11316603 -0.11137632
-0.17910688 0.05686165 0.06842661 -0.018138768 -0.07658757 -0.16384766 -0.048282146 -0.10893119
-0.10850874 -0.20019813 -0.0718469 0.03441237 0.001081403 0.058028713 -0.09191388 -0.032154817
-0.09279751 -0.11055133 -0.11716685 -0.09926481 0.0011330094 -0.15239677 -0.20004565 -0.10559346
-0.04258453 -0.024023782 -0.004220131 -0.13570191 -0.17624758 -0.008910576 -0.16016763 0.019973474
0.007568235 -0.029770337 -0.014260904 0.028410278 -0.046311155 -0.17241514 -0.14933307 0.0043202625
0.03810398 -0.024187 -0.12637101 -0.04205246 -0.026982546 0.0002496747 -0.06381239 -0.09670671
0.015093061 -0.1330129 -0.22869824 -0.15148054 -0.18102318 -0.0044408753 -0.20022607 -0.1193547
-0.13006823 0.023033043 -0.12251575 -0.19596739 0.09870028 -0.094708174 -0.100539915 -0.054231413
-0.20986788 -0.002730549 -0.07481424 -0.08060143 -0.012344307 -0.040205862 -0.1582759 -0.0885984
-0.26304814 -0.080912896 0.042694565 -0.21575886 -0.08070193 -0.17962104 -0.12241669 0.0561524
-0.09520367 -0.012299349 -0.072977416 -0.09166869 -0.066851124 -0.05339707 -0.12212282 -0.13170394
-0.1740979 0.05917323 -0.07067644 -0.113072775 0.025692662 0.011711424 -0.045835417 -0.09799747
-0.044291593 -0.0068477932 -0.20766002 -0.001299821 -0.036873147 -0.23674361 -0.08963345 -0.17063959
0.038562793 -0.015852913 -0.21364477 -0.11903214 -0.12896702 -0.11020723 -0.080045566 -0.022462174
00000000: 6420 8fbd 972b a1bc aab6 fbbd a35e acbd
00000010: 47f1 48be 9960 19be 7d9c 0d3d 8b7e eabd
00000020: 11b7 1ebe 4df7 4e3c e210 b93d 3ca6 15be
00000030: 492f 6fbd 2864 81bd 97c3 e7bd 4519 e4bd
00000040: cb67 37be c3e7 683d 4023 8c3d c197 94bc
00000050: f2d9 9cbd aec7 27be 80c3 45bd 5117 dfbd
00000060: d539 debd bd00 4dbe 7824 93bd fcf3 0c3d
00000070: ddbd 8d3a 84af 6d3d 583d bcbd c5b4 03bd
00000080: 9f0c bebd bc68 e2bd 2cf5 efbd 594b cbbd
00000090: 7d81 943a e60d 1cbe c4d8 4cbe 6241 d8bd
000000a0: 1e6d 2ebd 86cd c4bc 0649 8abb 71f5 0abe
000000b0: 3f7a 34be aafd 11bc fc02 24be 699f a33c
000000c0: f5fe f73b ece0 f3bc 91a6 69bc acbc e83c
000000d0: c4b0 3dbd 988d 30be c5ea 18be fd90 8d3b
000000e0: eb12 1c3d d123 c6bc 6767 01be 333f 2cbd
000000f0: 800a ddbc c5e6 8239 12b0 82bd 2b0e c6bd
00000100: e348 773c 8934 08be df2f 6abe b71d 1bbe
00000110: 245e 39be c384 91bb 1008 4dbe 3d70 f4bd
00000120: 9b30 05be cbaf bc3c 8ae9 fabd adab 48be
00000130: 5f23 ca3d 5cf6 c1bd dfe7 cdbd c221 5ebd
00000140: 9be7 56be 03f3 32bb 3538 99bd 5d12 a5bd
00000150: c73f 4abc e7ae 24bd 1413 22be 1473 b5bd
00000160: 3fae 86be a9b5 a5bd 7fe0 2e3d e4ef 5cbe
00000170: 0e47 a5bd 94ee 37be 9ab5 fabd 0f00 663d
00000180: 24fa c2bd 3583 49bc 2f75 95bd cbbc bbbd
00000190: 3ee9 88bd e3b6 5abd 871b fabd 66dd 06be
000001a0: b846 32be a15f 723d cfbe 90bd b392 e7bd
000001b0: 6b79 d23c 46e1 3f3c ebbd 3bbd e6b2 c8bd
000001c0: 1a6b 35bd 7463 e0bb d4a4 54be c15e aaba
000001d0: 4c08 17bd eb6c 72be be91 b7bd 25bc 2ebe
000001e0: 05f4 1d3d f8dd 81bc b2c5 5abe 1fc7 f3bd
000001f0: ee0f 04be 54b4 e1bd eeee a3bd 9802 b8bc

network_body._body_endoder.seq_layers.0.weight f4 [128, 17]
-0.102068484 -0.16656029 0.049381785 -0.031013245 -0.1371631 0.06859742 0.05396061 -0.2624934
0.24459787 0.47537753 -0.15416957 0.09636308 -0.1633493 0.3864334 -0.1546203 0.3149667
-0.3234574 0.013219328 -0.18187018 0.016015641 0.08656616 -0.18312344 -0.03490143 0.16670589
-0.13999023 -0.2721236 -0.02857326 0.15472794 0.26890653 0.021496287 -0.024771301 -0.3543786
-0.021648698 -0.36125228 -0.19626884 -0.47947553 -0.03693118 -0.29428095 -0.1119176 -0.05180617
0.058818646 0.32233268 0.14183003 0.08123077 0.09054857 -0.18955785 0.12080877 0.06555655
0.26934847 -0.18460609 0.107057765 0.13219869 -0.016978126 0.07198018 -0.3570809 -0.27152094
0.13941652 0.33312196 -0.010681175 0.40625542 0.081395544 -0.56327194 -0.17065722 -0.1806209
0.17974675 0.12895636 -0.094004095 0.21771267 -0.030234989 -0.20429823 -0.081427604 0.35117316
-0.25094897 -0.018828982 -0.025939804 -0.41551897 -0.31227705 0.23002727 -0.17323157 -0.42341596
-0.26897073 -0.19648437 0.31374237 0.052339636 -0.17019306 -0.2801014 -0.14173868 0.13683896
0.18514429 -0.3149088 0.4593813 -0.23606174 -0.30221245 -0.018811336 0.09958195 -0.24868402
-0.03452363 -0.030031346 0.060169954 -0.021613387 -0.20810992 0.23161505 -0.36083612 -0.19013666
0.007594856 0.030018248 0.034902714 0.27731782 -0.013883171 -0.3305444 0.49467438 0.21556795
-0.030076489 -0.023090057 -0.23131008 0.11347193 0.030795459 0.025709033 0.49419525 0.12998192
0.2109931 0.35693407 -0.33464426 0.19531046 -0.26002672 0.1445418 0.07277139 0.13094561
0.29506177 -0.019760394 0.074456915 -0.13460512 -0.33178547 -0.15681684 -0.70145917 -0.020703683
-0.045565676 -0.12516904 -0.35240537 -0.46358997 0.004971331 -0.075284265 0.26911384 -0.056175828
0.15866579 -0.036349747 -0.021223472 0.1016904 -0.16291328 -0.0697242 0.034741998 0.08393089
-0.011360853 0.12954225 -0.01992347 0.16303782 -0.25958169 0.19035727 0.12845977 0.092480354
0.13587347 0.142199 -0.21939968 0.27113432 0.0005122845 0.13139758 0.22278278 0.040626604
0.22291633 0.19568704 -0.08858515 0.331499 0.09154395 -0.26904964 -0.20014526 -0.41782686
0.09228681 0.31819087 0.15539591 0.026676968 0.09210183 -0.01603608 0.18779542 0.3628732
-0.05938444 0.40468797 0.4812212 0.48835972 0.0072690668 0.3526404 0.1183541 -0.09426975
0.0029928696 0.14712444 -0.5593521 -0.3549629 -0.39822683 -0.17044301 0.30460492 -0.13901705
-0.117594264 0.030968545 -0.078347094 -0.026776614 0.08997092 -0.33342206 0.05985924 0.27570677
0.11178751 0.00062200095 0.09366532 -0.09560095 0.03778927 0.14321224 -0.030463345 0.015821755
-0.11714656 -0.14156345 0.07546443 0.051231854 0.09700342 0.05057133 -0.18403958 -0.04844485
-0.28301722 -0.0006176778 -0.038564377 0.21725911 0.04049642 0.22862703 0.00068401475 -0.3521386
-0.36635175 -0.077889994 0.1806174 -0.21165165 0.05319691 0.114272125 0.12628435 0.16917297
0.45873883 0.18969487 -0.43609267 0.11730115 -0.008908443 -0.37901944 0.35474688 -0.28904516
-0.69349295 -0.19805127 0.11479789 -0.05907563 0.0002563305 -0.25533733 -0.08872099 -0.3243494
00000000: 4809 d1bd c88e 2abe 8e44 4a3d 7d0f febc
00000010: 7c74 0cbe ce7c 8c3d cd05 5d3d 8965 86be
00000020: dd77 7a3e af64 f33e a1de 1dbe 025a c53d
00000030: 0a45 27be 99da c53e c954 1ebe 5143 a13e
00000040: 359c a5be e195 583c 2d3c 3abe 3c33 833c
00000050: 9949 b13d b684 3bbe cdf4 0ebd f3b4 2a3e
00000060: 9959 0fbe c953 8bbe 7812 eabc 0071 1e3e
00000070: 1eae 893e fb18 b03c 2fed cabc 1d71 b5be
00000080: 9c58 b1bc 0ff6 b8be b3fa 48be d17d f5be
00000090: 2645 17bd feab 96be 0e35 e5bd b532 54bd
000000a0: d2eb 703d ca08 a53e e43b 113e 515c a63d
000000b0: 8771 b93d 741b 42be 976a f73d 8342 863d
000000c0: 0be8 893e 6109 3dbe 1a41 db3d 185f 073e
000000d0: b615 8bbc 586a 933d 4fd3 b6be cb04 8bbe
000000e0: 34c3 0e3e f68e aa3e 1800 2fbc b600 d03e
000000f0: b5b2 a63d 9732 10bf c4c0 2ebe aff4 38be
00000100: 880f 383e 230d 043e 3885 c0bd 12f0 5e3e
00000110: 5eaf f7bc 8e33 51be 84c3 a6bd f8cc b33e
00000120: 627c 80be 3d3f 9abc b67f d4bc e7be d4be
00000130: c7e2 9fbe 458c 6b3e 9e63 31be fac9 d8be
00000140: 88b6 89be 3333 49be d7a2 a03e 1662 563d
00000150: 1747 2ebe 7369 8fbe f223 11be 831f 0c3e
00000160: 7796 3d3e ba3b a1be 0734 eb3e 2bba 71be
00000170: 97bb 9abe 3b1a 9abc 9ff1 cb3d 06a7 7ebe
00000180: a668 0dbd 4c04 f6bc c574 763d 8f0e b1bc
00000190: c41a 55be 7f2c 6d3e 83bf b8be 2fb3 42be
000001a0: 45de f83b d4e8 f53c 26f6 0e3d 9afc 8d3e
000001b0: 3d76 63bc 1e3d a9be f645 fd3e d8bd 5c3e
000001c0: f862 f6bc 5c27 bdbc 8ddc 6cbe f963 e83d
000001d0: c246 fc3c c09b d23c 2907 fd3e fb19 053e
000001e0: 930e 583e 10c0 b63e 7e56 abbe 77ff 473e
000001f0: 3922 85be c402 143e 2b09 953d 9b16 063e
00000200: 5612 973e 8de0 a1bc de7c 983d edd5 09be
00000210: c9df a9be 9894 20be d492 33bf c59a a9bc
00000220: 13a3 3abd 502c 00be 7a6e b4be aa5b edbe
00000230: 8ce6 a23b a32e 9abd 4ac9 893e a018 66bd
00000240: 4979 223e 79e3 14bd d9dc adbc 0e43 d03d
00000250: bdd2 26be 90cb 8ebd a04d 0e3d f5e3 ab3d
00000260: df22 3abc b9a6 043e 8c36 a3bc 63f3 263e
00000270: e4e7 84be 04ed 423e f58a 033e 5766 bd3d
00000280: 6a22 0b3e 9d9c 113e 4faa 60be 1ed2 8a3e
00000290: d54a 063a 168d 063e 2b21 643e 1568 263d
000002a0: 2e44 643e 2f62 483e 226c b5bd 3dba a93e
000002b0: 657b bb3d e0c0 89be e1f2 4cbe 67ed d5be
000002c0: de00 bd3d eae9 a23e 1b20 1f3e a889 da3c
000002d0: e29f bc3d 195e 83bc 714d 403e 84ca b93e
000002e0: 193d 73bd 4333 cf3e a062 f63e 490a fa3e
000002f0: 5a31 ee3b 488d b43e a263 f23d 8010 c1bd
00000300: 0524 443b caa7 163e b331 0fbf b2bd b5be
00000310: 63e4 cbbe 9d88 2ebe 2df5 9b3e 7c5a 0ebe
00000320: 43d5 f0bd bfb1 fd3c 7174 a0bd a15a dbbc
00000330: ac42 b83d 4cb6 aabe f62e 753d 7029 8d3e
00000340: daf0 e43d c70d 233a 9ad3 bf3d 6eca c3bd
00000350: ecc8 1a3d 3ba6 123e 448e f9bc a09c 813c
00000360: 89ea efbd 02f6 10be 188d 9a3d 7ed8 513d
00000370: bba9 c63d e223 4f3d df74 3cbe 1b6e 46bd
00000380: a2e7 90be a8eb 21ba aef5 1dbd 2c79 5e3e
00000390: 93df 253d 341d 6a3e 744f 333a 834b b4be
000003a0: 7592 bbbe ca84 9fbd c5f3 383e 36bb 58be
000003b0: 01e5 593d 8107 ea3d af50 013e ae3b 2d3e
000003c0: d1df ea3e 5f3f 423e 8a47 dfbe 963b f03d
000003d0: b8f4 11bc d60e c2be 62a1 b53e bafd 93be
000003e0: c188 31bf f4cd 4abe 281b eb3d 4af9 71bd
000003f0: 1964 8639 93bb 82be 5ab3 b5bd 2011 a6be

network_body._body_endoder.seq_layers.2.bias f4 [128]
-0.10560804 -0.08718392 -0.09902047 0.09741343 -0.10223794 -0.15043701 -0.06849741 -0.05224778
-0.060237054 -0.057082083 -0.022528462 0.0023751636 -0.11182164 -0.08954541 -0.10675515 -0.19364044
-0.01791815 -0.17437914 -0.0058879573 0.0797674 -0.13903032 -0.12957567 -0.061516926 -0.07538099
0.062768236 0.0002945862 0.028006501 -0.09693635 -0.0564781 -0.12306842 -0.038976774 0.016258534
-0.0415859 -0.07058328 -0.13516533 0.015770072 -0.018783027 -0.09735385 -0.024149163 -0.0729351
-0.057310045 0.019943658 -0.14151688 -0.08214719 -0.06371665 -0.029430358 -0.021379113 -0.03191842
-0.06820653 -0.08566215 -0.05958497 0.0020328658 -0.03457516 -0.015558686 -0.07775292 0.027881524
-0.14990725 -0.15935718 -0.07099605 -0.0008476163 -0.06980474 -0.045221116 -0.108083114 -0.024394091
-0.06491737 -0.09237084 -0.110740915 0.013110269 0.023785928 -0.12608628 -0.11391233 -0.10510079
-0.012638854 -0.10792491 -0.0643328 -0.021613125 -0.068016976 -0.07132813 -0.033523 0.04253309
-0.08702557 -0.105510734 -0.07934594 -0.0015214379 -0.03867807 -0.13958727 0.016804699 -0.031819336
-0.08339286 0.028246285 -0.050900374 -0.060200233 -0.119103596 -0.09514473 -0.079075046 -0.008392435
-0.066536956 0.01697767 -0.021914683 -0.01622827 -0.014848818 -0.02984609 -0.021282619 0.014536491
-0.00078910677 0.022143962 0.026072903 -0.07570175 -0.034150373 -0.044157676 -0.10159573 -0.103662916
0.024112407 0.015258154 -0.18495566 -0.040949583 -0.09732148 -0.024657233 -0.028658696 -0.094187744
-0.04336048 -0.0738201 -0.038203727 -0.06287512 0.027445432 -0.08117506 -0.12209639 -0.035784904
00000000: 0749 d8bd 7c8d b2bd 3fcb cabd b180 c73d
00000010: 2062 d1bd 290c 1abe 5f48 8cbd c501 56bd
00000020: 21bb 76bd e7ce 69bd 9c8d b8bc a2a8 1b3b
00000030: be02 e5bd 9563 b7bd 72a2 dabd ae49 46be
00000040: 16c9 92bc 7290 32be c4ef c0bb 175d a33d
00000050: f75d 0ebe 7caf 04be 2cf9 7bbd 5961 9abd
00000060: a28c 803d b172 9a39 e46d e53c 9186 c6bd
00000070: 9555 67bd 4c0b fcbd 1ca6 1fbd 9e30 853c
00000080: fa55 2abd f78d 90bd c868 0abe 3d30 813c
00000090: ddde 99bc 7561 c7bd 77d4 c5bc ff5e 95bd
000000a0: f0bd 6abd e260 a33c cde9 10be c93c a8bd
000000b0: e07d 82bd ef17 f1bc 4023 afbc e4bc 02bd
000000c0: ddaf 8bbd a36f afbd 5f0f 74bd d439 053b
000000d0: af9e 0dbd dce9 7ebc ec3c 9fbd cb67 e43c
000000e0: 4981 19be 872e 23be 6166 91bd 9132 5eba
000000f0: caf5 8ebd c739 39bd ae5a ddbd 1ed6 c7bc
00000100: 66f3 84bd ec2c bdbd 22cc e2bd 74cc 563c
00000110: b5da c23c c31c 01be de4a e9bd 153f d7bd
00000120: 3213 4fbc bc07 ddbd eac0 83bd 020e b1bc
00000130: 7c4c 8bbd 7c14 92bd 6a4f 09bd 2d37 2e3d
00000140: 763a b2bd 0316 d8bd 2080 a2bd fc6a c7ba
00000150: e56c 1ebd f7ef 0ebe 02aa 893c fe54 02bd
00000160: e0c9 aabd c164 e73c e97c 50bd 8594 76bd
00000170: 96ec f3bd 3ddb c2bd 19f2 a1bd 6c80 09bc
00000180: 8744 88bd c114 8b3c 6c86 b3bc 26f1 84bc
00000190: 7548 73bc ca7f f4bc e358 aebc 762a 6e3c
000001a0: 0fdc 4eba 4167 b53c d796 d53c 8509 9bbd
000001b0: 43e1 0bbd aede 34bd 6c11 d0bd 394d d4bd
000001c0: 6287 c53c 56fd 793c 0465 3dbe c0ba 27bd
000001d0: 7c50 c7bd f7fd c9bc a4c5 eabc 81e5 c0bd
000001e0: c29a 31bd fe2e 97bd 837b 1cbd acc4 80bd
000001f0: 3ed5 e03c 1c3f a6bd ac0d fabd 3193 12bd

network_body._body_endoder.seq_layers.2.weight f4 [128, 128]
-0.04389013 0.040244658 0.0452118 -0.17699769 -0.019517293 0.05016954 -0.014506397 -0.11789801
-0.044141185 -0.11962358 -0.121876426 0.028832262 -0.104924515 -0.018903526 0.09190753 0.018252179
0.0047377003 -0.046133548 -0.004890303 0.11087004 -0.25170198 -0.1862206 -0.267115 0.105174765
-0.06713772 0.066359125 -0.1802125 -0.07200637 0.043668922 -0.14392005 -0.07362233 0.00039199725
-0.07416744 -0.0072121746 -0.23941505 -0.16636844 0.25182828 -0.04012083 0.021334473 -0.17097655
-0.106650665 -0.049920756 -0.04096811 0.003581291 -0.005269056 0.054365825 -0.21079601 -0.18295448
-0.12349144 -0.042223305 -0.049198583 0.005606736 -0.12238843 0.23701105 -0.03082193 -0.051596683
-0.07177025 -0.05328326 0.06378256 0.0064591025 -0.12046648 -0.03626129 -0.0010532459 -0.15756637
-0.19879095 0.08655173 -0.1491716 0.07477928 -0.12018018 0.03201613 -0.1164833 -0.18371671
-0.10545656 0.0561885 -0.33421257 -0.11714783 -0.2011096 -0.095865585 -0.124418706 -0.06860559
-0.10290719 0.03254402 -0.15113673 0.11988918 0.03965782 -0.20464939 -0.07402483 0.19185346
-0.13902918 -0.20021142 -0.053624734 -0.11143974 -0.16505527 -0.08385108 -0.26046574 -0.17116067
-0.08376293 0.090246394 -0.10746553 -0.0061115213 -0.2650203 -0.09743405 -0.073195584 -0.05257903
-0.08876031 0.07495884 -0.0276871 0.031269435 0.14180294 -0.008171779 -0.21175756 0.01901009
-0.35889325 0.11166645 0.09136583 -0.25444514 0.14343421 -0.14354327 0.10518069 0.02786543
0.14566699 -0.2558668 0.13649473 -0.05611592 0.12517652 -0.14616302 0.13954191 0.035305254
-0.038701627 -0.08986457 -0.04823147 -0.08056721 0.15463488 -0.019183818 0.027073817 -0.21662422
-0.0757778 0.0318267 0.057017386 -0.04345109 -0.008366926 -0.1415239 -0.03608325 0.012732956
-0.04478904 0.023474403 -0.2192078 0.18507735 -0.18565619 -0.039492544 -0.13419846 -0.06982025
-0.33129305 0.10179519 -0.0883894 0.070067234 -0.17170367 -0.24469489 -0.11979611 -0.18035425
-0.026953746 0.019562675 0.25147203 -0.026333405 -0.06256483 -0.04330037 0.06347645 -0.16095516
-0.0893461 -0.13844298 -0.059601143 -0.021284787 -0.025499338 -0.05202884 0.04540842 -0.04618935
-0.15466619 0.023429096 0.003643309 -0.22584443 0.12720291 -0.0858484 -0.15159588 -0.059568733
-0.12924089 0.055022474 0.02387345 -0.03512165 -0.09329296 -0.15965278 -0.068436034 0.0016113329
0.069657505 -0.12584528 -0.13479887 -0.07927663 -0.08279211 0.045402616 0.17592305 -0.012267734
0.013884498 -0.13370948 -0.40862352 0.055151314 -0.17629036 -0.1129938 0.037864752 0.096534945
0.015326701 -0.045846637 0.09981033 -0.08968071 0.08278101 -0.10020774 -0.0673305 -0.012322073
-0.116834365 0.04413322 -0.29434407 -0.0030651744 -0.034350883 -0.23950244 0.024356365 -0.2960796
-0.14815836 -0.02198421 -0.1745721 -0.20516756 0.028082298 -0.11446177 0.19267027 -0.025783472
-0.11393601 0.08337032 0.21551201 -0.013167999 -0.18640846 -0.07103566 -0.029104508 -0.11751333
-0.04929563 0.07125962 0.06780749 0.18601412 -0.013623999 0.18685706 -0.23603752 -0.03650308
-0.06393378 -0.14807305 0.041694503 -0.17615564 -0.16071746 0.040848244 0.13565 0.05038803
00000000: 23c6 33bd 95d7 243d 0230 393d e23e 35be
00000010: bbe2 9fbc 937e 4d3d 3dac 6dbc 8374 f1bd
00000020: 63cd 34bd 35fd f4bd 599a f9bd a331 ec3c
00000030: aae2 d6bd 91db 9abc 043a bc3d 9885 953c
00000040: b63e 9b3b 88f6 3cbd d63e a0bb d50f e33d
00000050: 15df 80be 9db0 3ebe 4cc3 88be de65 d73d
00000060: 807f 89bd 4be7 873d a089 38be 1378 93bd
00000070: 2fde 323d c75f 13be 4ec7 96bd fb84 cd39
00000080: 19e5 97bd 1b54 ecbb 3829 75be 7d5c 2abe
00000090: a3ef 803e bd55 24bd a2c5 ae3c 7a14 2fbe
000000a0: aa6b dabd b579 4cbd 2dce 27bd 18b4 6a3b
000000b0: 0ca8 acbb b3ae 5e3d e9da 57be 6b58 3bbe
000000c0: 15e9 fcbd 58f2 2cbd 7484 49bd b6b8 b73b
000000d0: c9a6 fabd 06b3 723e 467e fcbc 0b57 53bd
000000e0: 48fc 92bd 8c3f 5abd 6ea0 823d e1a6 d33b
000000f0: 21b7 f6bd b886 14bd 110d 8aba 1459 21be
00000100: db8f 4bbe 0942 b13d 71c0 18be e125 993d
00000110: 0721 f6bd 5823 033d cc8e eebd 3c20 3cbe
00000120: 9cf9 d7bd ea25 663d e91d abbe 34eb efbd
00000130: adef 4dbe 2d55 c4bd 3ccf febd 1681 8cbd
00000140: 01c1 d2bd e14c 053d 96c3 1abe 7588 f53d
00000150: 3d70 223d 9c8f 51be 549a 97bd 3c75 443e
00000160: aa5d 0ebe 3904 4dbe 9ca5 5bbd 853a e4bd
00000170: 4004 29be 1dba abbd c45b 85be be44 2fbe
00000180: e68b abbd 1ad3 b83d e316 dcbd 2843 c8bb
00000190: beb0 87be 818b c7bd 91e7 95bd 1c5d 57bd
000001a0: f7c7 b5bd 0584 993d 0fd0 e2bc 6114 003d
000001b0: ca34 113e ede2 05bc f9d6 58be 0cbb 9b3c
000001c0: dbc0 b7be 61b1 e43d 021e bb3d a246 82be
000001d0: 6be0 123e 02fd 12be f968 d73d 0b46 e43c
000001e0: ba29 153e f900 83be 46c5 0b3e cfd9 65bd
000001f0: 462e 003e c2ab 15be 13e4 0e3e 3e9c 103d
00000200: 9985 1ebd ea0a b8bd 5d8e 45bd 6c00 a5bd
00000210: 9b58 1e3e 6227 9dbc e9c9 dd3c bdd2 5dbe
00000220: 6431 9bbd b75c 023d 108b 693d c5f9 31bd
00000230: 6e15 09bc a4eb 10be 08cc 13bd e39d 503c
00000240: b674 37bd 644d c03c 0278 60be eb84 3d3e
00000250: a81c 3ebe efc2 21bd 526b 09be ebfd 8ebd
00000260: 3e9f a9be ff79 d03d 8005 b5bd 697f 8f3d
00000270: 16d3 2fbe 4c91 7abe aa57 f5bd c9ae 38be
00000280: 1ace dcbc e741 a03c f1c0 803e 27b9 d7bc
00000290: fd21 80bd bb5b 31bd f1ff 813d 6ed1 24be
000002a0: 17fb b6bd ffc3 0dbe 5420 74bd 6f5d aebc
000002b0: fde3 d0bc 311c 55bd 2efe 393d 0b31 3dbd
000002c0: d060 1ebe 60ee bf3c 95c4 6e3b c343 67be
000002d0: 7b41 023e 49d1 afbd f33b 1bbe 58fe 73bd
000002e0: b957 04be 3f5f 613d 4192 c33c b8db 0fbd
000002f0: 6110 bfbd 057c 23be 3128 8cbd 5c33 d33a
00000300: 98a8 8e3d 96dd 00be b708 0abe c95b a2bd
00000310: e98e a9bd 18f8 393d 2c25 343e 9bfe 48bc
00000320: ce7b 633c 23eb 08be 1a37 d1be 58e6 613d
00000330: 7685 34be 4b69 e7bd 1218 1b3d 1db4 c53d
00000340: d81c 7b3c afc9 3bbd 5c69 cc3d 85aa b7bd
00000350: 1789 a93d b739 cdbd 93e4 89bd 85e2 49bc
00000360: db46 efbd 09c5 343d 44b4 96be 18e1 48bb
00000370: 83b3 0cbd 2140 75be 0087 c73c bf97 97be
00000380: d3b6 17be 3b18 b4bc 07c3 32be 7217 52be
00000390: d90c e63c ef6a eabd 5b4b 453e dc37 d3bc
000003a0: 4857 e9bd 0fbe aa3d 2eaf 5c3e 97be 57bc
000003b0: dce1 3ebe 257b 91bd 946c eebc d4aa f0bd
000003c0: 37ea 49bd 90f0 913d a7de 8a3d 7c7a 3e3e
000003d0: 3237 5fbc 7557 3f3e d2b3 71be 4184 15bd
000003e0: b7ef 82bd 76a0 17be dbc7 2a3d 2562 34be
000003f0: 1e93 24be 7d50 273d d5e7 0a3e ae63 4e3d
