RollerAgent/Assets/Learn/RollerAgent_11.onnx (onnx, 81045 bytes, 9 tensors)

action_model._continuous_distribution.log_sigma f4 [1, 3]
00000000: 7f88 24be 844b debd d98d 123e
-0.16067694 -0.10854247 0.14311923

action_model._continuous_distribution.mu.bias f4 [3]
00000000: 2c0c 173d 7d61 fcbc a493 853d
0.036876842 -0.030808205 0.06522301

action_model._continuous_distribution.mu.weight f4 [3, 128]
00000000: f452 ebbc 3a41 3fbd 83b7 d5bd 849d 053b
00000010: e407 e23a 5021 033d 5f5d 2f3c f0e6 513c
00000020: 3de2 913b ecf3 103d d8e8 b2bd 6f36 303d
00000030: e2b2 563d e6f5 d23c 3087 043d 8b2d 013e
00000040: 9c75 403d e532 ec3c 2598 0e3d 3669 ce3c
00000050: f529 4abc 4084 23bd c44c 70bd dfaa 9d3d
00000060: cac4 5e3d bdd4 333d 285b d63b 8d29 43bd
00000070: b683 f73b 544c 68bd 3c5f cfbd d80e 223d
00000080: 23e6 4fbd 683d 8b3d ae33 983d 5479 703d
00000090: d7d7 a1bb 17a4 683c 886a 943d 069a d7bd
000000a0: a3a5 89bd 1057 903b 1dd1 163d eb9f 20bc
000000b0: bf90 073d dca8 cb3d 4083 293c d553 a53d
000000c0: 7382 753c b22b 863b da7d 4e3d 6a01 3cbc
000000d0: b60a 083c 64ac 513c b9ec a13d c7fa 8bbd
000000e0: 7ff7 24bc e5df 1c3d de3f 15bd 28c4 cfbd
000000f0: 915b 9f3c 0a23 0dbb 5898 19bd 9ce9 9cbd
00000100: 5324 bbbc df84 c13b 1edc 063d 0d1a 893d
00000110: ee28 fabb f031 8b3c ad35 36bd e09d 973c
00000120: 159d 93bd db37 423c 9463 f7bc 721a 92bd
00000130: 57d0 653d 9c0d 443c ca94 253d 2408 023d
00000140: 0894 c53d d1d8 413d c1df 99bd dc0e 113d
00000150: e504 403d f775 4a3d 0ac2 fd3c 92be fcbb
00000160: ba52 76bd af0a 453d 04e9 ddbd 3465 073b
00000170: d216 4d3c 98be 1dbd 472c 933d 6033 f13c
00000180: fc6e 9a3d 3415 13bd 6448 693d 2ea6 603d
00000190: 4ea7 4b3d dd48 213d 1b70 76bd 30d4 f13b
000001a0: 18b2 6b3d c9d3 083d 2551 6d3d f207 0a3d
000001b0: fd49 4bbd 6700 703c 1ec6 eebc 3ade 523d
000001c0: c944 333e c037 f63d 438c cb3c 4694 963d
000001d0: 3226 693d 239a 583b 20b0 8bbd bf8c 89bd
000001e0: 955f 45bc bad3 a63d e7d2 3cbd 8d67 ab3c
000001f0: cd43 16be 84e8 273d 68e1 683d 3c67 cf3d
00000200: cd89 b0bc cb8f b0bd 2666 68bd c9d4 b23d
00000210: b8b2 68bd 45a6 3ebd a2b1 91bb da8f 31be
00000220: 0aaf 36bd 4cce 46bd 93d6 1abe e93a 013d
00000230: d1f1 393c 951f 4f3c 1e36 3cbd fb04 dd3b
00000240: 819c 093c cfc4 e33c fe09 0abe a991 aabd
00000250: c8a4 4cbd 5c03 acbd 20b9 f2bd b20f 72bd
00000260: 8957 3fbc 4e50 643c 5429 a6bd 988a 713d
00000270: 62b7 19be 589f 82bd a78c 5cbc c796 993d
00000280: 396f ddbd 766e 9dba c1bd 103b e445 803d
00000290: 6de2 143d 9f32 b4bc 2d5e 413d 6c48 1abe
000002a0: 41ac 86bd a332 32be 7d2e e4bb b57e 1f3e
000002b0: f3f3 8cbd a81b 9b3d e159 003d c2c7 12bd
000002c0: 2f08 833d 9275 433d ddaa f23a 5d4f 28bc
000002d0: efc7 1dbd 04f0 d4bc 5ac5 babd 7ec2 1f3d
000002e0: c895 c3bc 386a afbd 417c 94bd 4f8f f9bc
000002f0: 191f 10be 7de3 e13c a01a 913b ec00 e1bd
00000300: 4c71 1cbd b2c9 92bb 39b4 51bd ae9d 7ebd
00000310: 08bf 163b cc6f 66bd 16de c2bd c1b9 97bd
00000320: 5b29 593d 10c7 70bd 60da 4bbd 466f 8eba
00000330: 5fe2 8a39 b77d edbc 5b31 803c 962b 013d
00000340: 0bf4 5abe 9004 84bc d457 cdbd f791 da3d
00000350: f1d1 c33d 4cd6 fbbb b477 943d edfc 19be
00000360: a4d1 3cbd 4a1d 723d c9ea a2bd 7d43 04bd
00000370: 1d1a dfbd 966e c6bd 4460 023d dd51 f63d
00000380: a053 943d 0cbf 563d 7cff 31bd 43a6 63bb
00000390: 250a 363d 0a99 43bd 9c36 14bd a3a3 3fbc
000003a0: 5c0f fe3d dae6 e93d d290 ef3c 3841 153d
000003b0: d96c 1abb fad8 ddbd 47cb 49bd 67fd 09bd
000003c0: 1797 cabd 37da fcbc 1279 aabc cfc6 ec3c
000003d0: 31c7 c13b 8033 edbd 58d3 9fbd fb6d ebbd
000003e0: c5a7 11bb c17d 1ebc a604 d7bc 4924 3fbe
000003f0: 4287 3cbd 55ce a8bb d009 69bd 0712 af3d
-0.028726079 -0.046693064 -0.10435393 0.0020388076 0.0017244783 0.03201419 0.010703414 0.012811407
0.0044520185 0.035388872 -0.08735818 0.043020662 0.05241669 0.02575202 0.032355487 0.1261503
0.04698716 0.028832862 0.034813065 0.025196653 -0.012339105 -0.039921045 -0.05866696 0.07698607
0.05438689 0.043904055 0.0065416284 -0.047647048 0.007553543 -0.056713417 -0.101255864 0.039564937
-0.050756585 0.06798822 0.07431732 0.058709458 -0.00493906 0.014199278 0.07246882 -0.105274245
-0.06721046 0.00440491 0.03682052 -0.009803752 0.033097025 0.09944317 0.010346234 0.0807263
0.014984715 0.0040945644 0.05041299 -0.0114749465 0.008303335 0.012797449 0.079064794 -0.06834941
-0.010068773 0.03829946 -0.03643786 -0.10144836 0.019452842 -0.0021535777 -0.037498802 -0.07661745
-0.02284447 0.005905732 0.032924764 0.06694422 -0.0076342737 0.016991585 -0.044484783 0.018507898
-0.072076954 0.011854137 -0.03019885 -0.0713395 0.05610689 0.011966135 0.0404251 0.031746045
0.09647375 0.047325913 -0.07513381 0.03541456 0.046879668 0.049428906 0.030976314 -0.0077131474
-0.060137488 0.04810589 -0.1083546 0.0020659687 0.012517648 -0.038511842 0.071861796 0.029443443
0.075407 -0.035908893 0.056953803 0.05484598 0.0497201 0.03937613 -0.060165506 0.007380031
0.05754289 0.0334051 0.057938714 0.033698983 -0.049631108 0.014648533 -0.029147204 0.051481463
0.17506708 0.12022352 0.024847155 0.073525 0.05692119 0.0033050857 -0.068207026 -0.06716298
-0.012046714 0.081458524 -0.04609957 0.0209234 -0.14674301 0.04099323 0.05685559 0.10127112
-0.021550084 -0.08621176 -0.05673804 0.08731992 -0.056811064 -0.046545286 -0.0044462243 -0.17340031
-0.044600524 -0.048536584 -0.15120916 0.03155032 0.011349157 0.012641807 -0.045950048 0.0067449785
0.00839913 0.027803807 -0.13480374 -0.08328564 -0.049961835 -0.08399078 -0.11851716 -0.059097
-0.011678585 0.013935162 -0.081133515 0.058970064 -0.15011361 -0.06378049 -0.0134612685 0.074994616
-0.1081223 -0.0012011069 0.0022085758 0.062633306 0.03634875 -0.021996794 0.047208954 -0.15066689
-0.065758236 -0.17402129 -0.0069635496 0.15575679 -0.06882467 0.075736344 0.031335715 -0.035835035
0.06398045 0.047719546 0.0018514056 -0.010272828 -0.03852075 -0.025993355 -0.09119673 0.03900384
-0.023875132 -0.085651815 -0.07250262 -0.030463843 -0.14074363 0.027574295 0.004428223 -0.10986504
-0.038193986 -0.0044796104 -0.051197264 -0.062162094 0.0023002047 -0.05625896 -0.09515016 -0.074084766
0.053017955 -0.05878359 -0.049768806 -0.0010866902 0.0002649007 -0.02899061 0.015648535 0.031535707
-0.21382158 -0.016115457 -0.100265175 0.10672372 0.095615275 -0.0076854583 0.07249394 -0.1503789
-0.046098366 0.059109963 -0.07954938 -0.032290924 -0.108936526 -0.09689061 0.031830087 0.12027333
0.07242513 0.05242829 -0.04345654 -0.003473655 0.04444327 -0.04775337 -0.036184892 -0.011696729
0.12405273 0.114209846 0.02924386 0.03643915 -0.0023563413 -0.108324006 -0.049266126 -0.03368893
-0.09892099 -0.030865772 -0.020809684 0.028903393 0.005913638 -0.115820885 -0.078039825 -0.114955865
-0.0022225243 -0.009673537 -0.026247334 -0.18666185 -0.04602743 -0.00515155 -0.056894124 0.0854836

action_model._discrete_distribution.branches.0.bias f4 [2]
00000000: 7210 7cbd 5911 7c3d
-0.06153912 0.06153998

action_model._discrete_distribution.branches.0.weight f4 [2, 128]
00000000: 5de7 21bd bd1b 12bd ffe9 6ebd d852 a0bd
00000010: 30ff 28be e7b3 ccbc 3b84 cb3c d61f a2bc
00000020: f3df cf3d 3c84 e83d 341a d03c 3146 54bd
00000030: cb9d 0d3d eae7 1ebe 3fa8 28be 185e f4bb
00000040: b0d4 df3c 87f3 1cbd 51d8 8b3d ac04 873c
00000050: 6f67 203d dbc6 c7bd eb57 763d 206b 9c3b
00000060: da84 debc 310c 4e3d e61c b73d 707d 34be
00000070: 5c9e ce3d 1b67 ccbd 1bba 463e 5061 64bd
00000080: 8a7f f0bc 0804 233c cd2b 2abd f997 70bd
00000090: 08a6 7abd 0ce6 9fbc 2f49 763c 8b7c 5b3c
000000a0: 26bb 9a3c 6c1f b7bd 2d5e 93bc cc0a 61bd
000000b0: 007f 353e 7eb9 96bd 0944 3f3b 9c43 1e3d
000000c0: 57e4 50bd 125e 2ebc d1a1 5d3c 03ea b8bd
000000d0: 5fa2 823d 60eb 07bc 74ca dbbd f3c5 e63d
000000e0: 4642 243d 1293 d5bd 0b3a 313c 9124 e8bc
000000f0: 7d09 5e3d c0eb 0abd dd93 63bc c276 bd3c
00000100: 0776 363d a53d 84bc e45c 893d e8b8 4c3d
00000110: 5824 28bd 4f7b 0a3c b863 03b9 20d4 3a3d
00000120: ff09 b7bd 1a4c a73c a019 57be 6215 8b3c
00000130: 5907 87bc 054d 653d 6fd4 f5bc 31bf 8fbc
00000140: 6b04 53be 7b55 2f38 f32f 85bd 00d8 9fbd
00000150: 8e77 63bd bcd1 693d 1305 e3bd 20b4 b73b
00000160: 875b 24bd 27b0 fcbc 4d57 e43d cc5a 2f3b
00000170: 259a 213c c7b0 49bd 99a9 91bc 81c6 93bd
00000180: f0ed dcbc c736 39bd 2ddb 413d a6c9 d0bc
00000190: 4377 25bc 8d5e df3d f413 17be ebe2 3d3d
000001a0: 5c54 b23b 1301 12be 532c 083d 58c7 be3c
000001b0: b07e 0dbe cef7 b93c 7e04 c5bd 0524 f4bc
000001c0: f681 623d c7c5 f7bd 6e92 d9bc 9271 59bd
000001d0: b3e3 ad3c dd76 f1bb 6dd5 463c 912a 2fbd
000001e0: 599c ef3d b8c7 40bd 6b26 bc3d 8237 b63c
000001f0: 86a9 39bd 65b2 d9bc 6113 8ebd 0afd e2bd
00000200: da99 533d 8c2a fd3c 274d 9a3d dbec ac3d
00000210: 3c31 103e 23ac 403d 40c6 08bd eab1 c33c
00000220: 0177 e3bd 1b05 d8bd f1f2 e8bc 0df4 773d
00000230: b864 adbc 9107 203e eb0a 393e 4536 443c
00000240: 73a9 26bd 3e89 de3c 9172 7bbd 2677 7bbc
00000250: ed42 1bbd 56a8 c43d 61ce 93bd a618 56bc
00000260: d66b 6b3c 1429 72bd b2af d4bd 54ea 3a3e
00000270: 9455 bebd 26ff b43d c285 3bbe bf7c 653d
00000280: 71f2 f53c af47 49bc db37 033d c5e2 873d
00000290: 6fe8 4c3d 5aae 9f3c 31ae c4bc 1bcf 6ebc
000002a0: 0706 05bb d298 993d 74e3 f23c 652d 1c3d
000002b0: df97 47be f295 ac3d 5bda 95bc d6d2 1ebd
000002c0: 062d 653d ab63 513c cccf 243c 5305 ac3d
000002d0: 8564 60bd 6b2a acbb e822 003e 7a98 febd
000002e0: 49d9 17bd fec5 b33d 4307 6dbc 367b f73c
000002f0: 934c 5dbd 484d 3b3d c30d c73c 7a9b 8dbc
00000300: 6c9b 1abd e38c 423b 3d03 b2bd ad6a 62bd
00000310: 80a8 933d e5a0 11bc 0de9 9abc f0b5 12bd
00000320: 73a6 a63d 08f7 2abd 0780 4f3e cb20 cabc
00000330: 8fc8 653c 01f1 1abd 1fe6 b83c 856e 993c
00000340: a6be 523e 4708 263b ad95 a63d fde3 b33d
00000350: 958b 4d3d 8634 5fbd 1167 ed3d 45a7 bcbc
00000360: 00b7 403d f8ff 173d ad43 aabd 8695 ab3c
00000370: 8f96 7fba e80d 243d 6ceb 8f3c 1086 893d
00000380: bb52 af3c 226f 1e3d fc0c 45bd c1e6 e23b
00000390: 85f1 b53c 9b8b c8bd 2adc 183e b2e8 05bd
000003a0: 678f ffba a4f4 0d3e 28dc e5bc 0662 22bd
000003b0: 952a 1a3e a075 99bc d03d c03d 0951 e33c
000003c0: 2f76 4abd db35 f03d f0eb 203d 703c 363d
000003d0: f282 ffbc e569 9e3b 3032 b7bb 341a 3b3d
000003e0: f5ab d1bd 66a6 1a3d 288b b1bd f0f0 08bd
000003f0: c6eb 6b3d 71bd d73c 81b3 783d fd1b de3d
-0.039527286 -0.035670985 -0.058328625 -0.07828301 -0.16503596 -0.024988128 0.024843326 -0.019790571
0.10150137 0.11353347 0.02540312 -0.051824752 0.03457431 -0.15518156 -0.16470431 -0.007457506
0.027323097 -0.038318183 0.068283685 0.01648172 0.039161142 -0.097547255 0.06014244 0.0047735125
-0.027162958 0.050304595 0.08941059 -0.17625976 0.100887984 -0.09980603 0.19406931 -0.055756867
-0.02935769 0.009949692 -0.041545678 -0.058738682 -0.061193496 -0.019518875 0.015032097 0.013396393
0.018888067 -0.0894154 -0.017989242 -0.054941937 0.17724228 -0.073595986 0.002918484 0.038638696
-0.05099901 -0.010642545 0.01352735 -0.09029009 0.06378626 -0.008295864 -0.10731974 0.112682246
0.040102266 -0.10428442 0.010817061 -0.028337749 0.054208267 -0.033916235 -0.013890234 0.023127917
0.044546153 -0.016142676 0.067071706 0.049981028 -0.041050285 0.008452251 -0.00012530282 0.045612454
-0.089374535 0.02042203 -0.21005869 0.01697797 -0.016482996 0.055981655 -0.030008523 -0.017547222
-0.20607154 4.180286e-05 -0.06503286 -0.078048706 -0.055533938 0.057084784 -0.11084952 0.0056061894
-0.04012635 -0.030845715 0.11149464 0.0026757 0.009863411 -0.049240854 -0.017781066 -0.07215596
-0.026968926 -0.045218255 0.047328163 -0.025486778 -0.010099235 0.10906706 -0.14753705 0.046358984
0.0054421853 -0.14258222 0.033245396 0.023288414 -0.13817859 0.02270117 -0.096199974 -0.029802332
0.05529972 -0.1209827 -0.02655908 -0.053086825 0.02122674 -0.007368906 0.012135846 -0.042765204
0.11699743 -0.047065467 0.09187015 0.022243265 -0.045327686 -0.026574323 -0.0693729 -0.110834196
0.051660396 0.030904077 0.07534247 0.08443614 0.14081281 0.047039162 -0.03339219 0.023888547
-0.111066826 -0.10547849 -0.028436156 0.06053548 -0.02116619 0.15627886 0.18070571 0.0119758295
-0.040688943 0.027165052 -0.061388556 -0.015348231 -0.037905622 0.0960242 -0.07217098 -0.0130674
0.014368972 -0.059121206 -0.10385074 0.18253452 -0.092936665 0.08837728 -0.18312743 0.05602717
0.030022832 -0.012285157 0.03203569 0.0663505 0.050026353 0.019492317 -0.024008842 -0.014575745
-0.0020297782 0.07499851 0.029649474 0.03812923 -0.19491528 0.08427037 -0.018292597 -0.038775288
0.05595114 0.01278011 0.010059308 0.08399453 -0.054783363 -0.00525408 0.12513316 -0.12431426
-0.037072454 0.087779984 -0.014467063 0.030210119 -0.054028105 0.045727998 0.024298554 -0.017286051
-0.037745878 0.0029686026 -0.08692024 -0.055277515 0.07209873 -0.008888458 -0.018909955 -0.03581804
0.081372164 -0.041739494 0.20263682 -0.02467384 0.014024868 -0.037827495 0.022570668 0.018729458
0.20580539 0.0025334524 0.08134017 0.0878372 0.050181944 -0.05449345 0.11591924 -0.02302898
0.047049522 0.037109345 -0.083136894 0.020945322 -0.0009749913 0.040052325 0.017568313 0.067150235
0.021401754 0.038680203 -0.048108086 0.0069244807 0.022209892 -0.09792253 0.14927736 -0.03269262
-0.0019497693 0.13862854 -0.02805908 -0.039644264 0.15055306 -0.018732846 0.0938679 0.027748602
-0.049429115 0.11729022 0.039287508 0.04449123 -0.03119037 0.004834401 -0.0055906996 0.045679286
-0.10237876 0.037756346 -0.0866912 -0.0334329 0.057597898 0.02633545 0.060718063 0.10845182

network_body._body_endoder.seq_layers.0.bias f4 [128]
00000000: cea2 26bd d4e3 a2bd e31b 8d3d 00ff 87bd
00000010: d036 60bd bf8b 223d 4456 b83c bd3d 39bd
00000020: c8ee 22bd 2a45 84bd 7625 dbbc df50 a23c
00000030: ecb7 7c3d cf6a 98bc b92c dcbc ff3a 38bd
00000040: 5e27 d8bd b983 4fbd e5f3 1bbd 88c0 95bd
00000050: ef6b dab9 46c1 54bd c7a2 77bc 77c8 d7bc
00000060: d6ec c2bd 4add d13d 037d c33d f2d1 c9bb
00000070: e5a2 8dbd c9fe 04bc c7ca 03bd 11e0 9e3d
00000080: c01b adbc f92c 2abd 6970 3dbd cbcf 6abd
00000090: 5b2c e2bd 3a17 24bc 5fa1 ee3c 6d2f b53c
000000a0: 4f1b 103c 510d 1cbc 04c1 32bd 78cf 84bd
000000b0: b733 3cbc 378e f73b 03d6 463d 7778 233d
000000c0: c206 99bc 427a 1abd d11f 64bc 666f 0ebc
000000d0: 5dc7 0c3d ebdb 613d 6113 aebc 0bed 8ebd
000000e0: d623 ce3c b086 06bc ff6a b8bd d699 1abd
000000f0: b7c0 57bd 81d7 653c 01fd b2bd 6362 353d
00000100: 06e3 c23c 59a8 a93b bd47 81bd 7061 233d
00000110: 5960 11be ea17 e13c ed7b 5f3d c652 1b3d
00000120: 9aa4 243d 09c1 723d a8c6 96bd 2608 9238
00000130: 8255 1a3d 6088 66bd 9624 a7bc 1475 b0bc
00000140: 58a3 693d db23 eabc 585a 8dbb 8223 a1bd
00000150: 8b97 35bc 2a16 643d 1a08 be3b ae9b 7e3c
00000160: ce71 23bd e7ff 17bd 849d 6f3d 46bc b63c
00000170: 01c9 debb a8d4 4a3d 4753 cc3c c1f6 b13c
00000180: e438 cc3c c649 623d 3131 b6bd c3c8 303d
00000190: 2be1 703d c792 c4bd b37a aebd b4a2 e63b
000001a0: c790 cd3c 32b7 f6bd a3db 8dbb 2182 93bd
000001b0: d436 febd c52b efbd 3d48 03bb 2426 0f3d
000001c0: 2a71 5ebd 80f5 d3bc cd04 2e3d 6389 0dbd
000001d0: 5556 86bd 74f1 35bb e432 2e3d b9d4 e2bc
000001e0: 23f8 9abd b9ea 013c 07cc a43b 2378 41bb
000001f0: 0266 233d 5478 2bbc b665 a2bc ed5f 05bd
-0.040682606 -0.07953611 0.068900846 -0.06640434 -0.054739773 0.039684054 0.022502072 -0.045224894
-0.0397785 -0.064585045 -0.026751261 0.019813953 0.06169884 -0.018605618 -0.026876794 -0.044978138
-0.10554384 -0.05066273 -0.038074393 -0.07312113 -0.00041660617 -0.051942132 -0.015114493 -0.026340706
-0.09517829 0.10247286 0.095453285 -0.0061590606 -0.06915835 -0.008117386 -0.032175805 0.07757581
-0.021131396 -0.041546796 -0.04624978 -0.057327073 -0.110436164 -0.010015303 0.029129682 0.022117341
0.008795573 -0.009524659 -0.043641105 -0.06484884 -0.011486939 0.007554795 0.04854394 0.039909806
-0.01867998 -0.03771425 -0.013923601 -0.008693552 0.034369815 0.05514137 -0.021249475 -0.06978806
0.025163572 -0.008210823 -0.09004783 -0.037744366 -0.05267402 0.014028431 -0.08739663 0.044283282
0.023789894 0.0051775393 -0.06312511 0.039887846 -0.1419691 0.027477223 0.054561544 0.037920736
0.04019604 0.059266124 -0.073621094 6.96334e-05 0.037679203 -0.0562824 -0.020403188 -0.021540202
0.057040542 -0.02858155 -0.0043137483 -0.07868101 -0.011083494 0.0556852 0.0057993056 0.015540047
-0.039903454 -0.037109282 0.058499828 0.022306573 -0.006798864 0.04951921 0.024942053 0.021724107
0.024929471 0.055246137 -0.08896101 0.04316021 0.058808487 -0.09598308 -0.08519497 0.0070384387
0.02509345 -0.120466605 -0.0043291613 -0.072025545 -0.124128014 -0.1167827 -0.002003207 0.034948483
-0.05430714 -0.0258739 0.042485047 -0.03455485 -0.06559435 -0.0027762325 0.042529 -0.027689325
-0.075668596 0.007929497 0.005029205 -0.002952107 0.039892204 -0.0104657 -0.01982389 -0.032562185

network_body._body_endoder.seq_layers.0.weight f4 [128, 17]
00000000: 2555 a1be 15ef 833b b5c2 083e 00ba 02bf
00000010: 4633 afbe dfc6 a2bd 7ed9 e5bd aa81 bbbe
00000020: cc7d 083f e7a1 28be 0c6b b13d 3ed0 71bd
00000030: da5c 1dbe 9206 31be ca2a 493d 6fb8 81be
00000040: 3c36 cc3e e643 063e 43a2 b9bd a685 76be
00000050: b06b 7abb cdfd a3be 3069 fe3d dbc1 113d
00000060: 7f4b 41be 722c c83e 7a2d 4a3e 2ee5 183e
00000070: 0543 d53e 03d6 3abe 7ac9 e6be fc9c 01be
00000080: 1bf8 023e b28a bdbb 882a bebd 57b0 d2be
00000090: 6de8 963e f738 893e 785c 40be b62e a3be
000000a0: cd93 64be e127 393e 1844 6f3e 62b6 13be
000000b0: 23fd 6fbd 0b7a 973e c4ea e8bd 73cb 52be
000000c0: ad17 943d 66b8 27bd c89a a3be 56fc a03d
000000d0: 6e20 d3be 5db1 883c 756c 11be 5b1d 04bd
000000e0: 05e5 4d3e 5a3d b0bc 2c04 633e a144 313e
000000f0: 5943 6f3d db4f 613c 08b3 92be 9dfc 933e
00000100: 70eb 94be 9c83 353e caa4 bfbd 4d2d 88be
00000110: f0c2 9c3e dd90 6a3d 97fe 393d 002a 97be
00000120: e694 c9bd 284e 833e d40f d2bd ac25 453e
00000130: bffa 51bd 937b 4abd dd01 9fbe bc4a 7fbe
00000140: c9dc f33e 65aa 99be 8cf9 c53e 6697 ca3d
00000150: 25fa bcbd c01b 25bf a318 66be 03ac aeb9
00000160: 5d65 cc3e 5d60 6e3d 4466 40bd 9d3b 3cbe
00000170: 803a 11be 66c2 333e d466 663e 101f 613e
00000180: c051 a9bc 76ef e93d 7f8b 4f3e e736 103e
00000190: 9643 85bd aa69 08bf 5b00 8fbd 3e6c 163e
000001a0: dcb1 d6bd 282b 1bbe 25fb 0d3e 1d57 5e3d
000001b0: 6399 483e 5b48 54be 8cf7 f4be 27fc 04bf
000001c0: c8f3 643e 076b 68be 6e6b 18be f0e6 163e
000001d0: 7d2d 933e 9026 c7be 2ed9 14be 2320 ab3e
000001e0: 658a de3e 6ab7 bd3e 3f09 eb3d f631 ba3e
000001f0: 3943 40bd 6409 463f 908c 103e 4151 a53c
00000200: 0ed8 bdbd dd66 a13e 36a9 00be 450b 73be
00000210: 9218 11bd a1d2 debe 0b62 2c3e 0fbf 8e3e
00000220: 7671 9d3b b4cc 8d3e e9bf 063c 6ab5 6e3e
00000230: 7818 2f3e c99a 1dbe ae97 973e 02d7 163a
00000240: 171a 3f3e f536 1cbe 2b13 b3bd 26d8 93be
00000250: 4d52 8cbd 9df1 b8bd c2b2 553e 8d4b 5abe
00000260: 3a29 653e fef3 55bd 2f71 cc3e 2954 963d
00000270: 7080 b9be fe2f 82bc d50a 023e fffe bd3d
00000280: e5c5 9c3c a756 d9be 8d10 783d e236 ebbd
00000290: 5667 943d be27 dc3e dac0 7f3c 1683 083d
000002a0: af99 80bd ed8a 393e b440 293e b795 51be
000002b0: 3951 04bd a97e 8d3d 0c95 3a3e 267a fbbd
000002c0: 3329 ecbd 1cb2 383e 7c79 afbb 0057 303e
000002d0: 2a48 adbd a124 e2bd ecd2 82bd 852c 063e
000002e0: f450 59be 4b5b afbe 4c9d ce3b 54d6 a93c
000002f0: abc2 bcbc eaa0 31be f668 a2bd 3c67 14bd
00000300: 10c4 10bd 2c09 a73d edfe 0fbe 82e5 ea3e
00000310: 6c17 5f3e 5f38 943e 38a9 3e3e f9ca 85be
00000320: 6b09 3bbe d336 f23e df6a ef3d 2e77 3bbd
00000330: 9c43 68be eea8 133c ed86 093f 4732 eb3d
00000340: 98c6 aa3e 9d1f aabe 19bf b33e be16 cfbd
00000350: a1f6 04be c619 963e b25f 743e de0b 20be
00000360: b076 5bbd 0b71 e13e 0513 25be 7746 5e3e
00000370: 05cf 8abe 28da 823e 80b4 81be 7da9 993d
00000380: 878b 023e 2241 ecbe 033c 00be 03f0 7abe
00000390: 792e 82be 0a67 c93a 1daa a6bd 4386 bc3e
000003a0: 451a a23c d060 df3e c242 e3be ef7d 18be
000003b0: 0ed3 d13d f272 883d d5a8 c83d a0d2 cfbd
000003c0: 8361 bdbd 80d0 94be eb54 56bb e146 3cbe
000003d0: 03fd a6be 7064 28bc 58bd 183e c2d5 0a3e
000003e0: 46e2 8bbe 7aaa ec3e be4e 29bb bae6 073f
000003f0: 18f2 24be 1ab9 363e 27d6 febe 8f22 ac3d
-0.31510273 0.0040263035 0.13355525 -0.51065063 -0.34218806 -0.07948088 -0.11223124 -0.36622363
0.5331695 -0.16468011 0.08662996 -0.059036486 -0.15367451 -0.17287663 0.049113072 -0.25336024
0.39885128 0.13111839 -0.09064152 -0.2407442 -0.003821116 -0.32029572 0.12422407 0.035585266
-0.18876456 0.3909641 0.1974391 0.14931175 0.41652694 -0.18245701 -0.4507559 -0.12657541
0.12789957 -0.005784356 -0.09285456 -0.41150162 0.29474202 0.26801273 -0.18785274 -0.31871575
-0.22322007 0.18081619 0.2336582 -0.14425042 -0.05859102 0.295853 -0.11372903 -0.20585422
0.07231078 -0.04094734 -0.31954026 0.07860629 -0.4123568 0.016686136 -0.1420153 -0.032254558
0.20106895 -0.02151363 0.2216956 0.17311336 0.058413837 0.013751949 -0.28652215 0.28903666
-0.29085875 0.17725986 -0.09357603 -0.26597062 0.30617476 0.05726706 0.04540881 -0.2952423
-0.09842853 0.25645566 -0.10256925 0.19252652 -0.05126452 -0.049434256 -0.3105611 -0.24930853
0.47629383 -0.30012813 0.38666952 0.09892158 -0.09227399 -0.6449547 -0.22470336 -0.00033316025
0.39921084 0.058197368 -0.046972528 -0.18382116 -0.14182472 0.17554626 0.22500163 0.21984506
-0.020668864 0.11422627 0.20268057 0.14083444 -0.065070316 -0.5328623 -0.0698249 0.14689729
-0.10483143 -0.15153182 0.13865335 0.054282296 0.19589762 -0.20730726 -0.47845113 -0.51947254
0.2235862 -0.22697078 -0.14884731 0.14736533 0.28745642 -0.38896608 -0.14535972 0.33422956
0.43464962 0.37053996 0.11476373 0.36366242 -0.04693911 0.7735808 0.1411612 0.020180346
-0.09269725 0.3152379 -0.12564549 -0.23734768 -0.035423823 -0.43520072 0.16834275 0.2788014
0.0048047854 0.2769524 0.008224466 0.23311391 0.17099178 -0.15391077 0.2960791 0.00057540846
0.18662296 -0.1525534 -0.087438904 -0.28875846 -0.06851635 -0.09030459 0.20868972 -0.21317883
0.22379008 -0.052234642 0.39930102 0.07340271 -0.36230803 -0.015892025 0.12699445 0.09277152
0.019137332 -0.42448923 0.06056266 -0.114850774 0.07246272 0.4299907 0.015609944 0.03332814
-0.06279313 0.18119402 0.16528589 -0.20467268 -0.032304022 0.06908924 0.1822092 -0.12279157
-0.115312956 0.18036693 -0.0053550582 0.17220688 -0.0846103 -0.11042143 -0.063878864 0.1310292
-0.21222287 -0.34249339 0.0063053723 0.020732082 -0.023042044 -0.1734654 -0.07930176 -0.036231264
-0.03534323 0.08156046 -0.1406209 0.45878226 0.21786278 0.28949258 0.1861924 -0.26131418
-0.18265311 0.47307453 0.11690306 -0.045767955 -0.22682041 0.009012444 0.53721505 0.11484199
0.3335464 -0.33227244 0.35106733 -0.101117596 -0.12984706 0.2931654 0.2386463 -0.15629527
-0.053579986 0.44031557 -0.16120537 0.21706568 -0.27111068 0.25557065 -0.25333023 0.075030304
0.12748538 -0.46143442 -0.12522893 -0.2450562 -0.2542608 0.0015365791 -0.08137915 0.36821184
0.019787917 0.4362855 -0.4438687 -0.1489179 0.102453336 0.06662549 0.09797827 -0.101475954
-0.092471145 -0.29065323 -0.0032704424 -0.18386413 -0.32614908 -0.010277852 0.14915979 0.13558105
-0.2732107 0.46223813 -0.0025834288 0.53086436 -0.16107976 0.17844048 -0.4977276 0.08405029

network_body._body_endoder.seq_layers.2.bias f4 [128]
00000000: cb86 b6bd a083 9b3b b82a 8b3d cf77 c0bb
00000010: 847e 893a 3100 c13d 0a6a 79bc 2da9 143d
00000020: cc31 70bd 711a f83a ce9c 1eb9 559e 5cbc
00000030: 0ae3 33ba d35e acbc 7877 2fbd 20cc bbbc
00000040: 230d 953c 9056 333d 33f6 053b d684 253c
00000050: 6458 243c ab8a fbbc 85fe e13d 9f0e 25bc
00000060: 96e0 123d 400a 57bd 4374 54bc 0013 77bd
00000070: 64e6 59bd b5b9 fa3a e5ca dcbc 5963 e53c
00000080: d580 96bc bb21 26ba df31 313c 1541 353d
00000090: 8848 29bc bc97 adbb 7e24 0fbc a6ff e5bc
000000a0: aafb 9d3c 6936 103d 02b4 2d3d edad 573d
000000b0: 10c5 053b cab1 c83c 979d 89bd 5e70 1e3d
000000c0: b6c4 5dbb 17e1 b63c 7241 dfba e2b1 ae3c
000000d0: 72d9 043d 14c0 a8bc 8e29 e63a 1f02 4abd
000000e0: 4d2a 10bd 0808 2e3d 26d8 94bc 2815 25bb
000000f0: a480 c23b 7b02 abbb eb96 acba 8e58 1b3c
00000100: 538f e5bc 0d99 513d b322 90bc 8d81 bcbb
00000110: 2305 843d de83 7dbb 77f3 0bbd 807a 49bd
00000120: 7838 1dbd 834c fa3b 5af1 113c 5f03 c1bc
00000130: cd3b 153d ac87 25bb caea 773d 9859 ec3c
00000140: 208d 633d f691 833c d620 7237 d8e2 fa3c
00000150: 5c5a 933c 7b67 9dbc 2eb6 813d bbcd eabc
00000160: 5a6b 42bd 36c4 87bb 3105 d3bc db9c 943c
00000170: f8ca 5a3c f93a fd3b 8184 1b3d fb05 0e3d
00000180: 5942 153c 59f3 93bd f7fe 8d3c 9a81 e83c
00000190: 952e 313d d986 3c3c 50ab 083c 5d19 413c
000001a0: 1e46 8a3d 068b 16bd c1cf 3b3c cd2f 2b39
000001b0: 7216 6fbd e875 b33c b80f b4bc 1b1f b4bc
000001c0: b7d9 963d 54c9 4f3c aa64 903d 6233 ee3c
000001d0: 8843 01bd a328 7a3b 5291 70bc 0064 113d
000001e0: b610 17bd 007a eb3c 8702 54bd 6f7e 983c
000001f0: 4621 f03c f42a b13d c8f9 d2bb b6a2 733c
-0.089124285 0.0047459155 0.06795257 -0.0058736573 0.0010489975 0.09423865 -0.015223036 0.03629415
-0.05864124 0.0018928779 -0.00015126468 -0.013465484 -0.00068621396 -0.02104131 -0.042838544 -0.022924483
0.01819474 0.043783724 0.0020440936 0.010102471 0.01003084 -0.03070577 0.11034874 -0.010074287
0.035858713 -0.05250001 -0.012967172 -0.060320854 -0.053198233 0.0019128831 -0.026952216 0.028001474
-0.018371979 -0.00063374237 0.010815113 0.04425152 -0.010332234 -0.005297629 -0.008736728 -0.028076004
0.019285042 0.03520814 0.042407997 0.052656103 0.0020411648 0.024498839 -0.06719511 0.03868138
-0.0033839173 0.022324128 -0.0017033054 0.021325056 0.032433935 -0.020599402 0.0017559992 -0.04931843
-0.03519659 0.042488128 -0.018169474 -0.0025189612 0.0059357453 -0.0052188016 -0.0013167536 0.009481562
-0.028022444 0.05117135 -0.01759467 -0.0057527483 0.06446292 -0.0038683335 -0.034167733 -0.04918909
-0.03838393 0.0076385154 0.00890764 -0.023561178 0.036433984 -0.0025257869 0.060526647 0.028851315
0.05555451 0.01606081 1.4431969e-05 0.030625746 0.017987423 -0.019214382 0.06333576 -0.028662553
-0.04746566 -0.004143263 -0.025759311 0.0181412 0.013354056 0.0077279774 0.037968162 0.034673672
0.009110057 -0.07224149 0.01733349 0.028382111 0.043257315 0.01150676 0.008341625 0.011785832
0.06751655 -0.036753677 0.011463107 0.00016325638 -0.058371015 0.021906808 -0.021980152 -0.021987488
0.073657446 0.012682278 0.0705045 0.029077236 -0.031558543 0.0038171194 -0.014683085 0.035495758
-0.03688117 0.028744698 -0.051760223 0.018614976 0.029312741 0.08650771 -0.0064384677 0.014870336

network_body._body_endoder.seq_layers.2.weight f4 [128, 128]
00000000: 7b2a 78bd 9516 67bd 7f0d 633d 82d6 093e
00000010: 8308 553c ab9e f7bc 3151 19bd ab9e 2f3d
00000020: c405 1a3d c04e c8bc 68e2 ffbd e9f8 4ebe
00000030: 76a8 8b3d c973 b9bd 5fb4 16be 6492 323d
00000040: 2223 c4bd 7761 833d 5f25 393d 4fdd ea3d
00000050: 89e1 553e dd03 e3bd 30af 8bbc fb3f 1f3e
00000060: c7b3 64bd 8b33 54be 0848 24be 727c 10be
00000070: 0093 88be dcfb 43be 185b 4fbe 6f9d fabd
00000080: 260a 33bd 5066 8c3c 9f25 13be 325d 3bbd
00000090: 404b fdbd ed0f e43d cb63 6bbe 0ae3 9fbd
000000a0: bbb9 03be 4bd5 653d e708 adbd 83b4 e1bc
000000b0: 68d2 ec3d 566f f5bd 6224 bebd 2b0a 62bd
000000c0: a504 95bc 4f7f 7f3d b80b 8ebd fc8e 9bbd
000000d0: 7056 1dbe 3c2d 83bd 1255 11be 6b31 f4bc
000000e0: 1f1e 2abe f125 ac3d aad8 fabd 81e0 b93d
000000f0: 233b b63d 0eb7 4ebd f57f 17be 85ca 1dbe
00000100: f5ac 753c 1b6b 53bd 559b 163e 464a 67b9
00000110: a5cf 43bd 71ea aebb 569d 1dbe 5fe8 123e
00000120: b213 113d c5b0 e63d b4f0 253c 7ae4 8cbe
00000130: 9770 823b 1616 7ebe 707e 003d ae11 94bd
00000140: b186 6b3d 68bc 213d 794e 4e3c fe28 e5bd
00000150: 7bdf b0bd 54c8 e4bd 6c00 48bc b84c afbd
00000160: 4034 d1bd df69 56bd dd84 dabc 90c0 f8bc
00000170: 1261 2bbc 4763 31be a24c 11be 9f0c abbd
00000180: c10e d03d 95a0 86be ec26 1fbe 3c2e 2f3d
00000190: d9cd 38bd 7ecc 9abb 6e87 95bd 35dc 52be
000001a0: 6d84 cc3d 0194 28bd 3a52 0abe 83c0 d63d
000001b0: 5943 693d 2e88 833d 7435 96be eb7c c639
000001c0: d2df 34be 96f7 46bb 0139 47bd 9a84 6a3e
000001d0: c492 243d 6858 bfbb da35 acbe 260d cf3c
000001e0: e743 e1bd f052 5dbb 4fc1 38bd 9fe2 c23a
000001f0: 96eb 6b3b 025c a3bd eff2 10be 10c2 3bbe
00000200: fb2c 0e3e 0f28 763c 0546 103e 2bb5 b03d
00000210: fcf3 6b3e 8a8e 3abe 86fe a23d a345 143e
00000220: 1db6 cc3d 34a6 963d ac58 61be 3c7f f4bd
00000230: 3195 18be 49b0 a63c 8f7a 5a3b 0109 983e
00000240: f16f be3c 7c48 d3bc 8f5a d63d 4aa4 29be
00000250: b372 95bc ea35 29bd c708 d4bd ab6b 9fbc
00000260: 3e55 0c3b 0e60 5ebe 06ff 0cbc d5ad 44bd
00000270: 8844 fe3a 9fad bdbc 9429 b13e 1758 dfbd
00000280: 1dcb 70bd 3517 12be dc0a c7bc 7382 af3d
00000290: 2efe db3d 9365 20bd cb05 29be ca21 7fbd
000002a0: 02a9 c03d 6a84 143c 3c5f 93bd a43f 643d
000002b0: e66f 483e 7af5 79be 5d2c 383d 0cd3 54bd
000002c0: 4c73 d4bd 7ea4 a5bb a0f0 03be 1fe7 1a3e
000002d0: 5c05 193e f0f1 b23c d7de b13d 1f0e babd
000002e0: 1c6d b5bd 189d 1bbe 52cc 25bc b2cb 0a3c
000002f0: afa6 1f3e 6b90 e03d bb85 8d3d 071e cabc
00000300: 4f56 fcbb 7347 acbd 91d0 083e 508d 013e
00000310: 91d2 7ebd 1b48 313e 8cdb 4fbe a6e7 bf39
00000320: 6c17 31be 4868 1bbd 8cc8 bcbb 5014 d6bd
00000330: 5ceb 26be dbe0 97be a86b d6bc 73cb fdbc
00000340: 47df a13d e2a1 2dbd f19a 32be 548f 00be
00000350: 047b 8a3d 471e 9fbc 64b9 27be 776b 48be
00000360: 2272 e0bd 40ba 37bd f176 8bbe 707e 34bd
00000370: 5a8a fe3d 8152 073b b581 4fbc 5e3f 4bbe
00000380: 908a 9c3d 4c26 98bd 472d 223e 7e05 3dbe
00000390: 9b02 7b3d 9425 7fbd ea10 a43d 2c41 fdbc
000003a0: d721 2dbc c3e9 7ebd 0fae 1f3e 1edb 7d3d
000003b0: 943f 3cbb 12a2 473d 710a cf3d 5b3e 54bd
000003c0: 925f e83c a1bb 9dbd 6cf5 28be d024 babb
000003d0: c378 abbe e2f6 653d 0963 40bd 3b89 203d
000003e0: d294 d53c 21f7 303e 2e40 afbd a6de 33ba
000003f0: 67da c6bd e420 5dbe a06b 8f3c b5b1 b03d
-0.060587388 -0.05641802 0.055432793 0.13460734 0.013002518 -0.030227026 -0.037430946 0.042875927
0.037603155 -0.024451613 -0.124943554 -0.20212139 0.06819241 -0.090552874 -0.14717244 0.04359664
-0.095770136 0.06415074 0.045201655 0.114679925 0.20886816 -0.11084721 -0.01705131 0.1555175
-0.05583551 -0.20722787 -0.16043103 -0.14109972 -0.26674652 -0.19139045 -0.20249593 -0.12237059
-0.04371085 0.01713863 -0.1436982 -0.045743175 -0.123678684 0.1113585 -0.22987287 -0.07806976
-0.1286382 0.056111615 -0.084489636 -0.027551895 0.11563569 -0.11984126 -0.09284283 -0.05518548
-0.018190691 0.06237727 -0.06935829 -0.075956315 -0.15365005 -0.06405112 -0.14192608 -0.02980872
-0.16613053 0.08405674 -0.12248357 0.09076024 0.08897998 -0.050467543 -0.14794905 -0.15409286
0.014994849 -0.051615816 0.14707692 -0.00022057546 -0.047805447 -0.005338006 -0.1539205 0.14346455
0.035419174 0.11264185 0.010128189 -0.27518064 0.003980707 -0.24813113 0.03137058 -0.07229935
0.0575015 0.03948632 0.0125919515 -0.11189459 -0.086363755 -0.11171022 -0.012207132 -0.08559555
-0.10215044 -0.05234706 -0.026674682 -0.030365258 -0.010460155 -0.17323028 -0.1418939 -0.08352017
0.10159064 -0.2629439 -0.15542191 0.042768702 -0.045118187 -0.0047240844 -0.07301222 -0.20591815
0.09986196 -0.041156773 -0.1350793 0.104859374 0.056948993 0.064224586 -0.29337656 0.00037858574
-0.17663506 -0.0030359975 -0.048638348 0.22902146 0.04017903 -0.0058393963 -0.33634835 0.025274824
-0.109992795 -0.0033771358 -0.04510623 0.0014868564 0.0035998574 -0.079765335 -0.14155172 -0.18335748
0.13884346 0.015024199 0.1408921 0.08628305 0.23042291 -0.18218437 0.07958703 0.1447969
0.09995673 0.073559195 -0.22006482 -0.119383305 -0.14900662 0.020347731 0.003333721 0.2969437
0.023246737 -0.0257914 0.104664914 -0.16566578 -0.01824317 -0.041311182 -0.10353237 -0.01946052
0.0021413113 -0.2171633 -0.008605724 -0.04801734 0.0019399086 -0.023154078 0.34602034 -0.10905474
-0.058787454 -0.14266665 -0.02429717 0.08569803 0.1074184 -0.03915937 -0.16506116 -0.062288083
0.09407236 0.009064773 -0.07195899 0.055724755 0.19573936 -0.24410048 0.044964183 -0.051959082
-0.10373554 -0.0050550094 -0.1288476 0.15127228 0.1494345 0.02184388 0.086850815 -0.09084725
-0.088587016 -0.15196645 -0.010119515 0.008471416 0.15590928 0.109650455 0.06910273 -0.024672521
-0.0077007185 -0.08412065 0.13360812 0.12651563 -0.06221253 0.17312662 -0.20298594 0.0003660295
-0.17294091 -0.037941247 -0.0057612117 -0.10453093 -0.1630072 -0.2966374 -0.026174381 -0.030980801
0.07903915 -0.04239071 -0.17441918 -0.12554675 0.067617446 -0.019423617 -0.16379315 -0.19572245
-0.10959269 -0.044855356 -0.27239183 -0.044065893 0.12428732 0.0020648541 -0.012665202 -0.19848391
0.07643616 -0.074291795 0.15837584 -0.18459126 0.06128178 -0.062291697 0.080110386 -0.030914865
-0.01056715 -0.06223465 0.15593742 0.061976545 -0.002872442 0.048738547 0.101094134 -0.05181728
0.028365884 -0.07701803 -0.16499871 -0.005680658 -0.3349057 0.05614365 -0.046969447 0.039193373
0.02607194 0.17281772 -0.08557163 -0.00068614853 -0.09709626 -0.21594578 0.017507374 0.08627645
